src/models/mentor/results/3-channels/synthetic/topology/tv3/model_weights/1.ckpt (torch, 606167 bytes, 112 tensors)

topology.conv_GAT.att f8 [1, 1, 64]
0	0xbfb63f53500b7054	-0.08690376953330886
1	0x3fd0bd8fc5a9486a	0.2615699224744562
2	0xbfb6d9f520aa90da	-0.08926326797024178
3	0x3fcdfb67a2400d1d	0.23423476621983577
4	0x3fac7605b09cf09d	0.05558793812676408
5	0xbfa24661ec4f0ffe	-0.035693225952428506
6	0xbfcf8bc1d92f011e	-0.2464525518862581
7	0x3f99d135f3be39c7	0.025212138177772816
8	0x3fd0e7795a53dab6	0.2641280538659133
9	0x3f97188a30a8bed8	0.022554549426955756
10	0xbfb7629e00866dfc	-0.09134852898426254
11	0xbfc87bfc1aad5cc8	-0.19128371527287968
12	0xbfbbd74a1095281e	-0.10875380425309841
13	0x3fc051d52c19e376	0.1274973359429869
14	0x3fc8b69835c14f3e	0.19307234406243795
15	0x3fccb94e70a1f2b4	0.22440510272635594
16	0x3fd0641ea82dec24	0.2561108248116304
17	0x3f7da7fa4a9b834f	0.007240274144096072
18	0xbfc784457135c660	-0.18372409847102045
19	0x3fc94907840809c8	0.1975411791500632
20	0xbfbb8728a90774de	-0.10753111006438895
21	0x3fa8f6e5160ad936	0.04875865835258468
22	0xbf6ca861b3a36e75	-0.003498259376199015
23	0x3fd206521e8b9d59	0.28163578970857867
24	0x3fcbe5ea4705a00f	0.2179539534365635
25	0x3fc837aaf8d08a33	0.18919884823942965
26	0xbfc1db1618692af4	-0.1394984835809151
27	0x3fd342f76bd32e9f	0.3009623101213296
28	0xbf937851c58ba1ca	-0.01901366966458954
29	0xbfd199c3f574c4c1	-0.27501009912800717
30	0xbfc7435655241e51	-0.18174246938018482
31	0xbfb7f37c9437ce5e	-0.09355906122783028
32	0xbfbe8389cea3090a	-0.11919461531491407
33	0xbfcdad21eede3a5b	-0.23184608615379684
34	0x3fa676c3947dbbd6	0.043874847294197813
35	0xbfd0f354882b4984	-0.2648516969467425
36	0x3fc1eba18058f48f	0.1400033833214462
37	0x3f96a19fbafaf3e2	0.022100921428080407
38	0x3f9c27023ab8d656	0.02749255641375322
39	0x3fb7c458bedc864f	0.09283976230337852
40	0xbfc8ea94e0985776	-0.1946588608413397
41	0xbfcd3968c57daabb	-0.22831449168309867
42	0x3fcf222f86122391	0.2432307629244659
43	0x3fd1bed91bbea1fe	0.2772734423583926
44	0x3fb7ebe590683562	0.09344324851573085
45	0x3fc1e454a1af9997	0.139780596683704
46	0x3f8f332b3fd9f17c	0.015234315763557708
47	0x3fc598739e5f9f7d	0.16871495469171896
48	0xbfcfb1f90c075cb5	-0.24761880004255024
49	0x3fc439c5244c996f	0.15801300308630625
50	0x3fcd709cfceb99ce	0.22999918317436968
51	0xbfcf1f0935800cf2	-0.2431346427184518
52	0x3fc71e8657846084	0.1806190421418742
53	0x3fcf30c1b68438b6	0.24367543613374715
54	0x3fceb21d366b4875	0.2398106113165032
55	0xbfbd0150bff29c60	-0.11330132185195074
56	0x3fc0c8a047a39e1e	0.1311226224708983
57	0xbfc54fa7efd7f12e	-0.16649340830907405
58	0xbfce6fb2fe39db01	-0.23778378880862053
59	0xbfc8d3f7f581ef4e	-0.19396876800225943
60	0xbfd1b3185871a14e	-0.2765560973844189
61	0xbfc267b04c24772a	-0.1437893268384241
62	0xbfcbfa395aebe2ef	-0.21857373179934522
63	0xbf86a4f6a14ab4e0	-0.011056830212817947

topology.conv_GAT.bias f8 [64]
0	0xbfd260c8027c8ac6	-0.2871570610315469
1	0xbfebd485c9d4b549	-0.8696927015313715
2	0x3fc04ccdefd7c832	0.12734388552741077
3	0xbfda058fe9596ae6	-0.40658948696152064
4	0x3fcbea79f129ef68	0.21809314990593553
5	0x3fc810461409de43	0.18799663523144447
6	0xbfd5373004bebab0	-0.33149338210470614
7	0xbfd8fa63a36bbf79	-0.39028254469939544
8	0x3fcaa82b070e78bb	0.2082570824104034
9	0x3fc4a6ecacfc59b3	0.16134413191384808
10	0xbfe2678b57b38101	-0.5751396859086811
11	0xbfd83aa6672470ab	-0.3785797126054244
12	0xbfe5b0a7e23b879d	-0.6778144281963595
13	0xbfd543d1efcb882b	-0.3322644082783223
14	0xbfd8673dd622fff6	-0.38130136405743487
15	0x3fbf38d321bfb4fe	0.12196082662531535
16	0x3fc76706a2d1f3aa	0.18283160162164097
17	0x3fc0e3d2e2903302	0.1319526296869285
18	0x3fab055d6dad90bc	0.052775306356836776
19	0xbfd3f305af45e924	-0.31170789829742973
20	0x3fba71508fd108b5	0.1032915450205419
21	0x3fb588ee770e0178	0.08412065893754128
22	0xbfeeef161b624f0a	-0.9666853461116898
23	0x3fb79394a067ac87	0.09209565082680814
24	0x3fc17686de3c4b54	0.1364296517500302
25	0x3fcc679bfc035974	0.22191190533949234
26	0xbfdab1e7e5c340cd	-0.4171085113312188
27	0xbf8a5f74bc8258a8	-0.012877380373805217
28	0x3fc798dc191a79f4	0.1843524096083936
29	0x3fc1dffc831443ca	0.1396480217013319
30	0xbfdaf7bfa00e76db	-0.4213713706065911
31	0xbfe0d5adec886307	-0.5260839099674691
32	0xbfd0d0bf5b0ee822	-0.2627409352531932
33	0xbfd855a193f18b64	-0.3802265114556376
34	0x3f9bd3ed9f6d28be	0.02717562947808782
35	0xbfddf2972fbeb218	-0.4679315534838522
36	0x3fac3d709f39b95d	0.05515624946279971
37	0xbfd1a93c3f630c7c	-0.2759543055546556
38	0x3fcb83448fbc6e9d	0.2149434758983845
39	0xbfdad29c91c177fc	-0.41910471185644815
40	0xbfe1156b803ac4cf	-0.533864736984606
41	0x3fccf1131e5cd937	0.2261070154433555
42	0xbfd0e0304fd4ea4e	-0.26368339344086145
43	0x3fc373052fbcc666	0.15194763976028297
44	0xbfcbcbccceaab528	-0.21715698329118394
45	0x3fc2c9703431a2ee	0.1467724089482298
46	0x3fa7f94f998ddef9	0.04682396649780957
47	0xbfbabb9c364b952c	-0.10442520452086929
48	0xbfdb11a7a55bd939	-0.42295256756132776
49	0x3fca8713730c187a	0.2072471915964263
50	0xbfd33580c3bb4e34	-0.3001405631486904
51	0x3fc9ed9d402889d2	0.2025639117501457
52	0x3fb4f3794e009742	0.0818401160655329
53	0x3fcae66ede93fd8a	0.21015725963659931
54	0x3fd07ba7ed23d140	0.257547360975213
55	0x3fd4f2bacdad6058	0.32731504522008015
56	0xbfd8244c6ecc170f	-0.3772154886249703
57	0xbfed24dbef4399e6	-0.9107494042517004
58	0xbfda90ae29f41b2e	-0.4150805864050423
59	0xbfd457b71bc62528	-0.3178537150602829
60	0xbfd4a94df3bd4962	-0.3228335266368473
61	0x3fbec92994b2c219	0.12025699501351318
62	0xbfdcddfc00608f19	-0.4510488513644631
63	0x3fd0317885f34713	0.2530194576366835

topology.conv_GAT.lin_l.weight f8 [64, 1]
0	0xbfd20187b8361525	-0.2813433932245338
1	0x3fcff9102d19ffd3	0.24978830530380822
2	0x3fd8e5b34eafd10f	0.3890198009896872
3	0x3fc1c44908a101b9	0.13880265160879704
4	0xbfcbb34ff2fba5c9	-0.21640967716602535
5	0x3fd7e2103437c710	0.3731728086414572
6	0xbfb20d1d239a4dd1	-0.07051260108192216
7	0xbf9205c181cd870b	-0.01760008196595834
8	0x3fc2a3f2546eebbe	0.1456282531997583
9	0x3fdd78e29cbb1606	0.4605032473158136
10	0x3fe2485057623726	0.5713273722373955
11	0xbfc6d85c78c445d6	-0.17847782036601129
12	0xbf800ddb12a9c3ea	-0.007838927752546316
13	0xbfc7f1c45516892c	-0.1870656409710788
14	0xbfd03307ba396ecf	-0.25311463533374207
15	0xbfaae2bdd9231f03	-0.052511151081089856
16	0x3fd872d9e448f20e	0.38200995725108633
17	0x3fae64af272bc527	0.05936190941964475
18	0x3fcaa003f0a6d63c	0.20800828219005207
19	0xbfd2aeb14ee8c3e4	-0.29191239076595665
20	0x3fd67da1d8b7dd7e	0.3514179817570592
21	0x3fe04edf3b50975e	0.5096279295437218
22	0xbfd47676b0092473	-0.3197304457758669
23	0x3fd2e1f0bed39737	0.295040308336286
24	0x3fb253d157fdce07	0.07159145735004567
25	0x3f4b384e40a00947	0.0008306867687227015
26	0xbfd133135b6f83a9	-0.26874240807779387
27	0x3fbd597d86efc585	0.11464676422453664
28	0x3fd4389b0bf7f001	0.3159549347763005
29	0x3fda8c90c2659cd6	0.41482943519663473
30	0x3fbab30610b9941c	0.10429418476412916
31	0x3fcd4a20a1940f5b	0.22882469071930242
32	0xbfc444bfaf0d88c3	-0.1583480458021481
33	0x3f9efade1ae10636	0.03025385893875506
34	0x3fe086232249c9ce	0.5163741750423527
35	0x3fc3e91f598cabaf	0.15555183289083405
36	0xbfde91fb52360077	-0.47766001728451307
37	0x3fbd8c06a57097cf	0.1154178766160776
38	0x3fd3ccd19661f799	0.30937614141282094
39	0x3fc28d0db4412b12	0.14492961217396122
40	0x3fe59673ff120a02	0.6746158582539581
41	0xbfc06c56712e529e	-0.12830620314038738
42	0x3fbde69f04461882	0.11680024961796856
43	0x3fe07d93f9fea0b5	0.5153293497760588
44	0x3fa1766617658bdc	0.03410643611530137
45	0x3fe142aff04c0753	0.5393905347157023
46	0x3fdd4723083891b2	0.4574668484003964
47	0x3fce216f3e3f575d	0.23539534129548204
48	0x3fb49211a456e764	0.08035383474535035
49	0x3fb39117657066a8	0.07643266893901546
50	0x3fdb1c28a99db3ae	0.42359367908539525
51	0x3fd7f27aa250375f	0.37417474604523265
52	0x3fd721fbd8e42a3c	0.36144920521533996
53	0x3fa13a1e78d4732f	0.033646538018933796
54	0x3fd0935e04b72372	0.2589945837067297
55	0x3f91c236653bf9db	0.017342424324846433
56	0xbf83e37c5bce55c6	-0.009711238433548607
57	0xbfa068611d7e18b0	-0.03204635128990796
58	0xbfd32834c77c4df6	-0.2993289898015229
59	0xbfd5f053739cf4f8	-0.3427933339151674
60	0xbfc8e441fb2d5adf	-0.19446587337980412
61	0xbfc4db9433027f65	-0.16295101633749734
62	0x3fdb422b68074094	0.4259136691953327
63	0xbfced6300af5a330	-0.24091148886807323

topology.conv_GAT.lin_l.bias f8 [64]
0	0xbfd7eb1a758b0c2a	-0.3737245700723998
1	0x3fd9ca3dc97057b7	0.4029688327003628
2	0x3fb2b158e3c8a61f	0.07301860390784796
3	0xbfb42aa2f606d99a	-0.078775582375647
4	0x3fbed66396c0e513	0.12045881681924113
5	0xbfd2f0804abbc82c	-0.29592902467914217
6	0xbfe5c72b1259428e	-0.6805625303623672
7	0x3f74ec134a2520a2	0.005107951498139725
8	0xbfd66daa427e473c	-0.3504434251163848
9	0x3fd49dde0407e405	0.32213545220980705
10	0x3fd272fa0644ab96	0.2882676182950318
11	0x3fc6f1b96cf9db0d	0.17925184079259573
12	0x3fa402e08787cf30	0.03908445028710472
13	0xbfe48a54724ae0f8	-0.6418859703326509
14	0x3fce5cc0506b7867	0.2372055428194841
15	0x3fee013b728c18da	0.9376504170657214
16	0xbfe6ca7dc7bfe1c0	-0.7122181798322842
17	0xbfc50c1c4ea0e728	-0.1644320854118686
18	0x3ff2951e4e3e55d6	1.1614058548342334
19	0x3f9122331b9b6a5e	0.016732023773196374
20	0x3febe81d7760f2f5	0.8720843631377578
21	0x3fea721f210dcc9d	0.8264308591445971
22	0x3fd5c987525ade54	0.3404253296134574
23	0x3ff3da6a9daf1841	1.2408243331460798
24	0x3fe604d0ca651d3e	0.6880878403689292
25	0xbfd15b2e06ab4e7d	-0.2711901726845339
26	0x3fec3ddd8ad0af11	0.8825519286378684
27	0x3fd2a9ad85ccee34	0.29160631243186974
28	0xbfac0f5d4e987d5e	-0.0548047216836902
29	0x3fd30adad0a61e29	0.29753752113217274
30	0x3fe598d0299c81a1	0.674903947136091
31	0xbfbb517e05ce9a2a	-0.10671222345136103
32	0xbfec760b60f5f71a	-0.8894097226873072
33	0x3feac128f6c9f031	0.836079103478829
34	0x3ff0226c93d2333d	1.0084043287526605
35	0x3fea241ff4f8da7f	0.8169097694979682
36	0x3fe806ab208f1e08	0.750814021675013
37	0xbfcc48b5b2262f43	-0.22096892546357524
38	0xbfb207b88a76719f	-0.07043031101642903
39	0x3fd9e779e876ec55	0.4047531862412986
40	0x3fe79a7ce59808fe	0.7376083835845575
41	0x3fda761870c74fe3	0.41345797551661984
42	0xbfd11da90ba09810	-0.26743532309990403
43	0x3fcc48f8b48b3b6b	0.22097691360110203
44	0x3feab4382248ae4c	0.8344994229896172
45	0x3fd4551022b16426	0.3176918352888286
46	0x3ff23a09406a3aa2	1.1391689792832627
47	0x3ff0ccf292a05eff	1.0500360229106602
48	0x3fec6da068cdb4fd	0.8883821532196233
49	0xbfe1caf2391f8540	-0.5560237041174005
50	0xbfdf6074a9a69f51	-0.4902621895548594
51	0xbfdecb9f8b32c14a	-0.48117817491131076
52	0x3ff4291692d578df	1.2600312934587732
53	0xbfd19d5e5cf49886	-0.27523001744919673
54	0xbfd92006cc713980	-0.39257974591318856
55	0xbfcdba2ec6c475a5	-0.23224434571686206
56	0x3fd7cab59a288c1c	0.3717473988965041
57	0x3fe22c920a07ced4	0.5679407306583593
58	0x3feaaebf02933cae	0.8338313150687975
59	0xbfe4c14488a51981	-0.648592249760256
60	0xbfd369bb8c7c8fd0	-0.3033284065188555
61	0xbfa423228a1f723c	-0.03933055816716943
62	0xbfe014c18a7d9d2b	-0.5025336937805255
63	0xbfbd5acae20657a9	-0.1146666337793635

topology.conv_GAT.lin_r.weight f8 [64, 1]
0	0x3fb89b4ae0c99d87	0.09611957538583314
1	0x3fd251511e0d8a56	0.28621318755009406
2	0x3f9e05cdf8c5837c	0.029319017704782166
3	0x3fc995bdf8568f77	0.19988226533780182
4	0xbf8ee986d0c9bf9f	-0.015093854185778187
5	0xbfc88542a68e730c	-0.191566783262623
6	0x3fbaaf138fe3022a	0.10423395407543326
7	0xbf996a4ad976f41b	-0.024819535754193916
8	0xbfcc90e500cb66ba	-0.2231718305472919
9	0x3fbaf4c0a00f07bf	0.1052971258896198
10	0xbfd24e7870812f59	-0.28603945719509266
11	0xbfccdb93edf8ff92	-0.22545098418958937
12	0x3fc3f5fabf67538d	0.15594419809226814
13	0x3fb49d9c5cd409e3	0.08052994982066468
14	0xbfc09fa2820fbaea	-0.12987166739136252
15	0x3fc2199e2bc2aa7f	0.14140679489840477
16	0xbfbffe92a386ab0f	-0.12497822277388713
17	0x3fc30ee9ef7bd298	0.14889263337649505
18	0x3fd21828c069cb87	0.28272455969197846
19	0x3fc19a9931a561d1	0.13753046917078263
20	0x3fc866f3df8df112	0.19064186492676832
21	0xbfc7203dcce2f2ff	-0.1806714296743834
22	0xbf86fe73de3dc078	-0.011227517337573753
23	0xbfc51f48dbbd2862	-0.1650172303146205
24	0xbfc545f2d2ed512f	-0.16619715975924396
25	0x3fcce08acca5535a	0.22560248367758612
26	0x3fc78cfd80877968	0.18399018073882734
27	0x3fc53f9c4d65c7de	0.16600374011210212
28	0x3fb16e6f26fb21fc	0.06809134198841343
29	0x3fc77a7707563b2f	0.18342483385318917
30	0xbf9fc8e1cf9ce631	-0.03103974179905417
31	0x3fa8f1521257f002	0.04871613000793219
32	0x3fcc2e03b63f5837	0.22015425108719608
33	0xbf8b7949e01579a5	-0.013414933348653355
34	0x3fd1c79fcaed8bb4	0.2778090936391735
35	0xbfc9ba97d5474414	-0.20100686944945834
36	0xbfaae07173f9bea1	-0.052493615538762535
37	0x3fc0232ce9266778	0.12607346901205196
38	0xbfd0b0e830e22c11	-0.2607975461366446
39	0xbf8129f485970cfa	-0.008380804373592888
40	0x3fcfc7a799025278	0.2482804772486309
41	0x3fcd3d8e40dfa61b	0.22844103019387849
42	0x3fcd87d9f8a934f3	0.2307083572544922
43	0xbfce0da0d9b00fbc	-0.2347909033707064
44	0xbfc20615cec11409	-0.14081070514126307
45	0x3fc4acbfaebaf93a	0.16152187377697108
46	0x3f95120d477b6759	0.020576674926679448
47	0xbfb6dd7e93179f0c	-0.08931723681564224
48	0xbfcd88330518e898	-0.23071897267238195
49	0xbfb658b0ad1d1abb	-0.08729080416115213
50	0xbf83acc66c1edc7e	-0.009606886076524154
51	0x3fbe6e57d8ce2cce	0.11887120287990458
52	0xbf7a8c9f51875f3f	-0.006481764161854474
53	0xbfd0eb181f564834	-0.2643490129495405
54	0xbfc2c7291fd43ad3	-0.1467029004492902
55	0x3fbc0a8b6c2342b5	0.1095358981140276
56	0xbfd022548bcf0a92	-0.25209535268019423
57	0x3fb02c6ab2aedde1	0.06317774641399111
58	0xbfd184f551d6b498	-0.2737401293951023
59	0xbfbabb223071f066	-0.10441793139210773
60	0xbfd2ab14c9df2b39	-0.29169196809805303
61	0xbfd0b397c5624560	-0.26096147800224934
62	0xbfd2ff55ca47976a	-0.2968344188105819
63	0x3faf1898fe89c11f	0.06073454005388811

topology.conv_GAT.lin_r.bias f8 [64]
0	0xbfc5bc23d16f7797	-0.16980407453860089
1	0xbfc453421b03a8fc	-0.15879083937699778
2	0xbfe2c281ab500ec4	-0.586243471713225
3	0x3fd6e2babf886ab2	0.357588469547106
4	0x3fc2a41b6a1a5ad5	0.14563315087135345
5	0x3fee4eb175058841	0.9471061025217368
6	0xbfe5a0a27cc103a0	-0.6758587299919903
7	0x3fc5de7b2e4eb684	0.170852086649962
8	0x3fed7bf9d9aeedc6	0.9213837863566645
9	0xbfee5a6597cd6f17	-0.9485347714321247
10	0xbfe5a4cdfbe6eb06	-0.6763677520715141
11	0x3feb5da9da4c56d0	0.855183531154319
12	0x3fde2ee92d948994	0.4716132111663225
13	0xbfd87637550b2901	-0.3822153406623699
14	0x3fd05e7418af2716	0.2557649842316193
15	0xbfaa7b518960c30c	-0.05172209550835846
16	0x3fe473b79ddc9a47	0.6391256411778351
17	0x3fc0ea62f26ff35a	0.13215290868529445
18	0x3fda45e26fd624de	0.4105154125359841
19	0x3fe0bf3411d83134	0.5233402584576994
20	0xbfde90e294e64d15	-0.4775930837724485
21	0x3fdc869c50659b43	0.4457159791112881
22	0x3fd230aec5d25a83	0.28422135656857267
23	0x3fc89b901a0299b8	0.192247402858994
24	0xbfeab34914b7f050	-0.8343854336412821
25	0xbfbd30209e7750f4	-0.11401561611939198
26	0x3febadc4ab1b6061	0.8649619428570184
27	0x3fe09156f1afab38	0.5177416534837453
28	0x3fe6657035f60936	0.699882607834559
29	0xbfebc36cfe6abb53	-0.8676056832390294
30	0xbfdbf698750cc921	-0.4369259970727786
31	0x3fe59057119b8cc9	0.673869642629506
32	0xbfeead5b6fe20152	-0.958661764641912
33	0xbfd4768694df5c89	-0.31973423517542493
34	0x3fedc335cae4ecd7	0.9300793612268546
35	0x3fe6443c7ba5ca37	0.6958296217911258
36	0xbfeef77ff3c5d4f8	-0.9677123795687796
37	0xbfe06b3a118c5951	-0.5130892126788159
38	0x3fe56d06dc24ad97	0.6695589351342502
39	0x3feac518b14c3cf8	0.8365596258971939
40	0x3fb48e693bbd5afc	0.08029802044380213
41	0xbfe64221bf375e80	-0.6955727324193077
42	0xbfed7d84199485f1	-0.9215717792141601
43	0x3fee961aa08af0b4	0.9558232436752605
44	0x3fe3fa2fe7d9d142	0.6242904213272953
45	0xbfb9a3dc817adffb	-0.10015657578594521
46	0xbfe52c4780aa6e39	-0.661655188846857
47	0xbfaa42a45bbf2f7e	-0.051289688300669475
48	0x3fcf11a9e1de184f	0.2427265503758371
49	0x3fd16aa742a6a9a3	0.27213460453881505
50	0xbfb8ca774c32330b	-0.09683938608413827
51	0x3fe695ec61f108bc	0.7058011925621694
52	0x3fd6ebd25af54d49	0.35814341433179614
53	0xbfbecadf3ad4e5b6	-0.12028308092421622
54	0xbfc803a7df858999	-0.18761156477110033
55	0x3fbd0240cba45165	0.11331562968945759
56	0x3fddd2419901ff0a	0.4659580225197578
57	0xbfda0e31b13f3961	-0.40711633977197975
58	0x3fe4b1a9bc29f753	0.646687381274868
59	0xbfc8e6e1b5efe253	-0.19454594977993853
60	0xbfe0dd5d7d95ac95	-0.5270221188378793
61	0xbfd87cababc51538	-0.38260928892517
62	0xbfb535bd79d4043d	-0.08285125946351087
63	0xbfa85a394bd66b45	-0.04756335306884422

topology.convs.0.eps f8 [1]
0	0xbfdb7adde5df7525	-0.42937419365428503

topology.convs.0.nn.0.weight f8 [64, 64]
0	0x3fd2f7b7bf8710ce	0.2963694925677033
1	0x3fe452cef2393f21	0.6351084452562398
2	0xbfbdcbfd5f5bb067	-0.11639388635711755
3	0x3fb5f280a0c1ca0b	0.08573154377680951
4	0x3fc8ab9e877d9ab2	0.19273740401987066
5	0x3fd42368ee741cb4	0.31466124807816276
6	0x3fd537e86d26ac5b	0.3315373483589547
7	0x3fc918b7ee63d189	0.19606684818394296
8	0x3fd104528c60b790	0.2658888216855013
9	0xbfc84377d5983551	-0.18955896310255096
10	0x3f9e053b13ab77a4	0.02931682879977128
11	0xbfa1f719001186a2	-0.0350883305152483
12	0x3ff09f0c2ce2e7c8	1.038829970681478
13	0x3fcc56ef806df163	0.2214030625435824
14	0x3fa586c495c4acef	0.04204382255769611
15	0xbfd185691194a8ee	-0.27376772610536093
16	0x3fd612c21a06cfa8	0.3448949102560115
17	0x3fd49c3cf6a4ad37	0.3220360191941895
18	0xbfa75fd126809fcc	-0.045652900648121525
19	0x3fd81b6acbbc0452	0.3766734113306188
20	0xbfc3f41fcc6fb4bb	-0.15588757974857068
21	0xbfcad163f9a452ef	-0.2095150917963546
22	0x3fb90a04e84c92b7	0.09780913039555626
23	0xbfcbd30e347a4e1e	-0.21737840235128741
24	0xbfc26fa84df092e1	-0.14403251462603975
25	0x3fd978816c84c40f	0.3979800758125415
26	0x3f80d5141e16e332	0.00821891514611792
27	0xbfd204435c152521	-0.28151020042840186
28	0xbfce183267664157	-0.23511343048859132
29	0xbfb462f897fb2d1a	-0.07963517866589989
30	0xbfc6676dacecd2e2	-0.17503138488395736
31	0x3fddbabad9c0257c	0.4645220877142362
32	0x3fcd16e57586ac14	0.227261240373395
33	0xbfc94e48e4a1aff1	-0.1977015606274786
34	0xbfab2b4a690e36f2	-0.0530646565667733
35	0xbfbd49cbe9b0d57b	-0.11440729575482138
36	0xbfa1ff23dfd2518c	-0.03514968974301089
37	0x3fdedfe858d3ed01	0.4824162356814697
38	0xbfd0adb0435c7391	-0.2606011064361207
39	0xbfa7df41323c2c8d	-0.04662517297955402
40	0xbfa12fa02a445d75	-0.03356647983508313
41	0xbfd4f40a250cb5a5	-0.32739499681596335
42	0x3fdf93a5ad6772a4	0.4933866685294481
43	0xbfc5a251ddbd9011	-0.16901610686466076
44	0xbfce42335b867342	-0.23639528244975777
45	0xbfd12f7817f78185	-0.26852228489408275
46	0xbfca6ce33a7d61b2	-0.20644798618265053
47	0xbfd01419c934dd7d	-0.2512268509776375
48	0x3f8e5a161e19a2fa	0.014820263665755718
49	0x3fd25975d595e04d	0.2867102227969596
50	0x3fd7f3ba7ce6af55	0.3742510051476889
51	0x3fc6d2dcc4054807	0.17831000872917022
52	0xbfd094e69ac1a36a	-0.259088183526322
53	0x3fc80ba796dcfbf9	0.18785567156189112
54	0x3fc3c6cf505f2fdc	0.15450469421773405
55	0xbfc165bb4307ce5f	-0.13591709874127653
56	0xbfa8b5e9aac82671	-0.04826288423289505
57	0x3fe8bdbf5fad572a	0.773162543172224
58	0xbfadaedd90bbc421	-0.05797474281087767
59	0x3fd693711b573825	0.3527491347312
60	0x3fcc120ee61b079e	0.21930109248756663
61	0xbfdd62288b74d32e	-0.4591161119345085
62	0x3fd4e278f411180b	0.3263227828468877
63	0x3fd538a1374d3679	0.3315814056448754
64	0xbfc452a6e83e94e4	-0.15877233829556936
65	0xbfc87881af76e36b	-0.19117756908033398
66	0x3fce86f8d2da65ae	0.2384940175586911
67	0x3fd6d1895009b0fd	0.35653908554264985
68	0xbfc0a2e451ac1cfe	-0.12997106540590403
69	0xbfc18b250bc229e3	-0.1370588595785441
70	0xbfd3b4a18e68f800	-0.30789984614591503
71	0x3fd14574e78c8cc9	0.26986429798325823
72	0xbfcc59077c427c11	-0.22146695678108633
73	0x3fc049457becb038	0.12723606635097595
74	0x3fd69875b7250808	0.3530554092905054
75	0x3fc07b13e24b8306	0.12875603246268258
76	0x3fc334c2a5c5adbd	0.15004761785836065
77	0xbfcd5d993d9f16b4	-0.22941890248164543
78	0x3fc37b79d36c4832	0.1522056848849061
79	0x3fd397aced0bdfa6	0.30613253735600165
80	0xbfcf62481e052777	-0.24518681970431164
81	0xbfc949d3bf8667ad	-0.19756552554900733
82	0x3fd1ea803990c4c6	0.279937797752677
83	0xbfbfc9b4b15f8189	-0.1241715367355082
84	0x3fd30fe83fb93cfb	0.2978458998013164
85	0x3fc96c7fc2eb086b	0.198623628783085
86	0x3fc8c4000b07efe5	0.19348145044921164
87	0x3fca4db10e800743	0.20549596031201575
88	0x3fd24d0d01495fa6	0.2859528076710326
89	0xbfcec8a684689799	-0.24049836602460742
90	0x3fbe894eacc8c29b	0.119282643493316
91	0x3fc8e714ca706c8d	0.19455203900074416
92	0x3fcc0c1ed04b1fd8	0.21911988421038475
93	0x3fc170416fc5f004	0.13623826940227002
94	0x3fd1f2113323008d	0.2803996085531331
95	0x3fc86a591a8aabce	0.19074548526745477
96	0xbfd12470cd9da1f8	-0.26784916000045156
97	0x3fd3e6503a56f6ba	0.3109322137569098
98	0x3fd27228497c18e7	0.28821761299367527
99	0x3fc81f25105c84ee	0.18845046328446052
100	0x3fc8299ae6d40b20	0.1887696864215167
101	0x3fa58a0e11803111	0.04206890071518122
102	0x3fbac6092eb8bf5c	0.10458428755441446
103	0x3fd27b6a9cc083ee	0.28878274257482317
104	0x3fbba7631cccef76	0.10802287533891594
105	0x3fce9b28d41a5728	0.23911009174906295
106	0x3f388b7ecbeb9db7	0.0003745255052493806
107	0x3fd4d803af533a0c	0.325684472289965
108	0x3fcd9937dedda9cf	0.2312383497440593
109	0x3fcac272d6e26624	0.20905910007859163
110	0x3fd50d1b769a28e5	0.32892500478977943
111	0x3fd0dd9e5a3b7b59	0.2635265237021734
112	0x3fd2e548167b9dc4	0.29524423785775533
113	0xbfc7f35e98c4813d	-0.18711454829554866
114	0xbfc8d4911922f204	-0.1939870236145823
115	0xbfc69818b607b705	-0.17651661766233687
116	0x3fba2faea500ce8a	0.1022900727119184
117	0xbfc1f3da6341d9ef	-0.14025430532974734
118	0xbfc92223a71d40bf	-0.19635434780003
119	0x3fc7c9fad9ceaff2	0.18585143694997402
120	0x3fc6bbf12c420757	0.17761053715735883
121	0x3fd0328e2c587499	0.2530856545507248
122	0x3fbdad242aecb732	0.11592317626920304
123	0xbfc0337741dfbee9	-0.12657061306480635
124	0xbfcc8feec203c113	-0.22314247582790667
125	0xbfd6cb6201010b63	-0.3561635026746243
126	0xbfce3c24fd85d019	-0.23621046427763373
127	0xbfc1c3e0058b126f	-0.13879013319651132
128	0x3fc3558f99354051	0.15104861241207115
129	0x3ff30ddea75da12c	1.1908861673092117
130	0xbfc78f51e52c6a96	-0.18406127634155628
131	0x3fee7b65bff6c80d	0.9525631665512734
132	0xbfe002cbe96eb4b4	-0.5003413733699262
133	0xbfe41425fed0c66d	-0.6274595238557602
134	0x3fc1c6995a4ca230	0.13887326153896273
135	0x3ff10ee97b6e2f12	1.0661406346798157
136	0xbfd8e9804a3c428b	-0.3892517781214699
137	0xbfc18433e5f01107	-0.13684700705938033
138	0x3fe46744c667e9b6	0.6376060366740635
139	0x3ff12971a1974662	1.072618132795832
140	0x3ff2b96495654205	1.1702619395983913
141	0x3fcd78c1061f3f44	0.23024761961868923
142	0x3feb1cd959c02fa7	0.8472716095870866
143	0xbf956a6787515394	-0.02091371310628494
144	0xbfbbd5677a2fb703	-0.10872503979745933
145	0xbfd233490ddd373d	-0.2843802104369962
146	0xbfb34069fb61757c	-0.07520162951683135
147	0x3fd5301527d43e6e	0.33105973138388023
148	0xbfa768ea2d0b7bfb	-0.04572231101860066
149	0xbf997d7fe9e6e458	-0.024892805720558492
150	0x3ff9d8af9f6378d8	1.6154018617740373
151	0xbfb1efb8c012729b	-0.07006411256083782
152	0xbfc4f68b0f7b537b	-0.16377390151924573
153	0xbfd321e896c95b56	-0.29894461369751946
154	0x3fd8aa33dcf4d63f	0.38538834169171204
155	0xbfc8822e88d0c237	-0.19147283249323419
156	0xbfd728878e59ce60	-0.3618487253326972
157	0xbfcb339f185b1058	-0.21251286210292863
158	0x3fd1ad5abe575ffd	0.27620571697252655
159	0x3ff49b82197d28ff	1.28796586948971
160	0x3fc428072ca039be	0.15747155837057208
161	0x3fc497f7347c6498	0.16088762343205043
162	0x3faca8f321d71882	0.055976484185110045
163	0x3fcea21f7949e373	0.2393225996236442
164	0xbfc9fd46764c7f23	-0.203041847003072
165	0x3fe19d5590ad2842	0.5504558397017336
166	0xbfdbc183849abf8c	-0.43368614148766294
167	0x3fe561983804294f	0.6681634038989531
168	0x3fd48ecf7e4399c1	0.321216462425948
169	0xbfe13a89700b1781	-0.5383956135126341
170	0x3fe17219f18f5aad	0.5451783864944751
171	0xbfb377665e87eef1	-0.07604064758191577
172	0xbf7fc8ceb18b120d	-0.007759864231676972
173	0xbfd181a42d8bca4e	-0.2735376782212925
174	0x3fa4faf0e5fdcc2f	0.04097702796470803
175	0x3fb9e13453bc81ee	0.10109259647698085
176	0x3fd3a9e997c4faef	0.30724563428149926
177	0xbfceaafe20622eab	-0.23959328252054965
178	0x3fd69585a1c3519b	0.35287609860577057
179	0xbfe0293127d99395	-0.5050283220594901
180	0xbfb4c1f87c3f0955	-0.08108475716929793
181	0xbfe2214b325f032e	-0.566564176922929
182	0xbfd9677172189a70	-0.39693866865346816
183	0xbff306b647aab199	-1.189138679455118
184	0x3fe63f575ffc4391	0.6952320933070145
185	0x3ff93256db6993a9	1.574789864616131
186	0x3fd1bea8294c40ca	0.2772617724704217
187	0x3fcf532fe9ff8d0b	0.2447261707849083
188	0x3fc2530f32402b87	0.14315977052350723
189	0xbfd9c31996dfa706	-0.40253295644525655
190	0x3fd9319415a91de0	0.39365102877897407
191	0xbfde1649acd5c074	-0.47011033895888166
192	0x3fc8e062d6d965f0	0.19434772005733647
193	0x3ff0bd923aa0e271	1.0462820329832108
194	0xbfd2f5ec5e0881a7	-0.2962599676411863
195	0x3fe8a68c261d1c1d	0.7703305000694659
196	0xbfed1fdb8b6a5159	-0.9101388667063858
197	0xbff02db085201d6e	-1.0111546707356314
198	0x3fc1de67ac7da377	0.1395997612228503
199	0x3fe8fe0cf97c001b	0.7810120461217623
200	0xbff28a2a70155a1a	-1.1587318781145144
201	0xbfb1515bb2aecca4	-0.06764767753957074
202	0x3fe18fb35f958c84	0.5487915865782189
203	0x3fe98ee9b6517506	0.7986954270269571
204	0x3fef91f3693f67dc	0.9865662627810212
205	0x3fcb89dcbf915b55	0.21514472345253446
206	0x3fead2e4e057822d	0.8382439023662919
207	0xbfc8321aaf5db663	-0.18902906000896555
208	0xbfde3de485d7cdac	-0.4725276286182758
209	0xbfeeb8ce9ada686e	-0.9600594543910697
210	0xbfb82fa5f245abd2	-0.09447705426070677
211	0x3fd94768e5b7e35e	0.39498350556782735
212	0xbf6e730a8931d24d	-0.0037169652728670567
213	0xbf9990507f1aa1c4	-0.024964578397573836
214	0x3ff56b58985e506c	1.3387075378314206
215	0x3fa800df3ff91e9d	0.0468816533653442
216	0xbfcc8fb2ae39f8d5	-0.22313531405592948
217	0xbfe59dc0f93204e9	-0.6755070559594546
218	0x3fd7e3a6a84a4e68	0.37326971468539805
219	0xbfc423ca72a2a7ad	-0.1573422488921187
220	0xbfde773af74a4b9f	-0.4760272421782989
221	0xbfc5ee843f5995cc	-0.17134144871958623
222	0x3fd8f2a632b7d136	0.3898101325314828
223	0x3ff07dd7620cd4ba	1.0307229833681917
224	0x3fb21abe21a4b90b	0.0707205612313581
225	0x3fc3ded5abf1d72e	0.15523787399040984
226	0x3fb23eb8d22dca7e	0.0712695611125955
227	0x3fc4e2876f50e630	0.16316311774589698
228	0xbfb5de4d59f9353e	-0.08542331167810333
229	0x3fe4aabe961af193	0.6458428317778718
230	0xbfdbb6d2304852ac	-0.4330335113057042
231	0x3fec3511e378d5f0	0.8814782564938337
232	0x3fc58c3dcd8fecf5	0.16834232842652566
233	0xbfdb499ae422df7d	-0.4263674953358459
234	0x3fe25819b51f74e2	0.5732544457966038
235	0xbfcfeb52082ac6ba	-0.24936890982421805
236	0xbf9cda33a803cec3	-0.028176123742879932
237	0xbfd04c5cbca8435a	-0.25466078208505893
238	0x3fb1a86eb76aa0e0	0.06897632577841106
239	0x3fb95213057ce7e2	0.09890860446913011
240	0x3fcd7b2f9de8833d	0.23032183847774404
241	0xbfd5346027ebeac1	-0.33132175348843523
242	0x3fcfd549bea22d4e	0.248696535189405
243	0xbff43248a477c545	-1.2622763084912816
244	0x3fa55f55e873a45e	0.04174297773881429
245	0xbff368d5bb569cf5	-1.213094455519067
246	0xbff5ab587e07ee76	-1.3543324397168397
247	0xbfecbfae605a8ad1	-0.8983985788257433
248	0x3fec4a05062f19a4	0.8840355988293607
249	0x3ff3153591f566d4	1.1926780416019271
250	0x3fe07fcf88c9cb86	0.5156018897672403
251	0x3f6eb620c5d3f2dc	0.0037489547818253376
252	0x3fc7d1f143a300c1	0.18609443476271362
253	0xbfe39b046cfe47af	-0.6126730088019395
254	0x3fd8e33dc57219da	0.38886970788771935
255	0xbfeaa9e41671d321	-0.8332386434909475

topology.convs.0.nn.0.bias f8 [64]
0	0xbfb0a4864839a056	-0.06501044524486707
1	0x3fb57acb471cbd2e	0.08390493856562806
2	0x3f9d88b47823a8ce	0.02884180053016721
3	0x3f941eb0ec56cd07	0.01964832727908308
4	0x3faebd617c9848a2	0.06003861089642838
5	0xbfabd5767fe1b785	-0.05436296759658802
6	0xbfa3e63da578aeba	-0.03886597294726131
7	0x3f99bc9603732bea	0.025133460960926536
8	0xbfb2a39ec8a7ff2a	-0.07280914686998288
9	0x3fb0a8ffa780e80b	0.06507871474687492
10	0x3fad4b5e4c784815	0.05721563991041038
11	0x3fbe8531cbdc2ef2	0.11921988703778277
12	0xbfb1c6ab1090cb64	-0.06943768648561172
13	0x3fb9847383082a6e	0.09967729519864019
14	0x3fa04fee96b8015e	0.03185983266667124
15	0xbf7414c1b711e3e3	-0.004902607631373154
16	0xbfb24d62135ea313	-0.07149327252285458
17	0x3fbab395b6d0d403	0.1043027468993643
18	0x3f9e80de5f3b411e	0.029788469850985703
19	0xbfbe10682a2de442	-0.11743784932868187
20	0xbfb566b0b22535ef	-0.08359817837955295
21	0xbfb05d32bf5d6477	-0.06392209217064414
22	0xbfbc3554519f251b	-0.11018874161449725
23	0xbfbdd535ff38d3f0	-0.11653459053998438
24	0xbf9d77b7595e9703	-0.02877699358909692
25	0x3f9f9ef1669480a0	0.030879756818763426
26	0xbfbf6d53d6f417ae	-0.12276195524108743
27	0x3fb0941c7c19b1d8	0.06475999860567272
28	0x3fb80a0bcda1bce2	0.09390329141909917
29	0x3fbee18c00d53c04	0.12062907238326664
30	0xbfb7a29fb544250c	-0.09232519317096805
31	0x3fb71fec24a2f618	0.0903308476872201
32	0xbf91b530601b809e	-0.0172927435550042
33	0x3f9f2389d1e1ba4a	0.030409005580106098
34	0xbfa19e0af240f00e	-0.03440889556119951
35	0xbfa0840ae30faa68	-0.032257404534750844
36	0xbfa6732a2a2af902	-0.043847386977619265
37	0xbfa2da574b4aedfe	-0.03682205957508343
38	0x3fbbdbc171cdf670	0.10882195499831382
39	0x3f9ba68c0fb45a47	0.027002514322783246
40	0x3f9d9e297db860cf	0.02892365293345805
41	0x3fab233c2f75433c	0.05300319747278201
42	0xbf90c5304ebb75bd	-0.01637721519988643
43	0xbfb0c77665acddd3	-0.06554355604463717
44	0x3fbaa34e6ab5ca45	0.10405435662486535
45	0x3fb74c5a02c827c5	0.0910087830344813
46	0xbf6219f9cea74b51	-0.0022096518561992924
47	0xbf9424e57cfc4576	-0.019671998742585704
48	0x3fba87fc1632d045	0.10363746206240972
49	0xbfb26ba531c83b12	-0.07195503678688578
50	0x3fb4a77c057ab610	0.08068061002514804
51	0x3fb053112ff050b9	0.06376750393275445
52	0xbf63ce12bba9c6e8	-0.0024175992851319557
53	0xbf9e8c1b2c43f733	-0.029831337525130407
54	0x3fb87b757cab790c	0.09563383382507967
55	0x3f65b667da32ea10	0.002650454365349171
56	0x3fbe61f077fade87	0.11868193558881944
57	0x3fa2f20d9c5e4279	0.037002969110408075
58	0xbfa4ae455cc890f6	-0.04039208181009883
59	0x3fbd9b57de42245c	0.11565159965734167
60	0xbfb8ef38a30608b6	-0.09740022640292775
61	0x3fb66281ce60c3db	0.08744059837842093
62	0xbfab61f3b6950850	-0.053481689489232154
63	0xbfbf04d66530ce48	-0.12116756411051555

topology.convs.0.nn.1.weight f8 [64]
0	0x3ff258eae0207399	1.1467083697272982
1	0x3ff3c120ee81ee6f	1.2346505467129665
2	0x3ff2f20de7407618	1.1840952904962077
3	0x3ff5f4d6ae9ad4dd	1.3722750492573177
4	0x3feeab83ae36ea06	0.9584368136050336
5	0x3ff04841a1b4258a	1.017640716223783
6	0x3ff38849c39870b2	1.220773471875003
7	0x3ff43539c76ff7ff	1.262994555523164
8	0x3febf44259227e10	0.8735667935288252
9	0x3ff76733856db459	1.4626956188251568
10	0x3ff60785f324afd6	1.3768367288384886
11	0x3fecb078d4a16cfe	0.8965419915142829
12	0x3ff2964a6bb93607	1.1616920669506514
13	0x3ff895340d7de303	1.5364265944501205
14	0x3ff4625f84c76a98	1.2740168749502683
15	0x3ff5bcbf93f22bc2	1.3585811404361583
16	0x3ff478267ea9f890	1.2793335864840039
17	0x3fed715852af054e	0.9200860609927675
18	0x3ff78532a3c1e049	1.4700189968844077
19	0x3ff082139273d685	1.0317569466400596
20	0x3ff3e4304cc3a8e0	1.243210124836473
21	0x3fe86ced3a70cf5f	0.7632967130107139
22	0x3fd128970085a53b	0.2681024079416436
23	0x3ff408ffd4cb347c	1.252197104669249
24	0x3fec5b05f6787d59	0.8861112417106752
25	0x3ff50b845e35c36a	1.3153117828444132
26	0x3ff51508ed5c511c	1.3176354667567187
27	0x3ff02c7fee9ed54f	1.0108641930686024
28	0x3ff357fedc80e2ba	1.208983289090766
29	0x3fed884c37f13428	0.9228879063244948
30	0x3ff08ce23faeb31d	1.0343954551310113
31	0x3fef260d29443d87	0.9733949476230216
32	0x3ff1c61ba8a88efa	1.1108662212581621
33	0x3fee322012cf273a	0.9436188094489133
34	0x3ff60cba6ea93231	1.3781074831669111
35	0x3ff44715040d195e	1.2673540266274226
36	0x3ff0035089ad5189	1.0008092287071995
37	0x3ff309accf9285b2	1.189862070874693
38	0x3ff4c21d5007d06e	1.297391235942111
39	0x3ff055a0687ccb31	1.0209049302618036
40	0x3ff3941e339d6be8	1.2236616150100819
41	0x3fecc3516edf75c2	0.8988425412641663
42	0x3feeb4b86c3ef99a	0.959560595910989
43	0x3fe6247dba71134f	0.6919544831695051
44	0x3ff356fc846ec811	1.208736913028137
45	0x3fe33de83b24fc22	0.6013070254483674
46	0x3ff1a7da6eaea785	1.103479797699465
47	0x3ff23f57b54dc093	1.1404645044495154
48	0x3fec274089b810e5	0.8797915162872668
49	0x3ff898c254663dcd	1.5372947022295762
50	0x3ff238716234e416	1.138780006045868
51	0x3ff1f5fb7d7b38ba	1.1225542928328154
52	0x3ff570d57c5d3581	1.340047345921761
53	0x3fe2c2c900ff8c28	0.5862774867531515
54	0x3fe43a1452118f87	0.6320897677328369
55	0x3ff50a2f820c472e	1.314986713409279
56	0x3ff6d4eaff0c1036	1.4269819224146096
57	0x3feaa805511a82b6	0.833010347752938
58	0x3fef30c25de4b8cf	0.9747020562988612
59	0x3fef22a00a2e7076	0.9729767035346544
60	0x3fea990a8cd04f21	0.8311817884700511
61	0x3febe5f8aa6b84c8	0.8718226746097111
62	0x3ff3d4a33a845891	1.2394134794062988
63	0x3fe996d6b2d365bb	0.7996629231158104

topology.convs.0.nn.1.bias f8 [64]
0	0xbfd33345647734e1	-0.3000043374166364
1	0xbfc5d3c27734edd2	-0.1705248910965183
2	0xbfd68538e26a07ae	-0.35188123808631644
3	0xbfd2c0ce6b74be51	-0.2930179643035205
4	0xbfd5d8e2b5b257f8	-0.3413626455670733
5	0x3fc30dd1e5b8cdcc	0.14885925022973223
6	0xbfdd3b0cfcfbcbc6	-0.4567291708510165
7	0xbfd1eda7e64f349c	-0.2801303624263001
8	0xbfd71e8dc8bb028d	-0.36123985865200653
9	0xbfcfe7cb6ba4d659	-0.24926131015824884
10	0xbfd39059dacfe5fa	-0.3056854855381911
11	0xbfc84a8650f36db8	-0.1897743125217468
12	0xbfda475a8980a936	-0.4106050818251278
13	0xbfc7023a46ec02f1	-0.17975548232063646
14	0xbfd2b426e33e2610	-0.2922455996673259
15	0xbfc3e2d2be1a51c9	-0.1553595951305751
16	0xbfddcc4cea8134be	-0.46559451008654296
17	0xbfd4bde3726e3c78	-0.32408987212051654
18	0x3fe005c28872acdc	0.5007031121253038
19	0xbfd67b421867abb9	-0.35127308257386464
20	0xbfe44acb47be572d	-0.6341301347008305
21	0xbfdd40e722c1f3d1	-0.45708635706233475
22	0xbfe44d1ddaa4ec88	-0.6344136495967101
23	0xbfde7b11d0141cc8	-0.47626157112285883
24	0xbfcbc7241086e373	-0.21701479727724013
25	0xbfe43eb063693acf	-0.6326524678823605
26	0xbfdff1772443164c	-0.4991128782388372
27	0xbfde13cd3b169680	-0.469958598807672
28	0xbfd8c38ccde30942	-0.38693542581690477
29	0xbfc490d3081ed6cc	-0.16066968819148142
30	0xbfd511bb944196bd	-0.3292073200048938
31	0xbfd54a5c0b67e957	-0.33266354669435344
32	0x3fcb967b573def70	0.2155298400865564
33	0xbfd14c72796b163c	-0.2702909646726288
34	0xbfdfbc265e794d84	-0.49585875726662487
35	0xbfe7dc04499bb646	-0.7456075132046827
36	0xbfda8233298bed83	-0.41419676835331404
37	0xbfe00608f1f81cca	-0.5007366872750023
38	0xbfe627c2c283c503	-0.6923536109081002
39	0xbfc061e4bd20c7d2	-0.12798747286575335
40	0xbfdd449eb810afae	-0.457313232184556
41	0xbfe5510d4a2b0ad3	-0.6661440323444715
42	0xbfe19e454dbecc22	-0.5505701559508263
43	0xbfd62adf4d033a1d	-0.34636671562921767
44	0xbfd1be29f9c1f608	-0.27723168745419047
45	0x3f885ea6e4b3c1fc	0.011899284223972899
46	0xbfe4fae3a15d4243	-0.6556261207243285
47	0xbfdf9a2e02014126	-0.4937853831843476
48	0x3fc379e39d7dcc1c	0.1521572607994991
49	0x3fc0e5ada4745402	0.13200922517776809
50	0xbfe223becf390d23	-0.5668634459802074
51	0xbfcc2df9c0d1acab	-0.22015306391708597
52	0xbfea2acee371d739	-0.8177256052283389
53	0xbfd0d54a947acf42	-0.2630182695386233
54	0xbfe4ac94aadd2292	-0.6460669839080586
55	0xbfd7d3a6d011548f	-0.37229318923102367
56	0xbfe3d69a57d8fe19	-0.61994664342632
57	0xbfd58b8525c92464	-0.33664063158045665
58	0xbfd8e02f34560265	-0.38868312941489186
59	0xbfe1a6fadb9441d5	-0.5516332901625512
60	0xbfda96cd83df1d44	-0.41545427206115826
61	0xbfe08360544faa83	-0.5160371443465269
62	0xbfe4924b427ff1c2	-0.6428581522773629
63	0xbfe43a7bdceb9f56	-0.6321391405917705

topology.convs.0.nn.1.running_mean f8 [64]
0	0xc0081cb4e51498ee	-3.0140169045363256
1	0x3ff91fb5cef4e14f	1.5702417453995456
2	0xc013f9deb436406d	-4.994013610659846
3	0xc012dcb92bac5823	-4.71555011977583
4	0xc002a20003e3bc4b	-2.3291015914797177
5	0x400f1511063b44e0	3.8852863776051976
6	0x3ff071a68a860e4f	1.0277467166023546
7	0xbff2e7aa6e1b46cb	-1.1815590191876477
8	0xbffd6b2ade6dd661	-1.83866392980908
9	0xc00163e1eeba49ce	-2.173770775852268
10	0xc0148504c5dcacd9	-5.129901019662804
11	0xbffc94235a7b7fda	-1.7861665281743542
12	0x3fd738efc9dcd5f6	0.3628501387896387
13	0xc0152097ef687af9	-5.281829586746192
14	0x4004974b7e20cac1	2.573874459624989
15	0xc0134a5c42ed469c	-4.822617574436347
16	0x3ff711b77934912b	1.44182536454998
17	0xc0011dc2c8807306	-2.139531675739252
18	0xc0022f31a38cb3a4	-2.273043897372604
19	0xc016bffc8c281615	-5.687486829706832
20	0x3ffe6e13308b4ecf	1.901873769403142
21	0x3ff7473e29f0719f	1.4548932684184377
22	0xc00e0d5382f6b37c	-3.7565069419419483
23	0xbffb549b330ea5f6	-1.7081558222220088
24	0xc005237b73cf9497	-2.64232531048999
25	0xc001ecac1886cca1	-2.240562621701955
26	0xc01619443a9bc873	-5.524674335249176
27	0x3fe9e528ccccfc4b	0.8092235565199045
28	0xbff64fb0467a04d7	-1.3944552186006172
29	0x3fdac11266c06097	0.418034172385441
30	0xc01005437696b9bd	-4.005140164327199
31	0xbfee4417160991c4	-0.9458117895524585
32	0x4006f2e0931fc039	2.8685924047531697
33	0xc0013498c32b6e07	-2.1506819961193773
34	0xbf8f1c339439bf72	-0.01519050880526127
35	0x3ffac0adbf263de1	1.6720406977436755
36	0xc011097ef4e6c9b6	-4.259273363672426
37	0x3ffb6731db0d2f94	1.7126940304469587
38	0xbff3faaa48ede4be	-1.248697552566497
39	0x40009415ba8dc253	2.0723070692550123
40	0x3fe30e9012a7875c	0.595527683672326
41	0x3fed08eeb2b60309	0.9073403826187995
42	0xbff6de2e5d0aeca0	-1.4292434343795222
43	0x400ab1be6439c7c2	3.3367889242299222
44	0x3ffcbe9cf42f6d3d	1.7965364016043417
45	0x4013b6e3710a2bf2	4.92860199570258
46	0x3fe4ca4648dfff94	0.6496917174663275
47	0xbfca48af7deabb4f	-0.20534318588530673
48	0x4010d28117365768	4.205570566837061
49	0xc00f2d54f07d6161	-3.897134665323549
50	0x3fee31cfa46fd589	0.9435804568917529
51	0xc010cc406f25048d	-4.199464546808611
52	0xc000f25344da5fa8	-2.118322885431514
53	0x40085d94054b522f	3.0456924832926897
54	0x3ff142085153e0d7	1.078621213613635
55	0x3ffa77d1638f1803	1.6542524231931572
56	0x3ff9e253cb037a64	1.6177556925028052
57	0xc00638f2d6124c28	-2.7778069233259153
58	0x3faac9e2b7c1a66c	0.05232151501770663
59	0x3fdc292d97c6ad4b	0.4400133115948008
60	0xc011b4565a643243	-4.4261106609015455
61	0x3fe9fd0a562741c3	0.8121387179071963
62	0xbfd37c90f6ba0e7f	-0.30447792143261404
63	0x3fe2004290553905	0.5625317400934199

topology.convs.0.nn.1.running_var f8 [64]
0	0x3ff6aa02d78a1673	1.4165066165454874
1	0x3ff7645703ed9596	1.4619970467987051
2	0x40060636e800ec1a	2.753034412887712
3	0x400425d87d01e80c	2.5184793249327466
4	0x40097c0a0ea4d956	3.185566057592193
5	0x400bc8546d12deb6	3.4728172799476296
6	0x40080946aad611c5	3.0045293184832382
7	0x400c79c66a4d25bc	3.559460478286125
8	0x400d91f9cae01b93	3.6962772225992437
9	0x3ffb7907e598f15a	1.7170485466623036
10	0x4004f2cafeca7c61	2.6185512452644137
11	0x3ffa533225c9bbe7	1.6453114963621773
12	0x4001b2cac99eff36	2.2123008491179474
13	0x4007e8548dd822bf	2.988442524107398
14	0x4001d4aa899950cc	2.2288408994591915
15	0x40030eb31d87b763	2.3821775729219765
16	0x3ff469b620705661	1.2758084551946
17	0x4003b087022dbf89	2.4611950082980383
18	0x3ff1fd2b78b366d3	1.124309035766079
19	0x4009844c20b6a24f	3.1895983272300223
20	0x40149d185f4c3dd1	5.153413285282526
21	0x40133e92df5aa6e3	4.811107149036363
22	0x40024f48a08b6ef0	2.2887127440025026
23	0x3ff8b5ed7b274b52	1.5444159327205012
24	0x400678bf258ef176	2.808958333420544
25	0x40070f8115100cb7	2.882570423652932
26	0x4008661687ca93c1	3.049847660894074
27	0x3ffc9718265e319a	1.7868882654903246
28	0x3ff7171079175af8	1.4431309442640536
29	0x3ff3fa4483aeef98	1.2486004966621973
30	0x3ff9cfb38059d403	1.6132082952219668
31	0x3ff315570c5fea78	1.1927099688897709
32	0x3ffb7a39b14ff8b5	1.7173401762261566
33	0x3ffb74d62b4fba13	1.7160245601513722
34	0x3ffec101f72abad9	1.9221210150678216
35	0x400f1cfa399579c6	3.889149141191612
36	0x401eb7080508ef4b	7.678741530104001
37	0x3ff79c4ff9157b95	1.4756622056808955
38	0x3ff4f7dfd92af6fe	1.3105162127607737
39	0x3ffeee67805ecd30	1.9332041754212916
40	0x3ff42e43df779c48	1.2612951974094972
41	0x3ffd64de9207b541	1.8371263222027923
42	0x3ff6ff05b4e1bc76	1.4372613015837294
43	0x3ff93ebd22e8a47d	1.5778170932410653
44	0x3ff70bce2117945c	1.4403821270618868
45	0x40082c88bf3304b9	3.0217451989597888
46	0x401524249e81bbac	5.285295941036491
47	0x3ffa3d3d640985be	1.6399511249259002
48	0x400f53096f0d8440	3.9155453372955265
49	0x4002edc0c4e2c73f	2.3660903341014143
50	0x3ffcf8ada4ee6246	1.8107124750732893
51	0x4008f5ea9d9ca821	3.1200764001305434
52	0x40010e598fcc7448	2.1320067629117467
53	0x3ff53d19812e761f	1.3274169012214612
54	0x3ff53555eebc8475	1.325521404804275
55	0x4009b28a5a420b13	3.2121779490856937
56	0x4010a88b0382767f	4.164592795217344
57	0x400c0ebecc08278d	3.507199853896003
58	0x400ca4586033e8df	3.5802466884461945
59	0x400101895a87de8b	2.1257502625192664
60	0x400005739badacc3	2.0026619112373694
61	0x3feeda8d646114b8	0.9641787491351783
62	0x3ff6050a3f3a2df0	1.3762304754080752
63	0x3ff95a7f62016a0f	1.5845941379872135
