src/models/mentor/results/3-channels/synthetic/topology/tv3/model_weights/2.ckpt (torch, 606167 bytes, 112 tensors)

topology.conv_GAT.att f8 [1, 1, 64]
00000000: 8de9 ce66 22d9 c63f 2bbe 0777 3517 cbbf
00000010: bc5c 5076 c177 c73f d7ec 9ee3 9f8f c4bf
00000020: 0ed8 0615 bc81 d1bf 6c95 88e5 c06f cf3f
00000030: ddac b3ff 5dca b73f 6354 e1b8 9689 bd3f
00000040: bc6e 0ea4 f196 cdbf 13c8 b86c 7ff2 b33f
00000050: 1d0e b3dc 81ad acbf 6fb3 39f7 4206 c3bf
00000060: 9ddc 260a d289 d03f 62db b7c5 b3eb a9bf
00000070: 5272 f731 ffa8 ba3f 41c5 24ab 592d c73f
00000080: 8478 a448 a30f c9bf 3cb9 8379 960a c23f
00000090: bfd0 2d72 4e9a c83f c931 acdd d45b 4b3f
000000a0: 1b13 4cd9 2d33 d13f cb54 d6cc fc7d a0bf
000000b0: 19dc a381 00a5 c7bf daef db10 f9ff d2bf
000000c0: 72d2 2f7f 97cf c2bf d106 20e8 3185 b3bf
000000d0: 105a 786f 98a1 c7bf eb9b 23d3 1c0f 913f
000000e0: 6f4e a0cb fbe1 c0bf 18f3 1c3c 5c47 c6bf
000000f0: 08d7 c6e8 1843 d1bf b812 4d29 0824 90bf
00000100: ef88 75c0 2ee5 c03f 56f5 53f0 dce5 c03f
00000110: 80d6 29c3 293b 853f 1f15 1ad0 dd85 b53f
00000120: 13fd 220e 4f58 abbf 3e86 8b91 3575 c83f
00000130: 3496 a63e 869f b8bf b39f 313f 5e03 d2bf
00000140: fa25 9ec4 e200 cfbf 9fc9 33de 1bea c83f
00000150: 10d2 62ee fdbf c6bf 2c25 65c3 4750 cbbf
00000160: f066 0974 2bb3 c93f a057 c3cc 99ac ccbf
00000170: 3d8c 8b38 40d7 ce3f 919a ac50 caca d13f
00000180: 18f9 b0b5 64cf c33f 237b fb57 48fb 993f
00000190: 233f 5a67 06d4 963f e5f1 1c30 64d8 c03f
000001a0: 8b25 b66c 299c d03f bb9d c8e9 e4bf ba3f
000001b0: 2f53 8009 c3c1 cb3f a2ac bcea f26c bc3f
000001c0: 5c50 dfb6 d043 d3bf 12dc 9a83 716c 9ebf
000001d0: d9f1 ecee ea54 79bf fc20 49ed f6b0 c2bf
000001e0: acb8 e451 b11d c0bf 48aa 6042 2dd5 d03f
000001f0: 9955 0777 1829 cd3f 91de 3229 2546 c93f
0.17850141544279233 -0.21164577781699853 0.18334215428396827 -0.16063307394310897 -0.27354337743179336 0.2455979462403478 0.09293162815781693 0.11538068784405335
-0.23116894255223552 0.07791897205677882 -0.05601125544628991 -0.14862858840515566 0.25841189376246537 -0.050626390347978015 0.1041411873806706 0.18107148033736034
-0.19578972861285504 0.14094811375930216 0.19220905852455947 0.0008349217781372038 0.26874872417856616 -0.03221120834784016 -0.18472296075899022 -0.29687334677123334
-0.14696019850056846 -0.07625114361874387 -0.18461900179745827 0.016659212481410817 -0.13189647143063918 -0.1740527432938499 -0.26972029430486133 -0.015762450714890547
0.13199409863870623 0.13201486334575446 0.010366750973143768 0.08407389002430364 -0.053408117747944094 0.19107694250765123 -0.09618414907034706 -0.28145557566903817
-0.24221453285672095 0.19464443540307472 -0.17773412837927127 -0.21338746109749118 0.20078032651763733 -0.22401735780902943 0.24094393502227432 0.27800233724921336
0.15476664420743513 0.02537262951852449 0.022293186243188445 0.13160374020834734 0.2595313607822269 0.10449057300194557 0.2168506428139607 0.11103742819675458
-0.30101411684632295 -0.029710553796316992 -0.006184499462332537 -0.14602552972997518 -0.12590614794448152 0.2630112789362653 0.22781663715310854 0.19745316039710706

topology.conv_GAT.bias f8 [64]
00000000: 1925 f562 ee82 d33f b854 3b9c cf83 c53f
00000010: 3bb7 c7b4 85cf b9bf 940c 7578 3d8b c9bf
00000020: 1758 9389 fb21 d03f 61fb 93f8 0400 c0bf
00000030: 39a0 96b6 3eb0 573f 728e fce1 6589 cdbf
00000040: d47d cba2 adee c4bf 2f54 8142 9552 cf3f
00000050: 95bc 39d0 bb66 c8bf 9361 638a ffd6 aa3f
00000060: 110e f256 1343 c1bf e536 6530 3420 cebf
00000070: a246 f536 98a7 ce3f 12b5 6d66 d6f3 d0bf
00000080: 8248 d8b5 d26f c8bf 3555 2130 3e62 b0bf
00000090: 4d51 cfef 7a8e bf3f 22ad 3661 e9c2 b43f
000000a0: e391 6d4d 57ca ce3f 7544 c0f9 bbd6 babf
000000b0: 5af0 0da6 718d c6bf c285 746c 36a6 c9bf
000000c0: a92a 5611 316b ccbf 53bc 96d5 040b c2bf
000000d0: 20e6 89ea 4b3a b93f 39cf 0ffc 3501 6ebf
000000e0: a51e 27f6 dc8f cd3f de92 6744 eae5 b03f
000000f0: 4f14 2375 8dd8 c8bf 8306 e139 9e58 cfbf
00000100: 0610 1609 f91e aa3f cfc7 cbdc addb cebf
00000110: 7418 a569 4288 b93f c3bd 2ab0 5b17 b6bf
00000120: ecc9 4514 df33 c13f d58d a6ec e179 c93f
00000130: c5d6 ebdd 13e5 c83f f92d 056d f309 c03f
00000140: 52e8 23ef 9e3e c9bf 41af 1058 949e a13f
00000150: a5d5 75a3 d222 c73f b0ad 3cb9 b2df d13f
00000160: 7d83 7753 9f6c 983f 04ce 6a5e 9bc7 cc3f
00000170: 3068 2a96 53ed d13f 7395 314c 2e9b d3bf
00000180: a6ba ae05 9b30 a2bf b065 2bca e59c c73f
00000190: df11 671b 36fc b23f e04a 58aa 24a5 d33f
000001a0: 6b03 44fc 0a1b d13f 9211 3cb7 fcab d0bf
000001b0: 5d4f 0c33 e57d d2bf 1f35 d1f7 6315 9dbf
000001c0: da8c ec7a f9c5 983f 3183 f1db 68cd c9bf
000001d0: bc0a 27b5 544e d13f 8dc6 c56a 2a4a 88bf
000001e0: 7e2b 2a0c 100b cfbf 00f0 6075 bea0 be3f
000001f0: cd4c 65c9 25c4 c9bf 54a5 1e03 e240 cdbf
0.3048664060957705 0.16808505180839517 -0.1008227888448489 -0.1995617712183032 0.25207413134683193 -0.12500059259033505 0.0014458286699241664 -0.23075555357455674
-0.16353388260811974 0.24470773455928582 -0.1906351820684661 0.05242155613240409 -0.13485948319804256 -0.2353577839189064 0.2394895809507505 -0.2648826599386932
-0.19091256980079058 -0.06399906802228801 0.12326782564861567 0.0810991155946579 0.24054995804466647 -0.10483908507764446 -0.1761915264904726 -0.20038490577375795
-0.22202123018754108 -0.14096126965657393 0.09854578472177211 -0.003662686766341763 0.23095285433941118 0.06600822610887344 -0.1941086599310062 -0.24489190889476128
0.05101755367198284 -0.24107907563262507 0.09973540381642626 -0.08629391718817829 0.13439548959611558 0.19903205924229775 0.1944908937072595 0.12530367682698776
-0.19722353626986205 0.03441299033178647 0.1807502077241853 0.27927845086625336 0.02385186144772743 0.22484151945319308 0.2801102606259773 -0.3063464874342891
-0.035527080959004295 0.18447563525732624 0.0741609398747367 0.3069545424961415 0.26727556834526095 -0.26049726385124317 -0.28893403992809913 -0.02840191078239684
0.024192712905585313 -0.20158110370086882 0.27040593805956425 -0.011860209830703706 -0.24252510637264985 0.11964025846185677 -0.20129844983839576 -0.22854256775216675

topology.conv_GAT.lin_l.weight f8 [64, 1]
00000000: 642d ef1d 5d40 b93f 29ab de02 47a3 743f
00000010: 91fa 48ad 34c3 bc3f 8567 aaa9 f65d d23f
00000020: fd19 2eea d7da cdbf 758c d9e5 6fbb d93f
00000030: bd0b e079 9889 d73f 2a91 89b8 4cc5 b73f
00000040: d1a6 01fd 05cf cbbf 1c39 d698 41b2 d33f
00000050: 2995 28e0 0ad5 d9bf 9e6b 62d8 9e41 d4bf
00000060: 45a2 3fa2 ebc3 b4bf db5d 3377 348f b53f
00000070: 75c5 fa89 4d93 aa3f 3f99 4faa 88e6 d13f
00000080: df00 35ea d523 df3f 8bfd ef70 3c2c c53f
00000090: 0301 2272 0633 d5bf 78fa 80c3 efdf ccbf
000000a0: ffa7 d5d6 c3e5 c9bf 7316 60e6 d5ac cdbf
000000b0: 7e9b 2ae3 fbaf c93f a007 1405 0781 cb3f
000000c0: ed61 19ea 1176 d03f 1b21 01f4 c01a 96bf
000000d0: cad4 1e9f 46b1 c1bf 53a5 7835 7338 893f
000000e0: 8339 ebf1 a501 a33f 35d3 3e65 4640 aabf
000000f0: e3c7 bfa8 b246 873f ea6b 301d db9b d23f
00000100: 764e 8128 ed3d 99bf 6e7f 79c9 caf0 a33f
00000110: 696e aa40 2afa 54bf fbce b052 6bfa a8bf
00000120: aab3 5a89 84b5 b93f 9823 df12 86b7 d0bf
00000130: a20d 86ea a960 c6bf 9533 f83e 5c64 c83f
00000140: cb41 fdeb c946 cc3f 51a2 6067 d07a d0bf
00000150: bf75 5ae8 051e cc3f c367 f613 7e62 8b3f
00000160: 176c 5922 b4e4 d13f 4e69 e6ec c362 c93f
00000170: 1dcd 8ce3 4785 cebf 6656 9a18 2be3 ad3f
00000180: 3355 8e30 53d5 d0bf adc6 eb36 bf95 d0bf
00000190: 6cbc a8a8 60eb d63f 1bb0 07b5 68ea cfbf
000001a0: 7e08 6a96 0e9b babf 1d0e e452 ad34 d13f
000001b0: 69c9 2450 0bc1 b13f 5be0 2f43 8668 98bf
000001c0: a47c ed56 0369 d23f 94cb 876e 76d8 c5bf
000001d0: 82c0 510a 49d2 d9bf 537b 4dd0 74f5 abbf
000001e0: e664 f9cc fbc0 db3f a854 a0a7 4baa a03f
000001f0: ee31 b746 d031 c23f 919d af41 fc36 d23f
0.09863836270158327 0.005038525950946484 0.11235360365479098 0.2869850785151516 -0.23324107107710282 0.4020652527453373 0.36777316953537903 0.09285430436427036
-0.21725535253363273 0.307754897360512 -0.4036280812309366 -0.3165051568154754 -0.08111450873514865 0.08421638403103009 0.051905081837854285 0.2796956694786736
0.48656223174840635 0.16541247858547722 -0.3312393297747038 -0.225584001980639 -0.2023243712422413 -0.2318370222930529 0.20068310348616686 0.21487510440789226
0.25720641957516827 -0.02158643235478151 -0.13822253007461988 0.012314701146425 0.03712194994078557 -0.05127162919908416 0.011365314268889598 0.29076269007208444
-0.024650292966113395 0.03894647321135279 -0.0012803471205761424 -0.04878554710776758 0.10042599061371385 -0.26120139925893104 -0.17482494307851676 0.19056275438961437
0.22091030142702403 -0.25749597640473093 0.2196662315881621 0.013371453270156658 0.279583962959522 0.198326578782892 -0.23844240771141126 0.05837378192260871
-0.26302032224460276 -0.2591398273790258 0.35811630697839436 -0.24934109534604051 -0.10392848179074751 0.2688401517372954 0.06935187060006388 -0.023836229182024087
0.28765948761970095 -0.17066841504091868 -0.40345979697941214 -0.054607057979174776 0.4336537839604503 0.03254925175876028 0.1421451897898715 0.2846060410942864

topology.conv_GAT.lin_l.bias f8 [64]
00000000: 21c4 5b92 0727 edbf 2da7 4a5b 2b20 d2bf
00000010: de9f 3763 8f09 afbf 947a 7264 8c87 ca3f
00000020: 5050 a8d9 9ce5 c8bf ac30 4836 9a56 ed3f
00000030: ed05 2900 ea11 dcbf 8889 3520 3448 d93f
00000040: 1292 3a2c 23d8 e33f 7037 4cf3 84a3 ccbf
00000050: 0083 b717 4489 ea3f c782 f28a 7cd5 da3f
00000060: f089 fa6e ad0f d83f 2052 3c12 d689 dd3f
00000070: c408 fc86 047f eebf 7f14 5dee 7cc8 e13f
00000080: d847 91b1 c793 c1bf ef20 37d5 926a c6bf
00000090: 5a01 a725 b376 e6bf e415 c0ce 6e96 be3f
000000a0: ef5a 45f3 bc18 edbf b642 db6f 404f da3f
000000b0: be66 3880 66a8 d13f 798c 3b18 a576 d0bf
000000c0: 56fb daa6 69a5 cc3f 545b febb 8b07 ec3f
000000d0: 53e8 6d9c ccc0 afbf 616e 0a65 2f3c b93f
000000e0: 766a 8476 b302 dcbf f000 2ca6 ace0 a03f
000000f0: 8fa2 a90e 367b c23f fb4b b961 3a1e c93f
00000100: 8852 19b0 a39d cc3f f70d 96ef ae26 df3f
00000110: 5152 6322 7283 e1bf b715 27da 8f8d d13f
00000120: a059 d04b dc1e cbbf 881d 9f24 2095 d7bf
00000130: 51b9 b8d1 ca25 c43f 599d ec88 406b b7bf
00000140: 7719 ea00 b72e c53f f541 af68 66fe d93f
00000150: 950b 7ef4 05a2 dbbf 1960 44db 6b58 f1bf
00000160: 4b38 7d99 7c9e d53f e00b 12db d925 e7bf
00000170: be2c 60d1 d1b4 e6bf f377 edbf a7df e03f
00000180: 43d7 9c4c 6477 cd3f 2adc aa5b 6aa7 e1bf
00000190: 9d1d 8c10 5a68 e8bf 2db8 2d82 3a59 ebbf
000001a0: 8fdd 9b10 9e10 f1bf f763 5f4a 055f ed3f
000001b0: 8ed4 33c3 39be e23f 6d51 8936 5971 e7bf
000001c0: 9e47 4763 654c e2bf 86bf 285f d182 ca3f
000001d0: 6346 284f 6f98 d6bf dbb6 a02c 01a8 dabf
000001e0: 1bed 7cd3 2eeb be3f f750 ca13 62b3 e1bf
000001f0: 7ca3 53f0 4e56 eb3f 9caf c4f7 d2ed ed3f
-0.9110143526614857 -0.2832134620208418 -0.06061981283329464 0.2072616091217766 -0.19450722339445514 0.9168215809054536 -0.4385933877530011 0.395031959013203
0.6201339591830808 -0.22374021415492562 0.8292561019153197 0.4192801815898232 0.3759568771148727 0.4615378549654299 -0.9530050884643733 0.5557236342944093
-0.1373223893193074 -0.17512736712365704 -0.7019897208593122 0.11948292300811364 -0.909269786013139 0.41108714030728366 0.2759033443595448 -0.25724151007143053
0.22379799506412706 0.8759211227178221 -0.06201781663453745 0.09857460228743654 -0.4376648576159491 0.032964129719404656 0.14438510623883302 0.19623498698874173
0.2235607728822695 0.4867360439022543 -0.5472956344261296 0.27426525405857255 -0.21187928869103434 -0.36847690178225223 0.1574033283263341 -0.09148028700712042
0.16548812431956225 0.4061523458776997 -0.43176411510665363 -1.0840872349854236 0.33779826153920983 -0.7233704832764225 -0.7095727052086642 0.5273016689859545
0.2302060484013798 -0.5516864576701483 -0.7627382586660364 -0.8546421568441979 -1.066556992414778 0.9178492024030892 0.5857209026859367 -0.7325864854015386
-0.5718256892234768 0.20711724420970884 -0.3530538819332831 -0.4165041862314475 0.12077610648423269 -0.5531473528413063 0.8542856878167266 0.9352812613701533

topology.conv_GAT.lin_r.weight f8 [64, 1]
00000000: c9aa 0e52 bad7 d0bf 8af0 6b04 76d4 d23f
00000010: d4f3 fb3b 79ad b13f 572e 50dc c157 9fbf
00000020: 13cd ea6f 648a c7bf 8cd4 565a 95a7 b6bf
00000030: 7e74 562f 2322 c2bf d952 ae99 bd4e b83f
00000040: d8a8 68f8 59e6 a33f 4d57 423b dc99 873f
00000050: 8045 1e74 5276 d2bf 79a2 7255 4f12 c93f
00000060: f526 8094 9d1d b33f 89e5 3ca5 856f bfbf
00000070: 0f00 79f9 c9a6 b93f 5210 d972 07c3 c7bf
00000080: 6e03 53e0 1f06 d0bf 6e9a 966f 4f17 c03f
00000090: ba10 8ab6 192d c4bf 5796 87d3 7bd5 b83f
000000a0: 3abd 7a04 58e1 aa3f 193a 9e83 f90b b7bf
000000b0: c491 0ea4 bd08 d33f 3ef6 492b b4c0 c93f
000000c0: e7f8 76bb 0d54 ab3f dd20 0243 900a d33f
000000d0: 2c0d 59c6 26f8 d2bf e14b d9ef d165 cb3f
000000e0: 1d91 eb45 d180 bfbf 1589 52e8 6618 7b3f
000000f0: 47a9 8352 a49f 9ebf 3353 1a56 7ad3 c03f
00000100: 0d2e 555c 8d7e c6bf b590 bf05 3dd4 cdbf
00000110: b1e2 72d1 1aa3 b23f 8e4b cb02 372e b2bf
00000120: 9c81 40a4 872d d0bf 390d 16e6 44fe cb3f
00000130: 4464 a674 7aea ca3f 86f1 009f 892d bebf
00000140: 918d 5192 e349 c33f 1227 be28 a3b7 b4bf
00000150: 8e4d 3047 7adb acbf 1cab 14d6 47f3 72bf
00000160: afa7 3f65 b344 a4bf 6a71 3988 08fd c93f
00000170: f6ed 7e9a c8bb c0bf b2a9 83e2 3fee bcbf
00000180: 3840 ec51 0469 b73f 076b 44fd cb72 c6bf
00000190: 6439 75c1 11cb cc3f 1821 5a2a a378 b93f
000001a0: 0549 b4a2 ce73 d0bf dda1 08e7 6a6d cfbf
000001b0: f028 be42 8ade c53f 26ba f620 6110 d13f
000001c0: cda7 9e00 6e87 b33f 6ff6 eadc 5f3c d2bf
000001d0: e76d cedd 6038 b23f 5a1d bc1e 8527 b0bf
000001e0: f00e b97f 7a71 cb3f 70e9 821d 74ef cabf
000001f0: 6ad6 73ee c85c 603f a896 86d3 0d8a d2bf
-0.2631669808712727 0.2942175906353063 0.06905324663598772 -0.03060820491013624 -0.18391089882570863 -0.08849461989923862 -0.1416667920247256 0.09495148660637244
0.03886681706747347 0.011523933943219733 -0.288471806904532 0.19587127372985316 0.07467064738753122 -0.12279544147613398 0.10020124760285419 -0.18563931567962527
-0.25037381083170984 0.1257113737930981 -0.15762635624935745 0.09700750269220158 0.052500486895377965 -0.09002646888095746 0.2974084951513556 0.20119335283009038
0.05337565339458355 0.2975197462442461 -0.29639596338184293 0.21404480182044863 -0.12305934865031927 0.006615068418940125 -0.02990586045863466 0.1314537926124558
-0.1757370663493564 -0.23303950100592422 0.07280128110404395 -0.07101768320289478 -0.25277892151100345 0.21869717821764725 0.2102807111339492 -0.11788234836507713
0.150692411846745 -0.08092708344170443 -0.056361981573128536 -0.004626541719782631 -0.03958664523072685 0.20303446437436473 -0.13073070091000688 -0.113010399628968
0.09144618034429264 -0.17537832132878625 0.22494718500315536 0.09949703010545752 -0.25706830872617586 -0.24552665978377677 0.17085388430525184 0.26662471980208335
0.0762852431786591 -0.28493496488577014 0.07117276587671705 -0.06310302734720122 0.21440058933705286 -0.21043254319176752 0.001997368282554747 -0.2896761480027217

topology.conv_GAT.lin_r.bias f8 [64]
00000000: 9e02 355e 43e2 da3f 107d b7ef a1b5 e8bf
00000010: 119e a3ba 2762 d6bf 8346 bf7c 7586 d8bf
00000020: edf0 e8ba d039 e0bf 5476 1b8a 27fb ea3f
00000030: e93e 0978 0487 c1bf b37e 7648 4cd2 e0bf
00000040: ddd4 ec92 27d1 91bf 0bba 4090 707f b1bf
00000050: 8e42 7c70 eab8 e6bf 8160 c5d0 560e ba3f
00000060: c5c9 6662 d543 dd3f f9ad 0f14 5dd5 e23f
00000070: dfd8 3723 6348 e3bf 4fdf 6c21 dbcc d83f
00000080: 8d3e 54aa 26b9 e9bf c25d 9f62 c3cf e13f
00000090: d9e9 cf3f 053d c8bf ad7e 33d9 c4bc e2bf
000000a0: 8bcb 8429 93d8 e9bf 1565 1f23 767d e93f
000000b0: f616 0ece 3929 efbf d877 8c30 2e44 cabf
000000c0: 740d b071 bf9c d83f a54a cc8f da57 e03f
000000d0: 8dd3 7100 618d c93f 0089 0526 8433 ea3f
000000e0: 6477 55b2 72c7 d7bf 9706 52e3 33b0 b1bf
000000f0: 2417 f6b9 ac23 c1bf 1835 b0f2 0998 cbbf
00000100: 25ae 56eb 52fb d5bf b091 beb7 5b45 a43f
00000110: a4f5 4f0d 44b7 ecbf 28bc d7f9 4c50 d1bf
00000120: 6d65 94a2 bca2 9c3f 1516 d85d bce2 ea3f
00000130: ebff 7f06 5cb5 e0bf 028a 6129 0417 d63f
00000140: bc71 4d6b a6a6 d0bf a633 8bcd e298 e3bf
00000150: 1cc7 0b4d e227 e03f 9681 5059 c69f e63f
00000160: 59b2 fbc1 e44d ac3f 7e1f 8d0d 740c df3f
00000170: bb41 6cfe 5b65 d0bf 7abc bbd5 8782 dbbf
00000180: e8da edd9 c43e e73f cc91 3a12 1093 e4bf
00000190: bf21 895d 2aaa e53f 295d 8a82 06ad eabf
000001a0: e2fb 5e48 b589 c5bf 0187 a3b2 aed8 edbf
000001b0: 7dd4 bfb7 20dc edbf 56b9 8a1b 3b19 d6bf
000001c0: 8010 7dff c9a8 c4bf 9e22 062f 8663 debf
000001d0: e21a ee59 0cdb e53f 87ce 6e7d d55b ebbf
000001e0: dd40 0be7 4215 d23f d544 b720 fbab c93f
000001f0: 69b6 46e8 cc8d c1bf 6eca ad0f 05f6 debf
0.4200600070944719 -0.7721719438522161 -0.34974091745832064 -0.3832067220911101 -0.5070575380882737 0.8431585023315145 -0.1369329057802056 -0.5256711402216382
-0.017399423925969926 -0.06835082551763365 -0.7100727269153866 0.10178129765461287 0.4572652302696521 0.5885453597851998 -0.6025863349775838 0.3875034166735433
-0.8038514448871453 0.5566117216321163 -0.18936219802692625 -0.5855430834016794 -0.8076873598969184 0.7965651212681758 -0.9737824463379343 -0.20520570154707118
0.3845671282035348 0.5107243355326615 0.1996270420237604 0.818788599263172 -0.3715483418981107 -0.06909488963904163 -0.1339012058271517 -0.21557735776915687
-0.3434645937183823 0.039591661624658214 -0.8973713169104269 -0.2705261649961721 0.02796454183871815 0.8401777108089755 -0.5221386076882458 0.3451548008071371
-0.260171513354887 -0.6124128355528355 0.504868650894625 0.7070037598060022 0.05528178089102615 0.4851350910507718 -0.256186483821718 -0.42984195587536755
0.7264122253826288 -0.6429519992857933 0.6770221545094087 -0.8336212682360485 -0.16826501878492112 -0.932700489906182 -0.933121069798872 -0.34528997125280136
-0.16140103316331889 -0.47482447235283043 0.6829892879912587 -0.8549601983890661 0.28254768908392497 0.20056094262557758 -0.13713990537273738 -0.48376585513248116

topology.convs.0.eps f8 [1]
00000000: a9cb 8f24 db7d e2bf
-0.5778632845016222

topology.convs.0.nn.0.weight f8 [64, 64]
00000000: 38b2 56d0 a41f a2bf ca84 b620 18cc c8bf
00000010: a039 165d 95a0 bebf b0df e07e 93b9 a2bf
00000020: 4ef1 8270 2f64 c0bf 9b61 1413 00d5 c73f
00000030: c508 4a15 383a 97bf bbf3 6672 21a2 973f
00000040: ccff 8546 6d7b ba3f 8b76 3d03 cd87 d43f
00000050: 017a 6b4a 8c83 cd3f 79c6 4ea3 57a4 b43f
00000060: 47b5 7320 e7df c03f 9b82 cb99 a3b2 a43f
00000070: 8ac4 1633 d357 cabf d190 e9d5 060f c33f
00000080: 6253 fbfc ef0a cd3f f7ea 2fb4 a542 a3bf
00000090: 2ccb 2615 6d9d c6bf e6e4 5880 eb0d aa3f
000000a0: 382d d3e7 d654 bfbf f5fd b257 03b0 c43f
000000b0: 5eb2 6097 a65e ce3f d53a 1f92 d1e6 92bf
000000c0: 172d 779f e898 cd3f b5fc fbf7 ac94 c73f
000000d0: a94a d41f 722a cd3f 3626 f0ab ec5d c33f
000000e0: 1af9 8401 23b3 c8bf f35b e22e 72bc 933f
000000f0: d91b 84bf e888 d03f 8116 6522 3a6a 8e3f
00000100: c964 f444 4e67 c33f 2c40 2995 2823 b53f
00000110: 3aa9 d707 7bad b8bf c48f b7d7 1f9a 77bf
00000120: 84b1 22c9 7efc bfbf f31c 6e8c bc0a b0bf
00000130: 7751 012f a4f1 bcbf 62f6 d553 d30d c73f
00000140: f7c8 a581 0e09 c73f 9d59 c348 793c c13f
00000150: 972a 0c62 e342 cbbf 2f36 5d37 5d54 b4bf
00000160: d92c 85c4 cd9c c83f d87b e3f7 f9a6 cabf
00000170: 9300 e0a1 e286 89bf c7ff bda5 bda9 ca3f
00000180: 59b2 06b1 29ba 31bf 0eb6 76ca 877f cabf
00000190: 7280 8b4b 561b 8d3f 1d95 278a ad94 c3bf
000001a0: 3e71 bb47 fbc7 c2bf 039e df97 8b7a ca3f
000001b0: 61b4 7c1a 1d83 903f face 1f22 6239 c8bf
000001c0: 44c6 c757 1f32 babf 87cf 54ae 2f34 ad3f
000001d0: f77f 17d9 ea9f b2bf 70b5 c3b0 8960 b1bf
000001e0: b604 3ac1 390a ca3f b5ee 8404 55f3 acbf
000001f0: b1e6 d11a f0ed c63f 8c2e 5b3e a2d0 4cbf
00000200: a337 da53 cb71 d93f 504f 270d d6d9 bf3f
00000210: 56e6 8700 9cae 91bf 81fd a25e afb8 c3bf
00000220: 5f0a c135 24ec d93f abf4 107e 59ac bcbf
00000230: f271 f415 f1d5 b4bf eb86 19a0 e894 d1bf
00000240: b7d3 8c33 c5e6 93bf ebf5 8944 7ccf d23f
00000250: 03a5 6804 ea38 cbbf 3c37 99a4 6fad 6a3f
00000260: b350 17ca ff76 cfbf 6281 3eab a438 d3bf
00000270: dbce 08c9 adfd bc3f bc0d 3c68 b7f9 c7bf
00000280: 7fdf 89f0 4295 ddbf 66db cc79 64b1 a5bf
00000290: 41ac cf36 6ed3 b03f 2da0 9168 c042 b73f
000002a0: 7c8c b898 65b3 c13f cf70 e7eb 77d5 c8bf
000002b0: 2845 c12d acd7 a1bf 2186 5351 0bfc c7bf
000002c0: 2131 528d 72df ddbf 3b38 1685 067a c0bf
000002d0: 153f 4035 44b5 c13f 9ee1 e91b 8742 86bf
000002e0: c3db 44a4 5ef3 e53f e361 d2d2 6163 bd3f
000002f0: 3401 40cc 6cca adbf 687c 18ba 62bd e5bf
00000300: fa8d 4431 4fde c53f 57e9 6061 92af d8bf
00000310: 9bbb 1ed8 4489 9a3f 75e0 0582 cda7 b13f
00000320: 29c8 d79a a353 d93f b861 518e f063 a13f
00000330: 1403 50ed 9c5c c03f 62b5 3fc3 25f2 ca3f
00000340: 6baa 578e ea83 e2bf 9470 5969 ebe4 a3bf
00000350: 2a69 4587 8ed6 d33f 60ed 72f4 2290 a63f
00000360: c2de 6931 f0e8 c23f 03d6 7278 0797 db3f
00000370: 3eb6 2c7e b413 d23f cf30 3331 3e4c e4bf
00000380: 8d22 ee59 0784 bbbf 552d 46b3 5c0e cf3f
00000390: 1eaa 3f2f 0ef8 a5bf 7a24 20ae ac31 c93f
000003a0: f328 cb1c 0f7f c33f 5337 cd7d 389c c6bf
000003b0: 80cf 7dbb 6feb d4bf 961d 8007 788a b3bf
000003c0: 3be0 fb70 c55c b4bf 2487 d60f e6f5 cebf
000003d0: 9c94 e57d a469 c63f 408a 68e7 7593 8abf
000003e0: e641 6d80 7960 d7bf 456f 8fe7 2de2 c0bf
000003f0: 3d96 6e02 0ad0 d0bf 8f26 6304 d723 c13f
00000400: a5a6 f66b 2bfe e33f ac5f 808c 261d a43f
00000410: 475b 41cc c22e c9bf 9398 306f 4761 c8bf
00000420: 0bf0 a270 335b d43f 3357 bfd1 8bee b83f
00000430: 0b02 766c afa9 ad3f 3ad3 5808 9c4f e3bf
00000440: cc95 ec6c 7c5d ba3f acb9 8e12 4b97 c33f
00000450: 3c1e c03c d6e0 debf 6ab0 348f 52ad c63f
00000460: b850 f808 3e33 cbbf 4fcf 8155 ed71 e4bf
00000470: d90b 107e 83c6 cd3f 21eb 4688 ab60 d5bf
00000480: 08be 6bf0 9be8 bebf 7fd6 de1e efb4 c5bf
00000490: b305 4b99 2903 bebf c6cd 126f 8461 bb3f
000004a0: 33ee 4b88 e633 ce3f 3948 b2e0 9dee d4bf
000004b0: 7a98 6966 2fa3 b8bf 6342 b3ec a2dd d2bf
000004c0: 39a3 9e8d d7f7 e3bf e4fe 21d3 0b2d a6bf
000004d0: f683 ae3c e93e a63f e18e b3f0 8ea9 a5bf
000004e0: 44e6 6771 08bd e53f f709 5f42 7d9d b43f
000004f0: 67a6 9e48 a867 c0bf 6270 51ba 81e7 dcbf
00000500: 4f7d d460 51bd be3f bbb0 7bb9 142a e8bf
00000510: 92e5 3236 9168 953f 633d 5341 9560 9dbf
00000520: 0d0b 1f2e f664 d73f 4344 6376 df13 da3f
00000530: be72 a624 5710 c23f e440 21a2 48f3 b33f
00000540: 8929 b2ab 0e04 d9bf a905 0c51 30bc c23f
00000550: 33e9 833e 2634 c83f f445 495b 2400 bc3f
00000560: 9191 44af bc57 c03f 188f afae bc07 e93f
00000570: 76be 82ae 1263 db3f 370d e491 deaf e0bf
00000580: c186 54e1 e9c0 653f b756 1b65 8ce8 ad3f
00000590: fc15 d1be afc1 b9bf f206 1163 c278 d33f
000005a0: 5240 0560 e932 c33f e859 03c0 bdfb d4bf
000005b0: 10aa b8f5 29d3 e6bf 896b 3b3f ccd0 b4bf
000005c0: 7ef6 0dd0 9d2f bfbf 475f edcb 80d1 c1bf
000005d0: b999 4642 2fc7 de3f 05e6 548c 4847 c4bf
000005e0: 1364 d751 2d4e e4bf 8cad fbe9 5b59 aabf
000005f0: e43f 4908 4866 adbf bf0a 0b25 9775 963f
00000600: e857 36d4 b2b2 d2bf 4b95 af23 fc0e c9bf
00000610: be12 9ad3 b875 d0bf 5d5b 5147 75a2 c53f
00000620: 50f5 8245 ef10 c1bf 2126 b705 972d d13f
00000630: 4471 c580 e1b7 c8bf db65 488a ca44 c03f
00000640: 64d4 5368 4ea5 d33f 875b 4984 9c08 d13f
00000650: e136 19d0 0bb0 b83f 08e0 4db8 2f6b cb3f
00000660: 5c2e 6403 468f c83f 2e28 eeb6 d2fb bd3f
00000670: 79c7 b0b2 52e5 cfbf 5cb7 f50b 66d9 bf3f
00000680: 8c4c 37b0 b17e b13f 1778 387f eb31 cabf
00000690: 7feb c8f6 c992 d8bf 386a ff73 4929 ca3f
000006a0: 00f0 364d c8dd c1bf 2c4c aba1 c83e d23f
000006b0: 439d 32cb d2da c33f acf9 d6cf 42fa ccbf
000006c0: dafd a727 333c c23f a1d3 a00d 39f6 bb3f
000006d0: ace7 13e2 2a21 bcbf 8aa7 c610 7b45 c43f
000006e0: f542 3054 c4b1 c3bf 91de 000d ca8f d13f
000006f0: 9a5f 4185 498a d43f 6490 05ec 32c8 c13f
00000700: 98a9 c80a 7b22 c23f 27e4 a55a 0c7c c83f
00000710: 87d8 9ff0 bb53 d1bf 0b2a b2bf a0aa cc3f
00000720: 0e1b 52c7 5466 87bf 0efb 9796 0bec ccbf
00000730: c826 e967 327e c93f 2ccd ee49 00fa d43f
00000740: 6758 9a73 c79d d03f 2b4d e36e 1eb6 bd3f
00000750: 0fcd f1f1 8489 a3bf 067c 2d4c bc17 aebf
00000760: 0814 8457 cd8f d33f 214a 17eb d162 cdbf
00000770: dd16 f240 6b08 cdbf 0c9e 8aab 9f4c d13f
00000780: 9421 8628 4d66 cfbf 6ec1 32bc af23 cbbf
00000790: 8413 2d60 0b88 d4bf 7102 27ba c399 cabf
000007a0: db34 3b00 a828 d2bf 7c98 7341 7c39 a63f
000007b0: d558 282c d110 b53f 2277 9179 81a3 d2bf
000007c0: e070 d572 d1a0 d5bf ad15 bb60 bde5 c7bf
000007d0: 9b55 7757 b289 cabf 7c90 e4cc c7b7 d4bf
000007e0: 6aad 727d fee0 a83f 9ed4 a0e5 cdb1 d4bf
000007f0: 5d7a 7db7 6e99 cd3f 30ed ae52 a941 d23f
-0.035397673065152124 -0.19372846219361 -0.119637809015535 -0.03657208370026355 -0.12805741304135626 0.18618775302526278 -0.022683025645627426 0.023079416854432582
0.10344584438098464 0.32078862492003485 0.23057702668934613 0.08063266503338608 0.13183297237939426 0.04042540790920165 -0.20580520624711013 0.14889607853832001
0.22689628460525585 -0.037617853398804905 -0.1766792634276383 0.050887450616252924 -0.12238829765117465 0.16162149221598524 0.23726351157656017 -0.018458628219202595
0.23122890268710058 0.18422472103700263 0.22785784296191494 0.15130384822286808 -0.19296681951704714 0.01927355204733412 0.25835627272357226 0.014851049589775346
0.15159014098097703 0.08256772653226169 -0.09639710370507695 -0.005762218842821857 -0.12494652185950456 -0.06266382626028015 -0.11306215427004483 0.18010942071480246
0.17996388750504597 0.134658012894488 -0.21297876632191468 -0.07941229440367502 0.19228527160371447 -0.20822071651397667 -0.01246430450919459 0.2083050784385689
-0.00027049558505146603 -0.20701691995547872 0.014212297611664069 -0.15297478910285003 -0.1467279529814593 0.20686478534410932 0.016125159017225225 -0.18925120035384407
-0.10232730763507286 0.05703877451961064 -0.07275264549343761 -0.06787930074252357 0.2034370606889177 -0.05654397659460867 0.1791362887341186 -0.0008793632702803352
0.39757044972145134 0.12441766568309487 -0.017267644436265016 -0.15407364006930993 0.4050379300062214 -0.11200484588421726 -0.08138949190146841 -0.27471366533983027
-0.01943500640046 0.29391390507939147 -0.2126743814017474 0.0032565289045924078 -0.24581906669357564 -0.30033222888052624 0.11324583204332887 -0.18730824079112363
-0.4622351979264678 -0.04236902224368215 0.06572617376484492 0.0908622985167546 0.13828725773882755 -0.19401453989747217 -0.034848576150248 -0.1873792788601785
-0.466763151177263 -0.12872392176035583 0.13834431266922623 -0.01086907915053886 0.6859582146051867 0.11479770085350753 -0.05818500512396199 -0.6793683657341605
0.17084684281972767 -0.3857160521471505 0.0259142643841944 0.06896671699894504 0.39572992440582994 0.033965604183950615 0.12782632434393604 0.21051475556979954
-0.5786030559659826 -0.03885589276316739 0.309970504856795 0.04406842454906257 0.14773371136447194 0.43109308970028354 0.28245270082229357 -0.634306999295882
-0.1074833483272732 0.24262579682941046 -0.042908137576734826 0.19682844640945857 0.15231503396928012 -0.1766424764886617 -0.32686990079604783 -0.07633161719433298
-0.07954057701488264 -0.24187923215236495 0.17509895465187675 -0.01297657120182294 -0.365263343254837 -0.13190244490294326 -0.26269769895074885 0.1339062472746275
0.6247765644704556 0.039284901286179646 -0.19673953030970834 -0.1904687207144816 0.3180664634671763 0.09738992567812658 0.05793522070871767 -0.6034679568316286
0.1029889837196471 0.15305460363511025 -0.4824729531542038 0.1771643828627732 -0.21250129163730036 -0.6389071149883224 0.23262065558819137 -0.3340252714948964
-0.12073683375978572 -0.169584169457881 -0.11723575584894412 0.10695674621347626 0.23595887808902347 -0.32706400816926223 -0.09624000788025625 -0.2947776137853337
-0.6240041509637201 -0.04331242515854486 0.04344872346633359 -0.04230925262689112 0.6793253149946357 0.0805280959166693 -0.1281633715237149 -0.4516300506127263
0.12007626165403916 -0.7551368353574824 0.02090670483878438 -0.02868874751294238 0.3655372095492318 0.4074629455690834 0.1411236695247648 0.07793096502541946
-0.39087263838941816 0.1463680644738308 0.18909147312644733 0.10937716702144212 0.12767752225876142 0.7821944629508577 0.42792193452894567 -0.5214684342794617
0.0026554649326876183 0.058414828626764 -0.10061167152988298 0.30424556421722493 0.14999119938375088 -0.3278650641563261 -0.7132768439526576 -0.08131100219490696
-0.12182031945664026 -0.1392060275782063 0.48090726349110074 -0.15842539646273238 -0.6345430944885514 -0.05146300536383838 -0.05742096997403204 0.021932946811612505
-0.292156893957666 -0.1957698034522458 -0.257185179369383 0.16902032835306616 -0.13332930463904313 0.2684075885595992 -0.19311159885081441 0.12709933998193787
0.3069644945929382 0.2661505977497928 0.09643625097779875 0.21420856951931477 0.19187235990135576 0.11712376562186996 -0.24918588376163678 0.1244109896849443
0.06833944847248768 -0.20464843475286962 -0.38395928478319513 0.20438497699690727 -0.139580762579385 0.28508201396943167 0.15511546060336387 -0.22638735912728458
0.14246215282763225 0.10922581274719657 -0.109881096071972 0.15837038344517068 -0.15386251555221234 0.27440120000708484 0.32094038022250404 0.13892208599566225
0.14167726542048054 0.19128565241024484 -0.27073572634197557 0.22395715103296285 -0.011425649960313613 -0.2259535298653294 0.19916372369544022 0.32775885791780257
0.2596300724920923 0.11606016356681852 -0.038158564123387355 -0.058774837779076036 0.3056519846580277 -0.2295782468705321 -0.2268194262616622 0.27030174018952446
-0.24530949095448007 -0.21202656449669227 -0.32080349342532366 -0.20781752194854478 -0.28373146078668093 0.043407328595820055 0.08228785827700176 -0.29122959968468554
-0.33794056143029927 -0.1866986009901387 -0.20732716818626504 -0.32371706971230885 0.048591568768950946 -0.3233523123229335 0.23124488791923428 0.28525765490094823

topology.convs.0.nn.0.bias f8 [64]
00000000: 9f59 3bd0 ec31 babf d2c2 54f2 4c0d ae3f
00000010: 4f23 0b24 27cb b6bf e59b 6641 3e2e a93f
00000020: 1167 2abb 54f2 7bbf 0ac1 dbb1 6057 88bf
00000030: 0bc3 2a0d 8692 7b3f af2f d8d5 a420 b5bf
00000040: 321f d42e 0a64 b5bf 9df1 b3a6 61bd b3bf
00000050: 6c83 99bc 29c9 ae3f 784a bd78 9152 99bf
00000060: 7b4c 5727 5844 953f a556 84c5 32aa a4bf
00000070: 43ab 3403 2c21 9c3f a97f e0ad 3947 b83f
00000080: 96a9 c733 7daa ab3f 730f a9fe 8d2f 9cbf
00000090: 621e fc58 2586 91bf 992e 4b99 357e afbf
000000a0: 6d95 c939 b8cc b2bf ee4a b087 20fc 53bf
000000b0: 06e9 4703 ef1b a9bf 0a09 e3b5 682f 9fbf
000000c0: fa77 5be7 2b8d abbf 0b44 43de cfd3 a33f
000000d0: a4af bdf1 f6fc 74bf 6259 c1ad a732 bfbf
000000e0: 7db9 7d51 d1ce bdbf 3101 46da 971b af3f
000000f0: 7afa 8cfc 6223 983f 086b 5030 2b66 bc3f
00000100: 6d97 39b5 7c25 963f 00e5 84f8 254b b2bf
00000110: 6ce7 02c7 bba8 90bf f758 2d26 5009 98bf
00000120: 62c5 e4c0 8c72 a1bf 8b65 c96d 6f43 b4bf
00000130: a539 2772 fbc2 8abf 3da4 f8ae 9b80 b43f
00000140: 2276 bc63 fab4 b13f cfb1 4c93 92ff bebf
00000150: 4ae4 7fb7 dc04 af3f 2d16 729a 67fc 653f
00000160: e36c 177c c694 9d3f cba9 6e73 3956 bcbf
00000170: 0d37 164e aef7 763f 0cb6 f643 c272 94bf
00000180: 4750 1184 d4da bebf 03e3 1c46 364f b7bf
00000190: 5924 a46e 1a26 90bf 453d a7d7 9c98 bc3f
000001a0: d2b8 aee6 84af a3bf 9915 69f5 3193 ab3f
000001b0: f7ec cbf9 23fc af3f d52c 594e 26cb a3bf
000001c0: 7da1 7988 dc3e 983f a316 4d75 13f7 99bf
000001d0: 946e 7f88 70e1 9fbf 88a1 68f2 e01d b6bf
000001e0: 4e87 0cc4 0a50 a03f 78e6 f810 2e09 b73f
000001f0: 3070 19f9 632e a0bf a79a 6b2d 2684 bf3f
-0.10232429584298196 0.058695225316460445 -0.0890373671528668 0.04918093250608261 -0.00682290170757384 -0.011885409763153127 0.006731532705700936 -0.08252935620129052
-0.08355773585583107 -0.0771084815969005 0.060128502151889446 -0.024729035372113434 0.020768525506195772 -0.04036101018043085 0.02747029084745668 0.0948368119720714
0.05403510338858834 -0.027525156658398452 -0.017113288456157234 -0.06150977607975711 -0.07343627367807466 -0.0012197797466383903 -0.04904124178934137 -0.030454288579457013
-0.05381142806230339 0.03872537220161839 -0.005124058366941773 -0.12186668388435387 -0.11643703689126102 0.06075739421339888 0.023572489418479205 0.11093397073311106
0.02162737709149758 -0.07145917241441069 -0.016268667241753063 -0.02347302659048808 -0.034077070757471586 -0.07915398054446691 -0.013067211552791511 0.08008740445861036
0.06916775641408227 -0.12108722778493262 0.060583970451212624 0.0026838325025575678 0.02888784534830514 -0.11069068020029886 0.005607300642976443 -0.019969020269561752
-0.12052658294970896 -0.09105242931117279 -0.015770352366449056 0.11170368447277663 -0.03844847980450229 0.05385738487943143 0.06247055458330835 -0.03865928369904174
0.023677297429828926 -0.025356582674496263 -0.03113342126003589 -0.08639341276341928 0.03186067240882427 0.08998382486688594 -0.031603931577336986 0.1231101857079958

topology.convs.0.nn.1.weight f8 [64]
00000000: d8dd 168b e55e ee3f c4bf a0e7 30e0 f33f
00000010: 69a2 978e 5e5a ed3f b9f2 d787 db16 f13f
00000020: 5dc0 6098 d26a f23f fe3f a30e 528a ea3f
00000030: cdb2 9de5 04fa ed3f eb4a c65f aece ef3f
00000040: fbe0 ad1d 4f4c f13f 053b b8b1 9745 e23f
00000050: 33d0 ad63 4c5d ee3f 0a52 9237 13b7 f33f
00000060: 3ac1 0aed e5fa ec3f 38a9 0348 4585 f03f
00000070: 36ca cc16 2351 f13f eecc d862 5173 f33f
00000080: 840d cf6a 4986 e63f 3b01 b681 dc89 f03f
00000090: c8bf 0a2c dc7e f03f 6761 89aa 317f f13f
000000a0: 7e78 b90a b7a4 f23f 87e7 760d 1021 e93f
000000b0: 4ef6 be37 c505 f13f 0b5d 9660 2ec6 ea3f
000000c0: b30f 4fb7 bd1d f33f 5ced 5503 a1f2 e93f
000000d0: 0b72 c5a3 d2cf e93f 6a16 b53f b155 ee3f
000000e0: df70 da67 98ae ea3f 7aae d893 b11a f03f
000000f0: 9f64 d78c a2a4 e93f 794e 2772 40d0 ef3f
00000100: 623b 72d1 f6a6 ef3f d7be c918 5eb3 f43f
00000110: d765 3f81 f6be f03f f0b1 9963 5423 ea3f
00000120: bc05 9e25 1f52 e33f 37c0 e8f2 4312 ec3f
00000130: 20f4 79ef 9e71 f03f a776 6723 874f f23f
00000140: adbc e91d c066 e73f 0ac9 ad18 c92b f13f
00000150: 85ac b0eb 4a95 e73f 8550 91d0 067f f23f
00000160: e6b9 fdca f50b f33f 517b b890 99ac f03f
00000170: b511 7571 416d ea3f 6dae 91ec 63c1 f33f
00000180: 969a cb88 e76b f13f 2f2e d75b 4675 f13f
00000190: 70f3 6bb3 4676 ed3f cbbb 24a7 2d76 ec3f
000001a0: 0c7a b449 798a f33f 730b 5de4 10ae f03f
000001b0: 397f 8027 41eb f03f eb16 71fc 43e4 e83f
000001c0: c60b 0ce4 8036 f13f 5af5 647d d821 e93f
000001d0: 7687 e72b 2085 ef3f c68f 4adc f1f5 f03f
000001e0: 2258 7987 eaa5 eb3f ec94 0025 c1be e93f
000001f0: 8192 2b5d e434 f33f 2aee daf7 f719 eb3f
0.9490840641582805 1.2422341392484535 0.9172814164167679 1.0680804544819422 1.1510797455084891 0.8293848310368046 0.9367699131667792 0.9939796324345854
1.0811301383346847 0.5709951850020337 0.9488889643530513 1.2321960612072211 0.9056272153593803 1.0325367749270082 1.0823088541625459 1.2156537877279407
0.703892429934442 1.0336575571855764 1.0309716911688032 1.0935532247150037 1.1652136248517588 0.7852859747865616 1.0639087846351631 0.8366920362922498
1.194761005449419 0.8108677926206087 0.8066189955384869 0.9479604954037317 0.833812907064864 1.0065170073748093 0.8013470412071405 0.9941713552056647
0.9891313639399011 1.2937909096034923 1.046621804116844 0.8168127007789376 0.6037746176445391 0.877229666168211 1.0277394632860322 1.1444159872984672
0.7312927803267449 1.073189827348474 0.7369742015192889 1.1560123583958852 1.1904199532833615 1.0421386387967753 0.8258368698084754 1.2347144356707773
1.0888438552443964 1.0911315524598526 0.9206880096750023 0.8894260658761309 1.2213070754147592 1.0424965782592295 1.057435182861765 0.7778644495490118
1.0758065136039803 0.7853815507038846 0.9850006921299002 1.0600451092841339 0.8640034337975104 0.8045354578686363 1.2004130973301985 0.8469199982568558

topology.convs.0.nn.1.bias f8 [64]
00000000: 83d2 56a6 b728 b4bf fa53 2f87 14f6 dfbf
00000010: de6d c1b0 e634 d4bf 5d01 4ad7 d7fa c0bf
00000020: 313b e078 329d b4bf af7e d1a3 39d7 b9bf
00000030: eee0 4c22 691c d1bf 5d9a 1c04 f344 cebf
00000040: aaac 605d f1d5 ddbf e4dd 0eaa 9683 dcbf
00000050: a67b f7f6 c4ee dcbf 5eb2 1684 0e39 bfbf
00000060: 287b 0cde 6d9a d2bf 3c3b bec2 a05b c33f
00000070: 394f 1367 1906 b4bf a37d 5261 9555 d93f
00000080: 01f3 6a6a a2a0 dbbf 8972 b604 6b53 d0bf
00000090: 1f93 a1dd 4c31 d2bf 642f 25e7 c6b7 b5bf
000000a0: d51f d38b 732a dfbf dc86 e4bd 488a d8bf
000000b0: 83b3 326b 90a7 dcbf 57b8 7669 5e86 cbbf
000000c0: e675 fb43 ccc3 d9bf 18f6 1e9d b600 d8bf
000000d0: 95e7 6471 dd85 b9bf 40d7 a954 5bbb cbbf
000000e0: a039 201d 8f63 d3bf 78b3 2f2d ec89 d5bf
000000f0: 083e 2280 27f7 d7bf 0c56 cd3f 1fbd cebf
00000100: aff7 325c 849a cdbf 7e37 f098 a890 e1bf
00000110: 6b54 6abf bc46 c1bf e10b f2d7 8be3 d7bf
00000120: 46ed baf8 b905 b3bf 169c 361f f062 c4bf
00000130: d688 92fd 01e4 d4bf c2bc 9374 d9fc d1bf
00000140: 8260 0143 218a d8bf 52ae 4cdb e209 bbbf
00000150: ee71 53c7 964a cfbf eaa1 6d4d 271a d1bf
00000160: e1f9 8a04 cf92 d0bf a604 062e bf8e e0bf
00000170: 6cbb 71d0 ce72 c8bf d5f0 b166 000d c13f
00000180: fa5c 6a76 7c70 8bbf 1c03 fb54 9060 c3bf
00000190: edf8 7374 e8ec c2bf 614b 5335 11a1 d7bf
000001a0: 86f9 491f 22f5 80bf 95cd 2c30 7dcd c73f
000001b0: ce48 5388 06ed dcbf edb2 1dcc 9dcc d4bf
000001c0: 91bb 3643 550f c23f d08e 8c48 69e2 cabf
000001d0: d579 cc42 47ef ab3f dfb6 db5e 41ae d23f
000001e0: 5ed4 d5ba e093 dcbf 9479 9813 f9a1 c5bf
000001f0: 9e22 882f e6c0 ca3f 3193 6efb 525f d4bf
-0.07874629794134518 -0.499394542709808 -0.3157288290146577 -0.1326551247802951 -0.08052363825866561 -0.10094032525511908 -0.26735905027045603 -0.2364791650845345
-0.4661830341235126 -0.4455315266345379 -0.4520733272346952 -0.12196436619587689 -0.29067560848663954 0.15123376378002173 -0.07821806684961254 0.39584860328792554
-0.4316793479190864 -0.25509143314574395 -0.284259048878356 -0.08483546393580138 -0.48696602492100044 -0.38344019455153755 -0.44772730320510606 -0.2150381102523535
-0.40257555617230734 -0.37504353851167727 -0.09969886797344281 -0.2166551745792109 -0.3029516014511504 -0.33654312527396923 -0.3744601012521973 -0.2401465474637664
-0.2312779855910185 -0.5489085185124478 -0.13497123094990413 -0.37326332176615834 -0.07430612871660455 -0.15926934742057658 -0.32641649020127994 -0.281057704777549
-0.3834307817792323 -0.1056196008109336 -0.24446377499306443 -0.26722128449776383 -0.2589604896892564 -0.5174251459976815 -0.19100365808432274 0.13320927633674864
-0.013398144115213107 -0.15138439320983188 -0.14785485922033761 -0.3692057629352146 -0.008280054645408052 0.18595852711005692 -0.4519668895055816 -0.32498879368976824
0.14109292776035123 -0.21003452341493878 0.054559924034254394 0.29188570273877973 -0.44652574773437503 -0.16900552231613786 0.2090118152703057 -0.31831812433147194

topology.convs.0.nn.1.running_mean f8 [64]
00000000: 4a6d d456 2749 d13f edd8 c55a cc7c a83f
00000010: d46d 43ec 7773 c0bf 48a7 379b 7226 e93f
00000020: c6f0 d099 8884 e83f 1f75 608a edb3 e13f
00000030: 7c5b 4c17 b8f4 e33f 57e5 0ad7 d530 f03f
00000040: 0915 b546 c832 d5bf 8fa1 3229 7a4c cd3f
00000050: ba25 d155 546e c0bf 2cca 3bd3 f40d dc3f
00000060: da90 f0c6 8284 db3f 7374 e059 a2ee f13f
00000070: e961 2d98 e1c7 ee3f 5be6 a5c5 56a4 d93f
00000080: 0ca4 be4e e5ec d03f 0713 e8da 156a e1bf
00000090: a06c 9396 3b6e d3bf f445 f12d 8387 ea3f
000000a0: bb8d c963 6bc6 d2bf f8f8 2387 8dd4 d1bf
000000b0: e413 e79c a5a9 cebf 2113 b955 0e56 e43f
000000c0: 9588 d963 27f6 ab3f 9a92 35dc e6a6 4f3f
000000d0: 5ede d3f8 04e3 db3f 0602 9160 d409 d2bf
000000e0: 7c5f ae57 5901 d23f b814 de34 cf49 e3bf
000000f0: 0968 00dd 5c77 8c3f 8428 42f0 92ba d3bf
00000100: 41be 53ec 825f e33f 7b5f 42f4 4fb3 cdbf
00000110: 073f 2e8c 8dcb e8bf b2ef bdf4 f0ed c1bf
00000120: 4041 de17 9f87 d83f 0525 38f9 9a98 eabf
00000130: a9ef 98b4 74bf e5bf 894a f39b 436d 8dbf
00000140: 33ae e342 6817 c2bf 7127 b3eb 4fe0 dfbf
00000150: 7e1b cc97 1c27 e03f 4632 c70a b305 e7bf
00000160: 01ca dd6d 6dee f13f 1f9f 3f41 8187 ccbf
00000170: 5b73 f571 026f e53f 0318 7231 a696 d03f
00000180: ca49 b734 40ec e13f 52dc db30 44ec ecbf
00000190: 0ce9 9696 1333 e7bf ab91 3591 8624 a33f
000001a0: a829 3a24 b208 da3f 0704 38b1 73dc ed3f
000001b0: 1904 1548 04bb a9bf d8fd ed80 684a 8abf
000001c0: f29f e8ba 2212 eb3f e828 356e dc81 dabf
000001d0: 629f 6730 0826 e73f 3ac7 aa8f c7e7 d13f
000001e0: ed88 9f3d 4a10 dbbf 4105 f60c f573 e8bf
000001f0: 5583 30cb e19c f63f fa54 4650 7082 c6bf
0.270089945597381 0.04782713516299162 -0.128523817408548 0.7859433204259654 0.7661784176084658 0.5532138540908454 0.6236229376835207 1.0119226837253643
-0.3312245073796736 0.2288963986550354 -0.12836698713571854 0.4383518278911278 0.42996282031732636 1.1207602988063428 0.9618995640003593 0.40065545369689
0.2644589680663223 -0.5441998744505278 -0.3036030741183797 0.8290420434297503 -0.2933605646596466 -0.2785981960040682 -0.23955221329938958 0.6355048822666484
0.054612379969300275 0.0009659411665948359 0.43573116588183847 -0.2818499510795224 0.28133233606921926 -0.6027599365776473 0.013899541372712336 -0.3082625719331491
0.6054091087116334 -0.23203467776033534 -0.7748477685836129 -0.14007389021196343 0.3832776768768049 -0.8311285846295112 -0.6796210791867355 -0.014368560978629279
-0.1413393332107816 -0.49806592958031276 0.504774376372424 -0.7194457254896143 1.1207098285345867 -0.22288528142893768 0.6698009706266065 0.2591948969715078
0.5600892095192702 -0.9038411096834216 -0.7249849263382955 0.037388043618906984 0.4067807534962875 0.9331606351189529 -0.050254949378093446 -0.012837234911557013
0.8459638262329447 -0.41417608988252974 0.7233925767331864 0.27977170019140696 -0.42286926286591503 -0.7641549351830365 1.4133012711610793 -0.17585567397751573

topology.convs.0.nn.1.running_var f8 [64]
00000000: 6c99 8a9e a6b6 c93f 399f 9cdc ea49 da3f
00000010: ea0e b336 efa8 e53f d7b7 015e 86a1 e03f
00000020: eb68 2be4 4496 f53f 6647 3279 3444 a13f
00000030: 9702 e546 454e e53f 9be6 8569 083e f53f
00000040: 7943 9bdf 77aa e13f 1b7b 3f72 f74b c83f
00000050: 2377 efa9 8017 e53f a1ea d7a4 d9b6 d73f
00000060: b8ac d168 97d2 c93f 1806 47f0 ab41 ec3f
00000070: 660d 647a eb0e f23f 9b26 cdd9 7a2b d63f
00000080: 5a70 2c82 bbc3 c93f 69c4 c3ab 0fcf ef3f
00000090: 1688 2f5a b277 d23f a38f dc85 0d61 f03f
000000a0: eeeb 94de 1c1a e53f 9d2a 8f2c 6f5d ce3f
000000b0: 9237 032a 6d0e e13f 9c77 1424 2cfa d53f
000000c0: 81d6 6b71 9011 c43f 2386 93ec 9631 c93f
000000d0: 167e a7a8 b22c cf3f d352 77e0 aadf e03f
000000e0: 0b1c b703 8611 cc3f b561 67c6 b786 f43f
000000f0: 8247 bfce 252e d23f 9523 7411 229e e03f
00000100: 593b 4bac e2ab d73f 105f e89a d6a4 da3f
00000110: 609f 24da 4e1a f13f 3a17 eb43 9ca5 d13f
00000120: 5882 2fb7 a405 d03f 0031 1741 1f4e ac3f
00000130: c3c7 5c17 5c9c ea3f d614 3d6e 0a47 e43f
00000140: 4fda e99c 55f2 cc3f 3bc3 5f51 2f6d ce3f
00000150: d7d6 679d 008d c33f 65d8 53c0 3acc ef3f
00000160: fb2e 3296 f4d3 fb3f 5c69 7f7d 5903 dd3f
00000170: 1b0e e62c 549c db3f 95aa c834 9cd8 cf3f
00000180: 7584 9593 95eb eb3f b5a0 4893 3daf ec3f
00000190: afe1 2582 7b07 ee3f 0d15 1a90 238b cd3f
000001a0: ad7f 76bf 45b5 d13f c0a8 77b2 3bb8 e23f
000001b0: b072 ba55 c9a0 d53f f456 6794 d516 cf3f
000001c0: 310f 3224 d1d7 e53f 3c63 6c2e f236 d03f
000001d0: 29da 228a 61e4 ad3f 6745 c863 0039 d03f
000001e0: 21ba 4abd 1d41 c23f d6ca 59e3 b721 b13f
000001f0: c7bf 1f14 691f f13f 8229 92c9 2d21 cc3f
0.2008865617874095 0.41076156181451356 0.6768718784664689 0.5197173915928442 1.3491867936014 0.0337234876580073 0.6658045181903444 1.3276447412485257
0.5520591132463856 0.18981831625475185 0.6591189688731202 0.370535288791567 0.20173924081914207 0.8830165570181547 1.128642538155725 0.34640380162873335
0.20128578048832219 0.9940260271815876 0.2885557060927807 1.0236945370643091 0.6594375941562001 0.23722638774628005 0.5330110378797477 0.3433943130820525
0.1567860177817018 0.19682585288596596 0.24355157122680343 0.5273031601051009 0.21928477460298298 1.2828901052617827 0.28406663122324727 0.5193033543483688
0.3698660547788016 0.41631093146996623 1.0689228554928931 0.27573305733345743 0.2503444470330911 0.05528352422297367 0.8315868812844588 0.633671965894474
0.22614545976439834 0.23770705674498935 0.15274055181332954 0.9936803585430992 1.7392469279320142 0.4533294416011324 0.4314165533507734 0.2487979181035668
0.8725078470707915 0.8963916660914238 0.9384133855774531 0.23080868278717795 0.27668899247691564 0.5849894033138057 0.3379386269751121 0.24288434740326859
0.6825948435730195 0.2533536389687929 0.05838303385955996 0.2534790968357669 0.14261218779343302 0.06692075062327815 1.0701685701460393 0.21976253835994092
