src/models/mentor/results/3-channels/synthetic/position-topology/model_weights/1.ckpt (torch, 585687 bytes, 112 tensors)

topology.conv_GAT.att f8 [1, 1, 64]
0	0xbfb63f5350014011	-0.08690376952404245
1	0x3fd0bd8fc5de93c4	0.2615699226683399
2	0xbfb6d9f520a73afd	-0.08926326796720825
3	0x3fcdfb67a2504e63	0.2342347662494034
4	0x3fac7605b049240e	0.05558793808865668
5	0xbfa24661e86f49fd	-0.035693225501422156
6	0xbfcf8bc1d96f25b2	-0.2464525520029333
7	0x3f99d135f3c9a0b4	0.025212138180365343
8	0x3fd0e7795a2e193a	0.2641280537285585
9	0x3f97188a30ba628a	0.0225545494309665
10	0xbfb7629e00a2035c	-0.09134852900934959
11	0xbfc87bfc1af306f4	-0.1912837153995991
12	0xbfbbd74a113fa0db	-0.10875380440814146
13	0x3fc051d52c2dbaee	0.1274973359790787
14	0x3fc8b69835c0a980	0.19307234406126028
15	0x3fccb94e70e91b45	0.22440510285579243
16	0x3fd0641ea8365573	0.25611082484223074
17	0x3f7da7fa4bb6d193	0.007240274160200138
18	0xbfc7844572cc20bc	-0.1837240992101722
19	0x3fc949078430fabe	0.1975411792245349
20	0xbfbb8728a7b6d4d2	-0.10753110975823013
21	0x3fa8f6e519a2c32e	0.04875865877091311
22	0xbf6ca861bb9c3f23	-0.0034982594342024705
23	0x3fd206521e3c01ff	0.28163578941897066
24	0x3fcbe5ea4702fb70	0.21795395343175583
25	0x3fc837aaf8dde9b5	0.18919884826375513
26	0xbfc1db1619bb3580	-0.13949848419580846
27	0x3fd342f76b5d0601	0.3009623096914709
28	0xbf937851ba3f811a	-0.01901366900699584
29	0xbfd199c3f57bf225	-0.27501009915411806
30	0xbfc7435655282d38	-0.18174246938756666
31	0xbfb7f37c93f500f2	-0.09355906116707383
32	0xbfbe8389ce44311b	-0.11919461522865442
33	0xbfcdad21ef03fb9b	-0.23184608622247257
34	0x3fa676c39f225b35	0.0438748485332127
35	0xbfd0f354882521c3	-0.2648516969243497
36	0x3fc1eba1805aadbb	0.14000338332458093
37	0x3f96a19fba44e577	0.022100921386685592
38	0x3f9c27024153f50f	0.027492556798269393
39	0x3fb7c458be9c29c1	0.09283976224484204
40	0xbfc8ea94e04bc97d	-0.19465886070208774
41	0xbfcd3968c57ff36f	-0.22831449168725323
42	0x3fcf222f85da92cc	0.24323076282339284
43	0x3fd1bed91be216d6	0.2772734424873823
44	0x3fb7ebe58fa1462c	0.09344324833480105
45	0x3fc1e454a27a0dc8	0.13978059705196544
46	0x3f8f332b39f942b2	0.015234315592495083
47	0x3fc598739f8f0e6e	0.16871495524366104
48	0xbfcfb1f90b020d86	-0.24761879956723137
49	0x3fc439c52447c338	0.1580130030775082
50	0x3fcd709cfcfbe954	0.22999918320403856
51	0xbfcf1f09355d8639	-0.2431346426556489
52	0x3fc71e8656e25be8	0.18061904184716515
53	0x3fcf30c1b69d81d1	0.24367543617974133
54	0x3fceb21d3689f98f	0.23981061137233126
55	0xbfbd0150bff9ccf4	-0.11330132185848979
56	0x3fc0c8a0475a87ae	0.13112262233795263
57	0xbfc54fa7efd10a98	-0.1664934082965217
58	0xbfce6fb2fed1a485	-0.23778378908471978
59	0xbfc8d3f7f5a0ee94	-0.19396876805864294
60	0xbfd1b31858761de4	-0.2765560974007413
61	0xbfc267b04c3964c3	-0.14378932687649212
62	0xbfcbfa395ae24479	-0.21857373178184838
63	0xbf86a4f69c69735f	-0.011056830070793998

topology.conv_GAT.bias f8 [64]
0	0xbfb79bffb820b82c	-0.0922241043597018
1	0x3fc26dcca47ece9a	0.14397581130980514
2	0x3fb562593fb66917	0.08353193097574195
3	0xbfbc82daa254fb69	-0.11137167418654105
4	0xbfb5283461b20a10	-0.08264472375052656
5	0xbfb27b3d944c2030	-0.07219300146619001
6	0x3fbb04cfec2bebbd	0.10554217830569619
7	0xbfc2b4a2415467c9	-0.14613750638892345
8	0xbfba619f7ae852bf	-0.10305210829421706
9	0xbfc32c520b6edd89	-0.14979005392318026
10	0x3fbcce24bd995855	0.11252050045854507
11	0xbfbd38c7829ef310	-0.11414763392435767
12	0xbfb7a1bc64978262	-0.09231164413314155
13	0x3fbc11b3bae5074a	0.1096451121602772
14	0xbfba8c6028145c5d	-0.10370446184639222
15	0xbfcf1ebc6cf6dbf1	-0.24312548943063875
16	0x3fb9ed8d65d22fe7	0.10128101096978491
17	0xbfaebd37f8839646	-0.06003737362497623
18	0xbfb88b81e7ecc15e	-0.09587871467806994
19	0x3fbc2a5323e60826	0.11002082468442662
20	0x3fb689f1971cdf49	0.08804235400463968
21	0xbfba0a2a969ddcb3	-0.10171762635387686
22	0xbfc182e90fc10dde	-0.13680756825679813
23	0x3fb3e214878bced9	0.07766845998031204
24	0x3fb490c153b3a75c	0.0803337888097792
25	0x3fbade94712479df	0.10495879900233927
26	0xbfc142fa1242611f	-0.13485647098128425
27	0x3fb3f07d9e29fc6f	0.07788834678102473
28	0x3fc21f5fe4017a06	0.14158247597784185
29	0xbfbf78521df2c697	-0.1229296992412635
30	0xbfbedaed8a3146c3	-0.12052807449188223
31	0xbfc1ee55c8c66406	-0.1400859098764899
32	0x3fbb43a0a049c338	0.10650066293034122
33	0x3fb493bf80f0aa32	0.08037945650054537
34	0x3fb2e33ca2b9e69a	0.07377985928351408
35	0xbfb6476567d3e751	-0.0870269182668413
36	0x3fb275b332f2bdfe	0.07210845941403218
37	0xbfc0d0cb94934501	-0.13137192492153107
38	0x3fac75f90812476f	0.055587560878065705
39	0xbf85d016d9ac0993	-0.01065080501348773
40	0x3faab6f76c386600	0.05217717357681906
41	0x3fb89406bf36823a	0.09600870292934696
42	0x3fb3d8216cbe66a1	0.07751664070965571
43	0xbfbf74737c9d7b36	-0.12287065307962738
44	0xbfb094796799281d	-0.06476553706411932
45	0xbfbb39acee736ee3	-0.1063488084941429
46	0xbfb626e58287685e	-0.08653101383916481
47	0xbfb5557fcf79af1d	-0.0833358651668132
48	0xbfadf4adb800c5ec	-0.05850737448816887
49	0xbfb54bdfe79a43d9	-0.08318900493965432
50	0xbfb08df3c13d79f6	-0.06466601817871961
51	0xbfb46d84a89f76ef	-0.07979611508150318
52	0x3fb2daacd7adb0bb	0.07364921823108521
53	0xbfbab6775c652cab	-0.10434671407454015
54	0x3fbb885da831a78b	0.10754952770517272
55	0xbfbe6599c99214ca	-0.1187378041377826
56	0x3fb61dc3fcafb0b5	0.08639168662165526
57	0xbfbf5de9b1316a82	-0.12252674652101272
58	0x3fb67571ab823978	0.08772955357765067
59	0xbfb8ab065d775152	-0.09635963231932479
60	0xbfb52ad8d2d20fe3	-0.08268504282938198
61	0xbfb891cad0fe2d90	-0.09597461321225453
62	0x3fc0316f55d21f0e	0.126508633522683
63	0xbfb5db8635f5566b	-0.08538092439024474

topology.conv_GAT.lin_l.weight f8 [64, 1]
0	0xbfd904641f9d623d	-0.3908930119264687
1	0xbfa1bb2604781ca1	-0.03463095478587631
2	0x3fd41cc4d79785c4	0.3142559152020932
3	0x3fd414e042689ea7	0.31377417073461306
4	0xbfd69b5773b63eb8	-0.35323129940023135
5	0x3fc0ceb844edbeb7	0.13130858770045048
6	0xbfba4ff89a240148	-0.10278276217650728
7	0xbf90e6459d0234d8	-0.01650341769032057
8	0xbfc45bb6edca5fac	-0.15904890642991398
9	0x3fbf3ae2e830b98b	0.12199228447636849
10	0x3fd11a228029aebc	0.26722013965511926
11	0xbf70e529078d2d7e	-0.004124794265247698
12	0xbfb1ff7854b7ee8b	-0.07030441349336962
13	0x3f6ddcfa48ef3d0f	0.003645409429260511
14	0xbfb68d205f30447a	-0.08809091876925548
15	0xbfd9e9a26a4c5e76	-0.4048849142140861
16	0x3fcbe773562eb21d	0.21800080974698313
17	0xbfc410824f1690a9	-0.15675381528592894
18	0xbfc405ba87a399c4	-0.15642482398034308
19	0xbfc134987b61eea3	-0.13441759132898765
20	0x3fbaba5eb78e5e91	0.10440628033972589
21	0x3fc12e51f106f103	0.13422607678320028
22	0xbfd33b27c4583918	-0.30048555540351307
23	0xbfa75faf7acb79a4	-0.04565189718208565
24	0xbfcf825107405e28	-0.24616444448541697
25	0xbfd58d35f4320adf	-0.336743820640704
26	0xbfb166dd6f316cbe	-0.06797584500002338
27	0xbfa9bbe8591ae935	-0.05026174628933903
28	0x3fc4c28de71f01c7	0.16218732629023533
29	0x3fc60023745a60d9	0.1718792265062408
30	0x3fce5ec8adc64c75	0.23726757512176602
31	0x3fd07ca6753bc886	0.25760804604136245
32	0x3fb2a7f42fa83050	0.0728752724027697
33	0xbfba2be6193deeb6	-0.10223234287507918
34	0x3fcea4e54a8a66b4	0.23940721645049268
35	0x3fc86bbf34bdf489	0.19078817439359266
36	0xbfd84aeb24abf560	-0.3795726640817829
37	0x3fcfc07d629b8ac5	0.24806182207892938
38	0x3fbf0e01c7be382c	0.12130747915782142
39	0x3fca01a2f9768d87	0.20317494564833913
40	0x3fd6f8e528eaacbb	0.35894135471125893
41	0xbfd6b9efcf0c3d57	-0.35509867877495566
42	0x3fd20f8eede58916	0.28219960434047786
43	0x3fc6ac18d37c65cc	0.17712698294125884
44	0x3fcfee100cee07d7	0.24945259696329344
45	0x3fd492064adcb611	0.3214126330447878
46	0x3fce11bdf830896f	0.23491644495613737
47	0xbfad44262557acad	-0.05716056066361239
48	0x3fc9a38f8bdc2b04	0.200303977290183
49	0xbfd28a5eda86a8e3	-0.289695466427146
50	0x3fd57fcf56f774f9	0.3359258984836085
51	0x3fc3e1b6ef6283df	0.15532576264106887
52	0x3f9914768916a1fc	0.02449212276192901
53	0xbfa883b2c73e9294	-0.047879778692082514
54	0xbf9f43d2f61c5486	-0.030532165786173703
55	0x3fd2ee53bc6d02c9	0.2957963314147887
56	0xbf8a376a18fa0ec3	-0.012801007163268157
57	0xbfc692f80acbb753	-0.1763601353372289
58	0xbfb6ec9d9af07d12	-0.08954796822262193
59	0xbfc3cc5ff98861a5	-0.15467452701774423
60	0xbfc8f706056901f4	-0.1950385595719265
61	0xbfc055c0283e5c30	-0.12761690106410262
62	0x3fd82e3f4d828fc5	0.377822709744802
63	0xbfd05ee51319a472	-0.25579192033052955

topology.conv_GAT.lin_l.bias f8 [64]
0	0xbfdeedf6dcf25932	-0.4832741887743338
1	0x3fbe5943c95150cf	0.11854957261067799
2	0xbf5c983e2621bfe7	-0.0017452818797458693
3	0x3fb8a04c02599dc2	0.09619593675016971
4	0xbf90c16948832937	-0.016362805414965122
5	0xbfe1359a2e3e57f0	-0.5377932456201489
6	0xbfe6cf86812a78fa	-0.712832691456952
7	0x3f796a02dd526ad3	0.006204615773777805
8	0xbfe4f6bf71cd7672	-0.6551205847460564
9	0xbf90c4bdea7039b2	-0.016375510629637886
10	0xbf90384285613f73	-0.015839614287244296
11	0x3fd6a1764ec0dbb8	0.3536048668933591
12	0xbf97f132ba7b3983	-0.02338103545371829
13	0xbfdce00cc5789ee4	-0.45117491993231185
14	0x3fd9be1fcaa319e6	0.4022292593839708
15	0x3fe2ba961af81b8f	0.5852766539327251
16	0xbfec0a0de458ae3f	-0.8762273273363873
17	0xbfd85ae533c13492	-0.38054781011744254
18	0x3fe980ccfe6a0faa	0.796972748663838
19	0x3fc64d1085e3066c	0.17422682321016525
20	0x3fe4009861f6d007	0.6250726617204244
21	0x3fdcdda8c3fde2f7	0.4510290063840751
22	0x3fd704d63e0bc9a8	0.35967021998581084
23	0x3feccde1e447ad53	0.9001321276277089
24	0x3fd7b384bb2a97e4	0.37033193853346646
25	0xbfe37b0010fed4b1	-0.6087646800939607
26	0x3ff15545c55121a9	1.0833184917156393
27	0x3fc037a231db3eec	0.12669780191799107
28	0xbfcab27f8476fd75	-0.20857233016975454
29	0x3fabf2de436d8d7b	0.05458731244177791
30	0x3fe9da2192f6e23d	0.8078773374937281
31	0xbfb3f3257407967c	-0.07792886812929994
32	0xbfe50fdcef3d8edb	-0.658186404482389
33	0x3fe683d542cb2a2a	0.7035929016649949
34	0x3fe767ef57fd365c	0.7314373701608008
35	0x3feb44c7ebc52caa	0.8521461110007256
36	0x3feb2a3337542397	0.8489013748777435
37	0xbfb69c774485e0d5	-0.0883249800007236
38	0xbfd08b3f471005f1	-0.2584989732714283
39	0x3fdda1c48b119d9b	0.4629985197156771
40	0x3fdb00f6f5f6aab1	0.4219338800418582
41	0x3fc7e4a7b4a477b1	0.18666549988205142
42	0xbfba1f077b32549f	-0.10203596837739547
43	0xbfbe027cbfe5c377	-0.1172254532336988
44	0x3ff0cc2ae206ebc4	1.0498455838376097
45	0x3fb986da33d82e10	0.09971393361791336
46	0x3fed54f07ac44ebd	0.9166185758390025
47	0x3fe83d46f35b6d5c	0.7574801209515658
48	0x3ff022210b9cf15f	1.0083322957644538
49	0xbfed82449310e684	-0.9221518394835617
50	0xbfe27e66fe266f02	-0.577929970156646
51	0xbfe6669f5ae8db5a	-0.7000271583154742
52	0x3fed89d2ed8191b1	0.9230742110053624
53	0xbfd6d51884f6f94f	-0.35675633416021396
54	0xbfe5d3d10045111e	-0.682106495406092
55	0x3fa7a8c795b84357	0.046209561373081236
56	0x3fd798162c3f2e54	0.36865763016678454
57	0x3fdb1cb432598528	0.4236269466110394
58	0x3ff0b2a2d979a9fd	1.043612336647697
59	0xbfdd78659a716ee7	-0.46047344286283337
60	0xbfd3731d919a6337	-0.30390109271097593
61	0xbf705e92f8772ca0	-0.003996442893775015
62	0xbfe19eb797bff583	-0.5506246532310545
63	0xbfc094ff8c40d17c	-0.12954706524181947

topology.conv_GAT.lin_r.weight f8 [64, 1]
0	0x3fb89b4ae0c9a3a9	0.09611957538585493
1	0x3fd251511e0e113d	0.28621318755201114
2	0x3f9e05cdf8cae271	0.029319017706003373
3	0x3fc995bdf85e179c	0.1998822653515021
4	0xbf8ee986d0b28833	-0.015093854183138777
5	0xbfc88542a68eacf9	-0.19156678326303458
6	0x3fbaaf138fde45f3	0.10423395407112661
7	0xbf996a4ad9761a1b	-0.024819535754000293
8	0xbfcc90e500b7d0c2	-0.2231718305116655
9	0x3fbaf4c0a00e8942	0.10529712588917042
10	0xbfd24e7870817c47	-0.2860394571961859
11	0xbfccdb93edffcb0c	-0.2254509842019491
12	0x3fc3f5fabf672566	0.1559441980919402
13	0x3fb49d9c5cd61c33	0.08052994982254873
14	0xbfc09fa28211db9c	-0.12987166739523281
15	0x3fc2199e2bcdd78a	0.1414067949187337
16	0xbfbffe92a376e596	-0.12497822275954315
17	0x3fc30ee9ef7b6f93	0.14889263337579148
18	0x3fd21828c0679a13	0.28272455968399973
19	0x3fc19a9931a2cad3	0.13753046916607178
20	0x3fc866f3df872401	0.1906418649143973
21	0xbfc7203dccdf1796	-0.18067142966736743
22	0xbf86fe73de3e2907	-0.011227517337620186
23	0xbfc51f48dbb6a16e	-0.16501723030274768
24	0xbfc545f2d2e77e21	-0.16619715974864938
25	0x3fcce08acca81409	0.2256024836825932
26	0x3fc78cfd80834074	0.1839901807311467
27	0x3fc53f9c4d7ad22c	0.1660037401503741
28	0x3fb16e6f26f99635	0.06809134198700735
29	0x3fc77a77074dd2db	0.18342483383789596
30	0xbf9fc8e1cfabe01a	-0.031039741802459365
31	0x3fa8f152123dad7d	0.0487161299959906
32	0x3fcc2e03b63e410d	0.2201542510852125
33	0xbf8b7949e1220633	-0.013414933379183846
34	0x3fd1c79fcaee301e	0.27780909364150996
35	0xbfc9ba97d54c9180	-0.2010068694591034
36	0xbfaae07173f3dee0	-0.05249361553609133
37	0x3fc0232ce926c672	0.1260734690127268
38	0xbfd0b0e830e206ee	-0.26079754613611683
39	0xbf8129f48577b309	-0.008380804370028654
40	0x3fcfc7a798f945f2	0.248280477232171
41	0x3fcd3d8e40dd4572	0.2284410301895537
42	0x3fcd87d9f8ab9988	0.23070835725884487
43	0xbfce0da0d9957763	-0.23479090332233019
44	0xbfc20615cec26e02	-0.14081070514372135
45	0x3fc4acbfaebd5b61	0.16152187378130647
46	0x3f95120d477d667c	0.02057667492713343
47	0xbfb6dd7e93163776	-0.08931723681436474
48	0xbfcd88330522a70a	-0.23071897269010605
49	0xbfb658b0ad116487	-0.08729080415050038
50	0xbf83acc66c20a130	-0.00960688607672519
51	0x3fbe6e57d8acbbe2	0.11887120284949007
52	0xbf7a8c9f50a3ba84	-0.006481764148914441
53	0xbfd0eb181f564995	-0.2643490129495601
54	0xbfc2c7291fccad64	-0.14670290043555234
55	0x3fbc0a8b6c1cc090	0.10953589810810826
56	0xbfd022548bd0ba60	-0.25209535268633054
57	0x3fb02c6ab2ab6bb5	0.06317774641085701
58	0xbfd184f551d42368	-0.2737401293857631
59	0xbfbabb2230734ad5	-0.1044179313933385
60	0xbfd2ab14c9e3062b	-0.29169196811207837
61	0xbfd0b397c5628f51	-0.2609614780033001
62	0xbfd2ff55ca47cc07	-0.2968344188113296
63	0x3faf1898fe8a96a1	0.06073454005426738

topology.conv_GAT.lin_r.bias f8 [64]
0	0xbfc5bc23d16f7486	-0.1698040745385791
1	0xbfc453421b029b30	-0.15879083937508076
2	0xbfe2c281ab4fe3cb	-0.5862434717120036
3	0x3fd6e2babf8c2ec9	0.35758846956080653
4	0x3fc2a41b6a1bce4b	0.14563315087399284
5	0x3fee4eb1750579c0	0.9471061025213245
6	0xbfe5a0a27cc19b23	-0.6758587299962965
7	0x3fc5de7b2e4ed1c3	0.17085208665015558
8	0x3fed7bf9d9b3d33e	0.9213837863922902
9	0xbfee5a6597cd7edd	-0.948534771432573
10	0xbfe5a4cdfbe7117f	-0.6763677520726076
11	0x3feb5da9da4aa3f1	0.8551835311419592
12	0x3fde2ee92d94727e	0.4716132111659944
13	0xbfd87637550aa46b	-0.38221534066048574
14	0x3fd05e7418ae16b6	0.2557649842277486
15	0xbfaa7b5189340ee6	-0.05172209548802957
16	0x3fe473b79dde92f2	0.6391256411921786
17	0x3fc0ea62f26f9055	0.13215290868459087
18	0x3fda45e26fd3f36a	0.4105154125280054
19	0x3fe0bf3411d78b77	0.5233402584529888
20	0xbfde90e294e9b39a	-0.47759308378481935
21	0x3fdc869c506788f4	0.44571597911830385
22	0x3fd230aec5d25733	0.2842213565685256
23	0x3fc89b901a0920ac	0.19224740287086683
24	0xbfeab34914b67b91	-0.8343854336306881
25	0xbfbd30209e71cf91	-0.11401561611438484
26	0x3febadc4ab1a5226	0.864961942849338
27	0x3fe09156f1b4edcd	0.5177416535220175
28	0x3fe6657035f5d7c0	0.6998826078331533
29	0xbfebc36cfe6cd568	-0.8676056832543226
30	0xbfdbf698750db8bf	-0.4369259970761838
31	0x3fe590571199e8a3	0.6738696426175647
32	0xbfeead5b6fe2471d	-0.9586617646438956
33	0xbfd4768694e7c0f0	-0.31973423520595556
34	0x3fedc335cae53f09	0.9300793612291908
35	0x3fe6443c7ba476dd	0.6958296217814809
36	0xbfeef77ff3c576fb	-0.9677123795661083
37	0xbfe06b3a118c418e	-0.5130892126781406
38	0x3fe56d06dc24c024	0.6695589351347775
39	0x3feac518b14cba5f	0.836559625900758
40	0x3fb48e693bab41eb	0.08029802042734217
41	0xbfe64221bf37f6b1	-0.6955727324236333
42	0xbfed7d841993eccf	-0.9215717792098078
43	0x3fee961aa09196ce	0.9558232437236371
44	0x3fe3fa2fe7d97ac0	0.6242904213248366
45	0xbfb9a3dc81761bbb	-0.10015657578161001
46	0xbfe52c4780aa5e3b	-0.6616551888464025
47	0xbfaa42a45bbc604a	-0.051289688299391914
48	0x3fcf11a9e1d459dd	0.242726550358113
49	0x3fd16aa742a9972f	0.27213460454946675
50	0xbfb8ca774c326b9c	-0.09683938608433923
51	0x3fe695ec61ecdaa1	0.7058011925317552
52	0x3fd6ebd25af8dbda	0.35814341434473607
53	0xbfbecadf3ad4eb51	-0.12028308092423613
54	0xbfc803a7df7dfc2a	-0.18761156475736246
55	0x3fbd0240cb9dcf40	0.11331562968353825
56	0x3fddd24199004f3c	0.4659580225136215
57	0xbfda0e31b14015f2	-0.4071163397751142
58	0x3fe4b1a9bc2b3ff2	0.646687381284208
59	0xbfc8e6e1b5f08f89	-0.19454594978116926
60	0xbfe0dd5d7d979a12	-0.5270221188519051
61	0xbfd87cababc55f29	-0.38260928892622076
62	0xbfb535bd79d4d6b3	-0.08285125946425857
63	0xbfa85a394bd595c3	-0.04756335306846495

topology.convs.0.eps f8 [1]
0	0x3fc8b8af8c40f90b	0.1931361613114365

topology.convs.0.nn.0.weight f8 [64, 64]
0	0xbfc016b87f8e8786	-0.12569338062627028
1	0x3fcea63c2b2e0d27	0.23944809063332537
2	0x3fd1ca077c2cef32	0.2779558861400232
3	0xbfb5c9ce61dc36e9	-0.08511056794324258
4	0xbfbf9a43e98c4bcb	-0.12344765140396345
5	0xbfa285a25027be13	-0.03617579678018159
6	0x3f83fbb49e4ead0a	0.009757433968693014
7	0xbfc9515d64bede3f	-0.1977955572053691
8	0xbfbfc81c99d7d67a	-0.12414721256194552
9	0xbfc1a8d9041d638d	-0.1379653234569357
10	0x3fbc6e4219e0e4c5	0.11105740672873583
11	0xbfc4402ee142bdc1	-0.15820871352251056
12	0xbfc2cd00e8dba2ef	-0.14688121194856005
13	0xbfb5af71f7783682	-0.08470833102929912
14	0xbfc71807c4843243	-0.1804208478501029
15	0xbfcd1dada90e0a9d	-0.2274682116950161
16	0x3fa97a88e26816af	0.04976299060585398
17	0xbfaad7d28327ebfc	-0.052427843580481664
18	0x3fbe2e822c3e0bff	0.11789716320167541
19	0x3fd12a19c8805834	0.2681946237584072
20	0x3fbce4c789046a36	0.1128658971323738
21	0xbfa42930d86c886d	-0.03937676088232043
22	0xbfd3a5e6495a4fcc	-0.3070007053695434
23	0x3fa2d2afe8c63bf6	0.0367636653564815
24	0x3fc8daeda777bc0a	0.19418116261610435
25	0x3fb78a13895da572	0.0919506273618447
26	0x3fbfe46c66711f3f	0.1245792150594953
27	0x3fb7f6d2a7d84a9a	0.09360996816421122
28	0x3fcfe6050143ec74	0.24920713960441143
29	0x3f8e283f83fd6de9	0.014725204673303476
30	0xbfad117c21ade8a9	-0.056774024115797524
31	0xbfccab5c7ad0fc50	-0.2239795303048333
32	0xbfba3c7448f3d8a9	-0.10248495846812723
33	0xbf71c0c00439f365	-0.004334211410989085
34	0x3fc997ba05e0d730	0.1999428299620205
35	0x3f81eb5f06f3eceb	0.008749716186221742
36	0x3fcc53828995888d	0.22129852025961264
37	0x3fa1eb35cf89337a	0.034997636398293744
38	0x3fc21622c947a779	0.1413005335628517
39	0x3fb93b5d6fd22cdc	0.09856208782200632
40	0x3fc52c4502b24857	0.1654135001340957
41	0x3fb6b1bc7a071877	0.08864953974907218
42	0x3fd5043fb2db4922	0.3283843275686583
43	0xbfc6f51eff48374d	-0.17935550179429996
44	0xbfb25e011639e059	-0.07174689095143218
45	0xbfbca42f311f486c	-0.11188025426170761
46	0x3fa028c67d6db4eb	0.03156109124288683
47	0xbfb636fa2e8b8669	-0.08677638660767574
48	0x3fc40df3b6f4d882	0.15667578156871192
49	0xbfb8b0869facde14	-0.09644357107469431
50	0xbfa87772102a7141	-0.047786297295916665
51	0xbfc954917d7549ca	-0.19789332033049184
52	0x3f6c789144234872	0.003475459788298934
53	0xbfcc8c3502704333	-0.22302878016537306
54	0xbfbe1ee8f9373bb0	-0.11765914997452742
55	0xbfa4cc5a7e24b5fc	-0.04062159337841462
56	0x3fbe1fba65040777	0.11767163244442523
57	0xbfb638346e18ffce	-0.0867951172631358
58	0x3fc0d2959b7cc6bf	0.13142652599485946
59	0xbfb41f29572e3ed3	-0.07860048654969924
60	0xbfcb06e114170bd3	-0.21114743691404544
61	0xbfcfb2cb87d42569	-0.24764389164219416
62	0x3fc0d2cbad5eae30	0.1314329716236542
63	0xbfa3f7db33355c18	-0.03900036811926827
64	0x3fc233765509ec19	0.1421955027797999
65	0x3fb0550715503664	0.06379741926522225
66	0xbfab2a25b9390305	-0.053055933819001345
67	0x3fa39ef05efd6530	0.038321982951581623
68	0x3fc70dd0598aedb7	0.18010906574441574
69	0x3fc5eca4b3c37862	0.17128428246991506
70	0xbf7d2ff344fb9f55	-0.0071258070672469325
71	0xbfa8c997e33a42ee	-0.048413034904234084
72	0x3fb59bf8aa8c5cc5	0.08441118396546006
73	0xbfc5e753a1a31eb5	-0.17112203018608843
74	0xbf950a9c733b4195	-0.02054829076115679
75	0xbfc7c874770f4d4b	-0.18580489934411512
76	0xbfc99ef719e55197	-0.20016373409692953
77	0x3fb22e173ef358fc	0.07101578986052809
78	0xbfc552013c612381	-0.16656508873191103
79	0x3f785ae891db3edc	0.00594607207831618
80	0x3fae9c1d1518f0ff	0.05978480227028803
81	0x3fbb812e6618e772	0.10743989937409795
82	0xbf9741796d4803a0	-0.022710702223779244
83	0x3fc519f3c5c9ffc7	0.16485449941319372
84	0xbf715b657d9036eb	-0.0042375530693001635
85	0xbfba8c5bb9b0f006	-0.10370419772601744
86	0xbfc170d7a16814d0	-0.13625617390804345
87	0xbfb8e048cc377905	-0.09717230783232729
88	0xbf8a9781b3aad826	-0.012984288497460094
89	0x3fb09a19f3e6fc3f	0.06485140041967073
90	0xbfc7f8eaf106dd63	-0.1872838665856121
91	0xbfb8a85680137146	-0.0963186323819559
92	0xbfa98715fc012a89	-0.0498587484476803
93	0xbfc4c5fdaea109be	-0.16229220415887186
94	0xbf9ac449de520121	-0.026139406389576018
95	0xbfc5c5f417c8e841	-0.17010356103293314
96	0x3fa12bca59a52dc9	0.03353721947004435
97	0x3f72d1d479cf82aa	0.004594640716249524
98	0xbf8e316fd2071763	-0.01474273071006466
99	0xbfbe3a398d30acfd	-0.11807594010376828
100	0xbfbd21f99a853751	-0.11379966757269001
101	0x3fafdf840c1bb09a	0.062252165296599674
102	0xbfb6c8cc88e7e190	-0.08900144903589635
103	0xbf93e0807ac3c03d	-0.019411094181976053
104	0xbfc9b7557257fe9d	-0.20090740283193478
105	0x3f943278ea014d3d	0.01972378662351314
106	0x3fc06c0e9acc56a4	0.1282976394510814
107	0x3f9ca3c2465bc91e	0.027968440574974378
108	0xbfb2ca84e6e16cf4	-0.07340269695980678
109	0xbfb6f01c7cd59be2	-0.0896013073703297
110	0x3f9aa3bd8054c611	0.026015244443618416
111	0xbfa4c0c791f477b3	-0.0405332914035478
112	0xbf864889a09ef413	-0.010880542005788063
113	0x3fbe29529825e494	0.1178180333571553
114	0x3fbaebb14f72c778	0.10515888394982464
115	0x3fc0b58d6b923d55	0.13054054024221765
116	0xbfc99c4c75913565	-0.20008235684000933
117	0x3fc570aa5b643ecc	0.16750077688674592
118	0x3fbc2599e7e4d123	0.10994874869794961
119	0xbfbc72df7ab54e19	-0.11112782235914444
120	0xbfc0bb1946b830a4	-0.13070980027294354
121	0xbfba080fcb29cb3a	-0.10168551168480358
122	0xbfc872e4d2ec416d	-0.1910062818428843
123	0x3fc650d435e31741	0.17434170371250882
124	0x3fb39750dff8f332	0.07652764766767176
125	0xbf81227658912956	-0.00836651284966609
126	0x3faef0a105c04022	0.06042960353090644
127	0x3fc5fcbdbb7038d5	0.17177554752601645
128	0xbfa49b627a61e621	-0.04024799102712629
129	0xbfca42d3f1396adf	-0.20516442564515722
130	0x3f8e76f0f7ac5132	0.014875299986251454
131	0x3fbd1e0746eb278a	0.11373944741640521
132	0x3fbd8515adce7173	0.1153119611103131
133	0xbfb9133bafa7cc33	-0.09794972456420296
134	0xbfc416a58c0bc689	-0.15694112146552566
135	0x3fcfbb8f8bd866ac	0.24791139915833094
136	0xbfa1fe6ac0d84ce4	-0.0351441727072144
137	0x3fd4656ae9d7d930	0.3186900409340465
138	0x3f8ab3205bd2c19d	0.013036968996261328
139	0x3fcf6f61a52b0dec	0.2455865913853893
140	0x3fa4a2991f101dd0	0.04030302528559171
141	0xbfba1bf885452337	-0.10198930028594765
142	0x3fc2f88c3848d687	0.14821007488506074
143	0x3fd9238f68c1a122	0.39279542188752903
144	0xbfa0d27eaf58d7af	-0.03285594835726557
145	0xbfa3c4bc48be582e	-0.038610347633195694
146	0x3fb683240b182c73	0.08793854971752228
147	0xbfc7f806aad6b927	-0.18725665418373547
148	0x3fae161516cf9b38	0.05876222518400315
149	0x3fc32d4fd65ba6da	0.14982030836772858
150	0x3fcbdb35fbb522db	0.21762728491218905
151	0x3f7df3d752bd6da0	0.007312623125325685
152	0xbf48a09a19845fa6	-0.0007515671195816767
153	0xbfc374c683272561	-0.15200120357466587
154	0x3fc543eaeb8df517	0.16613518239675137
155	0xbfc3919121de5496	-0.152879849946349
156	0xbfc67180179f16fd	-0.17533875611677976
157	0x3fcb14e413141c7f	0.2115750401646643
158	0x3fb1c9b334ffb2b9	0.06948394817272686
159	0x3fd557a0cc5faa1c	0.33347339590423686
160	0xbfb90be485031229	-0.0978377175079649
161	0xbfb13b4348aac0fa	-0.06731052898499348
162	0x3fbf908b5cc80ae2	0.1232993222729806
163	0x3fb32a692b3163cd	0.0748658876849639
164	0x3fc3dd62e8a3cad1	0.155193675607356
165	0x3fc361491194c54a	0.15140641554311635
166	0xbfc901287fe4eaa2	-0.19534784550508727
167	0x3fbf83fe1ae59492	0.1231077972093593
168	0x3fb914076840aeec	0.09796186728697948
169	0xbfd44969b362aa96	-0.3169807674227426
170	0xbfb6d4bcf32c48ee	-0.08918362557259105
171	0x3fd448e84ac696ce	0.31694991400068495
172	0xbf73a35b3cc458bf	-0.004794460674267308
173	0x3fb46061a65a7eb1	0.07959566413273468
174	0x3fbf61cd841969eb	0.12258610224800008
175	0x3fc8af7eaeab7a8b	0.1928556778793403
176	0x3fc11cf5c9ae571a	0.13369629237848174
177	0xbfbce357a6f7366a	-0.11284396959600831
178	0xbf93b9e9b98f86ca	-0.019263889265750213
179	0x3fa4e3aef4099e5e	0.04079958657240178
180	0x3f63616604d98ad7	0.0023657791669376804
181	0x3f97170d8d4f6649	0.02254887747753845
182	0xbfad7afc880b9b48	-0.05757893715581602
183	0x3fd32b867048cf0f	0.2995315643813549
184	0x3faed2dc336a00fe	0.06020248534787419
185	0x3fc1fa5044a7e0d9	0.14045146324475047
186	0xbfb25b9a28819c1d	-0.0717102383510881
187	0x3fb0891ac9ed5944	0.06459205083715341
188	0xbfbbf1c0dcd5f555	-0.10915761367319494
189	0x3fc11853c3af64ea	0.13355490736902392
190	0xbfd81a5cce3b9233	-0.3766090406409461
191	0xbf95b45f62b2ab50	-0.021195879363101355
192	0x3fca6d7496a40135	0.20646531444072883
193	0xbfb8ee9293c1d718	-0.09739032847741347
194	0xbfc7a8ec34da29dd	-0.18484261112855807
195	0xbfc4234dc88befdb	-0.15732738773647167
196	0x3fb143a6a75494e9	0.0674385221978643
197	0x3f9175b2da52ba5f	0.01705054719485088
198	0x3fbdbc2beef8f30f	0.11615252098358674
199	0xbfa29c8b16d8a6b1	-0.0363505807293455
200	0x3fb85223f0b402f0	0.0950033629087661
201	0x3f7a9534e555c15e	0.006489950775503265
202	0xbfc4c115ed33f8ac	-0.16214250642946604
203	0xbfbf3bd136c0b639	-0.12200648867357068
204	0x3f30d119b9d6b9f3	0.0002566039855435291
205	0x3fc8559ef231d321	0.1901129419890362
206	0x3f96347d928ee0a7	0.021684610433766818
207	0xbfc39555868a23a0	-0.15299481458012298
208	0x3fc36e3a2300411e	0.1518013640311517
209	0x3fb67bd04d81df30	0.08782674686687808
210	0xbfc40aafc8ff92dd	-0.15657613100406467
211	0x3fb7fb597007c1c5	0.09367903695215947
212	0xbfb18a92555c0313	-0.06852068504305135
213	0xbfb3df523f301d5c	-0.07762636225389968
214	0x3fab9e1fe425c0a8	0.05394076976779277
215	0xbfa2759ec72d6c19	-0.0360536211143982
216	0xbfca7a4fa4b92a78	-0.20685763877039043
217	0x3fa3c7cdff2e87bb	0.03863376369487478
218	0xbfaa5c489c44100b	-0.05148531825582844
219	0xbfadc58ba23ce04d	-0.058147777132433555
220	0xbfcc33ebefacc7a9	-0.22033452227475195
221	0xbfb6c8102218a8a5	-0.08899021942548531
222	0xbf976b57eed4f12e	-0.022870420410286467
223	0x3fa4ecdaff9d45fd	0.04086956377308224
224	0x3fb71104a11e66ad	0.09010342534602485
225	0xbfce46504ea7a926	-0.23652080383846757
226	0xbf9242eed3027aab	-0.017833453778275537
227	0xbfc732da2a169627	-0.1812393861302308
228	0xbf9954318c0b5df1	-0.024735235378868074
229	0x3fcb9a0b4f50304d	0.2156385552665391
230	0xbfb3a485823d0cb0	-0.07672914914751305
231	0xbfa68276279ff6a3	-0.04396409257604474
232	0xbfc36d7307d9f56b	-0.15177762874001685
233	0xbfb39e11608bd039	-0.07663067442973749
234	0x3f97e82a468c326b	0.0233465772208085
235	0xbfc2a41d6f1b7723	-0.1456333916202591
236	0xbfc9a6f34ac2fdb4	-0.20040742063973271
237	0xbfc8b254750a6432	-0.1929421969878447
238	0xbf96d473b54d3229	-0.022294815006988742
239	0x3f8f559c08151f29	0.015300005909594088
240	0xbfbe60b63f6bad8c	-0.11866320656161217
241	0x3fcd7fbc635e6632	0.23046069004048914
242	0x3fb56ddb2661996d	0.08370752036134883
243	0x3fca1e8d7fde03ae	0.20405739539640194
244	0xbf9fca6be39167c5	-0.031045614018104368
245	0x3f9bdcbf12254386	0.02720926807643622
246	0x3facb4a0baf4c6b0	0.056065581151768185
247	0xbfbb2aa7f11c2034	-0.10611962925406787
248	0xbfae654dc3aa3d46	-0.05936663640488375
249	0xbfc144ceca6398b1	-0.13491234667089239
250	0x3f753256f8f90a08	0.0051749608388171955
251	0x3f9c8acb8115e2b5	0.027873210672143062
252	0x3fc10a8806ddd006	0.13313389144207138
253	0x3fc929730aa89ba3	0.1965774347347323
254	0x3fb05f199bdea5fd	0.06395111136830418
255	0x3fc4965434c169bc	0.16083767486527545

topology.convs.0.nn.0.bias f8 [64]
0	0xbfb0a48647de936d	-0.06501044516205719
1	0x3fb57acb562ac6a9	0.08390494207085432
2	0x3f9d88b47625e863	0.028841800414263107
3	0x3f941eb0eed0bd8c	0.01964832742322424
4	0x3faebd617cad2319	0.0600386109059114
5	0xbfabd5767f878290	-0.05436296755556669
6	0xbfa3e63da5524219	-0.03886597292978795
7	0x3f99bc9605041a3e	0.025133461052087684
8	0xbfb2a39ec87b55de	-0.07280914682936365
9	0x3fb0a8ffa74a275b	0.06507871469707764
10	0x3fad4b5e4d3306e5	0.057215639995332336
11	0x3fbe8531cb534605	0.11921988691326398
12	0xbfb1c6ab116dd6f8	-0.06943768668665118
13	0x3fb9847382de0634	0.0996772951603127
14	0x3fa04fee990b332e	0.031859832937334395
15	0xbf7414c1bab3704f	-0.00490260768421187
16	0xbfb24d6212af57aa	-0.07149327236342509
17	0x3fbab395b5d614ed	0.10430274667131174
18	0x3f9e80de6118190c	0.029788469959407357
19	0xbfbe106829f80218	-0.11743784927967515
20	0xbfb566b0b2688ab2	-0.08359817844079023
21	0xbfb05d32bf4c7b16	-0.0639220921552631
22	0xbfbc3554514c6139	-0.11018874153922277
23	0xbfbdd536128db794	-0.11653459504097291
24	0xbf9d77b7598e076a	-0.028776993599883317
25	0x3f9f9ef165338b38	0.030879756738509928
26	0xbfbf6d53d70a4c66	-0.12276195526128361
27	0x3fb0941c7c584aa0	0.06475999866260418
28	0x3fb80a0bc9e60564	0.09390329054987984
29	0x3fbee18c00dcd1af	0.12062907239016483
30	0xbfb7a29fb56cf85f	-0.09232519320809861
31	0x3fb71fec22907825	0.09033084720474045
32	0xbf91b5305f6f9c11	-0.01729274351592031
33	0x3f9f2389d96f815d	0.030409006019796226
34	0xbfa19e0af362a3a2	-0.03440889569294049
35	0xbfa0840ae2f77f8d	-0.03225740452376078
36	0xbfa6732a29f3d4fb	-0.043847386952544164
37	0xbfa2da570ff1108e	-0.036822052665713575
38	0x3fbbdbc172d3d15f	0.10882195523646974
39	0x3f9ba68c28407df6	0.027002515751631116
40	0x3f9d9e297770fb87	0.0289236525679786
41	0x3fab233c2ea59ae7	0.05300319737835029
42	0xbf90c530392b9654	-0.016377213944812688
43	0xbfb0c7766590e26a	-0.06554355601918763
44	0x3fbaa34e6a1b35a1	0.10405435648427509
45	0x3fb74c5a02d6a744	0.09100878304766719
46	0xbf6219f9ca19c276	-0.002209651823072807
47	0xbf9424e57e6919b1	-0.01967199882553822
48	0x3fba87fc161c0386	0.10363746204167343
49	0xbfb26ba531c11746	-0.07195503678039214
50	0x3fb4a77c05a45470	0.08068061006299998
51	0x3fb053112e32c830	0.06376750352754423
52	0xbf63ce12bc9e358b	-0.002417599292079136
53	0xbf9e8c1b30556ad1	-0.029831337761929092
54	0x3fb87b757ca68044	0.09563383382055785
55	0x3f65b667d9d118fd	0.0026504543625690533
56	0x3fbe61f077c84f22	0.11868193554283527
57	0x3fa2f20d9bbea09f	0.03700296903781574
58	0xbfa4ae455dd91684	-0.04039208193402735
59	0x3fbd9b57ddeb8bf3	0.11565159957858366
60	0xbfb8ef38a2d550fd	-0.0974002263586193
61	0x3fb66281cbff55ba	0.0874405978241474
62	0xbfab61f3b61870a9	-0.053481689432574094
63	0xbfbf04d664ed8e3e	-0.12116756404935189

topology.convs.0.nn.1.weight f8 [64]
0	0x3ff1d02e412cad61	1.1133253618125638
1	0x3fee12b4884ec3be	0.9397833502063049
2	0x3ff1d1bcc2c066ac	1.1137054069026062
3	0x3fece3d138210513	0.9028097244519436
4	0x3feb2369eec36719	0.8480729735703988
5	0x3fefaebab774d5a6	0.9900792678005714
6	0x3ff170266be3f427	1.0898803915472486
7	0x3febf91de1e94e8c	0.874159756882777
8	0x3ff07901114fdea2	1.029542033791508
9	0x3fec4757d121b318	0.8837088665582966
10	0x3ff1a97611722c0a	1.1038723641856927
11	0x3fec377c117ab8dc	0.8817730275530056
12	0x3febee6a4c0e4f3e	0.8728534207789165
13	0x3ff21635ada57415	1.1304222853716557
14	0x3ff2b09248b32612	1.1681082572780537
15	0x3ff2a1bb0e08ed4b	1.164485030006136
16	0x3feaddcefb9c5da5	0.8395762361787332
17	0x3fef83a5d8e6c398	0.9848202930789851
18	0x3febd1fe261b88a3	0.8693838829315336
19	0x3ff0105b22f97058	1.003993164652476
20	0x3fef6878a90e1fda	0.9815028478487833
21	0x3ff004f7d14e4c53	1.0012128997812126
22	0x3ff2306b9b12fff3	1.1368213708483352
23	0x3ff057e08a99a191	1.0214543737475632
24	0x3ff1d9398247ce1a	1.1155333603936755
25	0x3fef96986b04d31f	0.9871332254611821
26	0x3ff142a843c7ca99	1.0787737510369537
27	0x3ff1c3f50d2c544c	1.1103411211563694
28	0x3feebf3307264a3d	0.9608397616996808
29	0x3ff06c37d13a792f	1.0264204190239743
30	0x3fe7f088063e7723	0.748111736483882
31	0x3ff03770aa806e3e	1.0135351810667
32	0x3fee1922d02d2352	0.9405683580344919
33	0x3febfcd45fecc760	0.8746129869016208
34	0x3ff01e4999d8263f	1.007394410089901
35	0x3ff190710f17e574	1.0977640714248453
36	0x3fef9da908711120	0.9879956402660675
37	0x3fed2cafc3dd6122	0.911704905079237
38	0x3fef47794de2a86b	0.9774748345564722
39	0x3ff023005272fe79	1.008545229022188
40	0x3feeb3d54ddad04a	0.9594522972679524
41	0x3ff1eab00b2603aa	1.1197967944610618
42	0x3ff1ef4ead84db4e	1.1209246423802202
43	0x3feb27075899d253	0.8485142450795798
44	0x3ff07e79fab3d7e8	1.0308780472819254
45	0x3ff2d6a3ad338d6c	1.1774021878889824
46	0x3ff0e5cd2b89bb90	1.0561038685516202
47	0x3fee45e948bfd1ae	0.9460340901264794
48	0x3ff09d2ae58abe7b	1.0383709875567593
49	0x3ff0fd063208ae0b	1.0617734865617219
50	0x3fecf8f9f998085c	0.9053926348572179
51	0x3ff27b88b0226720	1.1551596527337509
52	0x3fef516b711ccd4d	0.9786889275768914
53	0x3fea794c3d3286ac	0.827306861425503
54	0x3feedd12c8dca046	0.9644864962656434
55	0x3fef044625d36d0f	0.9692717303072714
56	0x3fee15114d923a99	0.9400717272818212
57	0x3ff015677479f52c	1.0052256154879826
58	0x3ff1285e2ac0398d	1.0723554296451738
59	0x3ff12e8aae5738a6	1.0738627252754127
60	0x3ff12e12dbaaa3ea	1.0737484532094137
61	0x3feb741b98782af8	0.8579233148496703
62	0x3fec55fd5575108e	0.8854967755401206
63	0x3ff16f5f4e7ff865	1.0896905008699147

topology.convs.0.nn.1.bias f8 [64]
0	0x3fcd0c888e1df159	0.22694498957924727
1	0xbfa217dba1c0fc77	-0.03533827161344843
2	0x3fb269c08bb38676	0.0719261494700961
3	0xbfb86de3ddbde84c	-0.09542678989046854
4	0xbfc1d78dd1a270ce	-0.13939068542538852
5	0xbfb6fd62b8c3c72c	-0.08980385790689799
6	0x3fb7459ea9af64b9	0.0909060634870852
7	0xbf9a7a59360fbcf0	-0.025857347416544607
8	0xbf65ce48c5d8abe3	-0.002661840567062411
9	0xbfc167df444f4fea	-0.13598242602768035
10	0x3fb5e16157884237	0.08547027956979823
11	0xbfbb41e64ce3d231	-0.1064742982596918
12	0xbfc32dd35195ed76	-0.14983598216700117
13	0x3fc582fb397d3abe	0.1680597334584117
14	0x3fc20894e102c32b	0.1408868883786679
15	0x3fb21995fffb3310	0.07070291041891275
16	0xbfc93cec06dd6452	-0.19717169127651119
17	0xbfaa19136d3e6cd8	-0.050972563825064376
18	0xbfc229d9823ef0e1	-0.14190214976941376
19	0xbf990320f2bac2a3	-0.024425997557673395
20	0xbfaf261da8f74ed5	-0.06083767592977344
21	0xbfb9034ea001f5da	-0.0977067127841659
22	0x3fa2f170feb9d104	0.03699830159612996
23	0xbf8f4afbde69a7b2	-0.015279739117619904
24	0x3fb2e4ca25f3210a	0.07380355288035303
25	0x3fa134233683f53e	0.03360090294334349
26	0x3f9e528a1f893c62	0.029611738371667314
27	0x3fafef948e5eb6b0	0.0623747276107286
28	0xbfb0d0dc1b6aa515	-0.06568694753027089
29	0x3facac291b472774	0.05600098093016373
30	0xbfb857f7bcad3575	-0.09509228092539053
31	0xbfa788e7577ac9d3	-0.045966367176692245
32	0xbfb0157543e6244c	-0.06282742412271708
33	0xbfc2b14063627262	-0.1460342870021974
34	0x3fa56201d25f9ad1	0.04176335995707848
35	0x3fb1a14568afcbf2	0.06886705213382507
36	0xbfa5ca3a97ad1d5e	-0.04255850888744804
37	0xbfc00fa856ac4ce9	-0.1254778311928029
38	0x3fa8c399445073c8	0.04836729964174641
39	0xbfac9ef57d0a7c80	-0.055900260461606344
40	0xbfb5ad2cfdb12ee0	-0.08467370217948256
41	0x3fb390b68942de8f	0.07642689562896464
42	0x3fc0c37b0d4fee6c	0.13096559667598073
43	0xbfc42669fe4aecb3	-0.15742230335840687
44	0xbf67cbe9f4431f2d	-0.002904850904176379
45	0x3fcb5902e844e676	0.21365391103045156
46	0x3f9c2d035c4e7ac1	0.027515461453385685
47	0xbfa54789675680f9	-0.041561406960001386
48	0x3fa9d68cc56fd3c8	0.05046501073949333
49	0x3fa762432bfe22c6	0.04567155754108891
50	0xbfbcd275e9137750	-0.11258637371380797
51	0x3fb780df5c6279ae	0.0918101883457669
52	0x3f98e11d11f710d3	0.024296240064146723
53	0xbfbe8f63a57cc125	-0.11937544622629
54	0xbfb4a0f558a4af2b	-0.08058103002684606
55	0x3fa00893f854cec9	0.031315445007206906
56	0xbfb71b101e695294	-0.09025669805971354
57	0x3f52e327e5677342	0.0011527909861037276
58	0x3fb8759603763d4e	0.09554421982305891
59	0x3fa342f5dbda99aa	0.03762024220241085
60	0x3faa6a7274b2caa0	0.05159337687054699
61	0xbfc47f8ea860d5ef	-0.16014273854823055
62	0xbf8f1b13aa88fcfe	-0.015188363687342218
63	0x3fbbdb0c47f940a5	0.10881115681809435

topology.convs.0.nn.1.running_mean f8 [64]
0	0x3ffb4285bbcd2860	1.7037408195488055
1	0xbff8d44a243f486b	-1.551828519430752
2	0x3fed47f6b3ebb4e4	0.9150346292568909
3	0xbffedb78e878a212	-1.9285821038157605
4	0x3ffe44f52ad30f14	1.8918353722410233
5	0xc00084ce85d71fd6	-2.0648470360065216
6	0x3fec8720c5e8e456	0.8914951196121688
7	0x3ff88b15b3357aab	1.5339562416408323
8	0x400446866b9b4c83	2.534436073948713
9	0x3ff8c30247e74de5	1.5476095970851642
10	0x3fee6e85c4bf15bc	0.9509915201858159
11	0xbff58a1244f940a7	-1.3462088293345376
12	0xbfef46e017f7cc07	-0.9774017780422363
13	0xbfe630ca7e4e6cf3	-0.693455931369867
14	0x3ff9e956e4aee99c	1.6194676335277114
15	0xbfff08e071a9b292	-1.939667171474103
16	0xbffbad450daea027	-1.7298021826227428
17	0x3ffc37f7dff5b10a	1.7636641262461716
18	0xbff8f39c28a535f3	-1.559475096484104
19	0x3ff68b3efa7d0ccd	1.4089956078249088
20	0x3fee4fd09bb76743	0.9472430268608395
21	0xbff9c2b74dc7e730	-1.610038093406228
22	0xbffefef8ec175591	-1.9372491094885371
23	0x3ff4309f632c1170	1.2618707536613236
24	0x3fea702a14142faa	0.8261919395604214
25	0x3ff6943d490f7b36	1.411191258804775
26	0x3ff0b7a22de2ccd4	1.0448324005526972
27	0xbfff7aeae4ac0503	-1.9675091679094414
28	0x3ffb76436e66c512	1.7163729012066296
29	0x3ff74f4fa2395ec2	1.45686305397787
30	0xbff57255c48b586c	-1.3404138257515354
31	0x3ffb41ebc2d9880e	1.7035939799611728
32	0xbfef1ec62b0c1c84	-0.9725066033141876
33	0xbffcabb74902e075	-1.7919228412629569
34	0xbfb51431153e59b5	-0.08233935135499489
35	0x400131c5a0fbb6a1	2.1493027283493835
36	0xbff83ce9df0d7ffd	-1.5148714745519094
37	0xc00018f6eee8a5b4	-2.012189737772781
38	0xbff7db7047fd0ef6	-1.4910738765765337
39	0xbff84b5235badd3a	-1.5183889483285626
40	0x3ff67e5ebc5ac429	1.405852065811141
41	0x3fe6ab55547be655	0.708414711959629
42	0xbff9c0937ed6f448	-1.609515662639085
43	0x40041f34523de8d4	2.5152365136283183
44	0xbffd757ca73324f1	-1.8411833316079618
45	0xbfe0eda7d64f2d4f	-0.5290106950500703
46	0xbffefaae348f1132	-1.9362012913780515
47	0xbff426b0b69019b0	-1.2594458705294578
48	0xbff2121c49744979	-1.1294215077692498
49	0x3ff6280ad674474f	1.3847759606473635
50	0xbff9eef3b355f8ba	-1.6208378796869014
51	0x3fd0d3a78d78d8c4	0.26291836562758086
52	0xbfd4a7e7a9f12fee	-0.3227481040564716
53	0x3ff89664f6ae6dcd	1.5367173801413287
54	0xc00216dfdcffa397	-2.2611691728129233
55	0x3ffb662412bf14e9	1.7124367458612204
56	0x3ff434810810b15a	1.2628183665320507
57	0x3ffc96228a3746f1	1.786654033571207
58	0x3ff7c7a47d55ddec	1.4862408538737055
59	0x3ffcccc07e9d695f	1.799988264645968
60	0x3ffb169b20979437	1.6930190346840968
61	0xbff5e7e311bcc454	-1.3691130345216793
62	0x3ff8f9eff5117347	1.5610198567366795
63	0xbfff566267af172f	-1.9585899400858116

topology.convs.0.nn.1.running_var f8 [64]
0	0x3fe22fd044022891	0.5683366134919813
1	0x3fed181adcdd1e10	0.9091924966568872
2	0x3fe49a5274e70747	0.643838146519763
3	0x3ff31dbb30f73ca3	1.1947585976338722
4	0x3feb62dea4e3bbf6	0.8558190556049101
5	0x3ff14b2caf9ae526	1.0808531627247446
6	0x3fdf3c92b3dc3aab	0.48807208599547874
7	0x3fe25023d6d50c32	0.5722827144567246
8	0x4004e880314c6fa3	2.613525757928032
9	0x3fe5eb630092ceb3	0.6849837313843267
10	0x3fe02e027f8e2828	0.5056164256395776
11	0x3fea46fc955b2e8e	0.8211653630364297
12	0x3fdb97ebd7ba9567	0.4311475378729796
13	0x3fe37a0215670f7c	0.6086435716647283
14	0x3fee8f6b311763a9	0.9550071677032196
15	0x3fed0199c032602f	0.9064453843921053
16	0x3fec73af0fccad2f	0.8891215618690803
17	0x3fed9ef206543faa	0.9256525157561459
18	0x3fee106a02b2fb4e	0.9395036747663228
19	0x3fedfa45daed1373	0.9368008876705133
20	0x3fe075abba6b0132	0.5143641129471119
21	0x3fd5599aadba3ee6	0.33359400716379495
22	0x3fea27a1aa625d6a	0.8173378303353449
23	0x3fe9059dea95c26f	0.7819356519449466
24	0x3fde4298f43ba17a	0.4728147873961671
25	0x3fea2aedb58f71bd	0.8177403017139607
26	0x3fe99acc2f57a880	0.8001461910873928
27	0x3fede6bbd3dd2138	0.9344157350506412
28	0x3feccdaccf440763	0.9001068161162319
29	0x3fe967f704e70042	0.7939410300969103
30	0x3fe5590819d266a2	0.6671181206067625
31	0x3fecc2b34ae79961	0.8987671339971649
32	0x3fe8dfd49c8da21e	0.7773230607682
33	0x3feeed716fac96cc	0.9664847546707391
34	0x3fbf18b4bb69cbbb	0.12147073340911067
35	0x4001c6729fb83297	2.2218983152473117
36	0x3fd72950f403bc87	0.3618967421488794
37	0x3ff4c6ee4850c285	1.2985670876334166
38	0x3fef59ef3c72bdb1	0.97972833448687
39	0x3fec20ddd52178f5	0.8790120279989241
40	0x3fe79beff8ad561e	0.7377853257154958
41	0x3fdf3277bcb37b60	0.4874553053650086
42	0x3fede175c26d4488	0.9337719724081959
43	0x4000094f918b5a6e	2.004546296181892
44	0x3ff0c130f096acc8	1.047165813254468
45	0x3fda11fb35315dd6	0.4073474902592954
46	0x3fe4e20353170c65	0.6525894759037213
47	0x3ff036fc71142a15	1.0134243409289685
48	0x3fea333d8cc1e4fa	0.818754935185239
49	0x3fef5dc099d85b2e	0.9801943783557812
50	0x3fed3f7a2ae09289	0.9139986836858763
51	0x3fc5017d8238632c	0.16410797937785426
52	0x3fcfc17d27bfa6ad	0.24809231224872033
53	0x3fe9e3bd355d8e76	0.8090501825613063
54	0x3ffdfa5a0924ba79	1.873621021000558
55	0x3ff037edaa8c5b28	1.0136543905297888
56	0x3fe16efc12c6a680	0.5447979323118517
57	0x3feee342e42c59e6	0.9652418571957326
58	0x3fee7da472e5051f	0.9528372043643322
59	0x3ff6974a9544b27a	1.411936362342344
60	0x3ff3ae2f2b923d26	1.2300254537584094
61	0x3fed02761e821395	0.9065504642354535
62	0x3fea12a17f3319ad	0.8147742733352082
63	0x3febdf38711f2dca	0.8709985932741173
