src/models/mentor/results/3-channels/synthetic/position-topology/model_weights/7.ckpt (torch, 585687 bytes, 112 tensors)

topology.conv_GAT.att f8 [1, 1, 64]
00000000: 0d76 90bc d609 b6bf 7f3f a226 a5c8 cd3f
00000010: 8ce4 3121 f6e8 c43f 1bd6 c7e4 cc64 be3f
00000020: 7ba1 1012 b83e b8bf 7e95 b05c 30cb c53f
00000030: 2c42 5dd9 4cc0 d2bf ce05 7c91 5bbb ccbf
00000040: acc6 4084 ee4c d3bf 82e4 e805 f3d7 ca3f
00000050: 1dff 25ba 8bf7 c63f 25d8 2cf2 996f d03f
00000060: 37ac 9202 6f1b d13f 52b7 014b f9f7 ce3f
00000070: 5132 47ed 95db b2bf 5900 0ea4 549f cabf
00000080: 9a07 6bdc e62a cb3f 55fa 761f 4cec c7bf
00000090: 108e 8b34 56b8 c0bf d64b 3487 4305 a13f
000000a0: a0cb ba15 eda8 7dbf 33f4 cbc9 3540 c83f
000000b0: 5018 1430 0a2f c13f 516b 8a7a 6834 b2bf
000000c0: c1ae 0d4b 2a87 9d3f ddec 0593 a292 80bf
000000d0: ba13 4edf ffbb 99bf 4cf1 7e42 8912 bfbf
000000e0: 1adf 9991 c757 7e3f ed99 ffea 0273 c5bf
000000f0: aad3 2689 defc d13f d329 4f5b 80e9 d13f
00000100: 2136 af74 0916 cc3f 4eb2 c9e5 9566 ce3f
00000110: d116 2bcc d3c4 d03f bdad a8c0 d4da b7bf
00000120: 7e2f b815 9871 c23f 1bfc 340b 0ed6 d23f
00000130: 3ef0 41ea ed2a babf 7128 7d9b cd27 cb3f
00000140: 256f 033a f98e d13f 7ca3 c5d4 1ae9 ba3f
00000150: c3a1 bae0 9a4a c13f 0f84 040d 7a3d d3bf
00000160: 3906 e1b2 597a a1bf 7c3e 30cf af60 c13f
00000170: 6374 5cb1 c811 c4bf 6c27 4605 12ad aabf
00000180: 449b 603e ed9d c5bf 2521 cab2 18ab bcbf
00000190: 0d91 0f1c b082 c1bf b75d 27d1 d00e c0bf
000001a0: 1b5b 43d2 21d6 c9bf 96db 01f4 f192 bb3f
000001b0: b65a 5d0d 140a bfbf ae11 11d7 9bf5 c23f
000001c0: 4451 4d63 8625 ce3f e50f faaa fa07 d3bf
000001d0: f979 5cb1 72f8 d2bf a079 5f4b 0bff a0bf
000001e0: 4f7d 97b6 1f9b d23f 3b52 e657 b301 d0bf
000001f0: 8ff8 e615 2036 c0bf 5af7 e2c6 17bf c23f
-0.08608762839909208 0.23268570314803225 0.16335941906780638 0.11872559152092103 -0.09470701638259087 0.1702633335673162 -0.2929870722482828 -0.2244677029012067
-0.30157053866705996 0.20971524990617146 0.1794294985702373 0.25681160592955826 0.26729941607726765 0.24194255983769125 -0.07366311114237446 -0.2079873848961167
0.21224675905801577 -0.18689872299542523 -0.13062551084213725 0.033243284468106246 -0.007241178620165295 0.18945953706125493 0.13424804065306484 -0.0711121844455367
0.028835926848315156 -0.008092184173384026 -0.025131223682837357 -0.1213765895217353 0.007407931867071027 -0.16757236933263134 0.2810589160320044 0.279876794022724
0.21942251393777304 0.23750566215621166 0.262013387091753 -0.09318284705721332 0.14409161625405525 0.2943148717349133 -0.10221754998377805 0.21215219585639347
0.274351412442899 0.10511939711217438 0.1350892636594506 -0.30062724372152244 -0.0341365843637615 0.13576314560531333 -0.156792723276257 -0.05210167230968818
-0.16888204141397456 -0.11198572506885236 -0.13680077905804247 -0.12545213902079208 -0.20184729353669514 0.10771095473488254 -0.12124753309522415 0.14812038422873058
0.23552017067653186 -0.29736200997308365 -0.29641406364854067 -0.0331958322055812 0.29071801024652627 -0.25010379394487686 -0.12665177411503634 0.1464566918493187

topology.conv_GAT.bias f8 [64]
00000000: 1b7b c5b9 46f1 a5bf 8ff7 8706 efa4 b03f
00000010: 7353 5534 af3e b13f 5a13 74fb 2d4c b43f
00000020: c64e 41c2 5968 953f 945f 2865 ff9d 993f
00000030: 0655 8ac0 b305 9b3f 568d fdd9 3e85 85bf
00000040: 7ef9 cbc0 f4bd bc3f 5176 0f65 1dfb a8bf
00000050: c362 7d42 2c62 8dbf 52c3 aa34 4784 b9bf
00000060: 37ce c78b 0c85 983f f316 5bd0 69a6 aebf
00000070: 70fe 8031 77b9 a23f 2b29 9a33 488a a1bf
00000080: c89a ccbf 797d b03f 6215 a6bb f2fc a5bf
00000090: 4877 1920 7a83 b0bf 6b94 c5ba 1992 b0bf
000000a0: a923 7c32 e54f 853f 13c9 e8ec ec34 93bf
000000b0: 877e 0be7 6c30 a7bf 8451 3909 c13b 8ebf
000000c0: 73fa 0099 1dc4 a9bf 4cac a71c 996d a8bf
000000d0: c2fa ec6a f2db a23f af72 345f 9fd2 b03f
000000e0: a759 4095 b73a 923f 3a76 ffb4 c140 a0bf
000000f0: 2e5a 6781 c5d6 643f d937 9026 2057 9fbf
00000100: 7db8 c64c b7b9 a73f a98c 4498 43e6 4dbf
00000110: 6c1a cf4f 4628 993f d365 3f12 1386 97bf
00000120: 6a33 3a8a 8dc6 7abf 470f da96 3dbf acbf
00000130: fb99 6d05 ff5b 9f3f 39ab d6b3 46b6 88bf
00000140: 88c9 775a 109e a33f 771f d0df 1910 b43f
00000150: c225 f987 1a9d 9cbf 6cd0 36be adff 933f
00000160: f4ac 6464 4ba1 97bf 9873 a4da e5d5 b1bf
00000170: 4c4a a851 1875 a23f bfbe 9cbf 948b 913f
00000180: 900e a111 e88e b2bf cfb1 17de 16a7 59bf
00000190: b344 d73a d515 a5bf 80eb 97a8 f5d1 94bf
000001a0: 8b81 7487 c383 b8bf 4157 7b95 6186 a6bf
000001b0: 3a0f 5721 9508 883f 1146 e258 140f ad3f
000001c0: 96d8 9397 48e5 b5bf 775f 399f cbe3 acbf
000001d0: 2de0 d2b7 0b06 a03f 4d2a 141d e790 933f
000001e0: f8b6 e00c 6696 74bf f866 56e7 f326 acbf
000001f0: ef87 5f61 af43 9f3f 261a f1b8 e089 a7bf
-0.042856416871236834 0.06501668843699647 0.06736273791950768 0.07928740872382659 0.020905878526106723 0.025016775654961146 0.026388939501505802 -0.010508051898517817
0.11227349955513508 -0.04879085405967188 -0.014347406176669414 -0.09967465434853054 0.023945041686557835 -0.05986338299184792 0.03657124022765579 -0.03425813321981005
0.06441460545157007 -0.04294546642908405 -0.06450618060759183 -0.06472931680544185 0.01040629444425341 -0.018756582221791506 -0.04529133148548419 -0.014762409299841968
-0.05032436840746337 -0.04771116709510945 0.036834312012151496 0.0657138450082566 0.017802113041477743 -0.03174405416914934 0.0025438172844858475 -0.030605795243950105
0.04633877575121035 -0.0009124593785013918 0.0245676981174036 -0.02297239111780931 -0.006537011042053157 -0.056146549858594734 0.030624375063235103 -0.012066414225804333
0.038315306704947594 0.0783706828516396 -0.02794305281557797 0.01953002427553978 -0.023076227190512236 -0.06967007244061418 0.036049613922064155 0.01713402194508151
-0.07249308042906422 -0.0015657161060246177 -0.04118219702980621 -0.020332182326437742 -0.09576055581101721 -0.04399399709443098 0.011735119895895364 0.05675567231186219
-0.08552983952162871 -0.0564254409661648 0.03129612559263282 0.01910744776709299 -0.005026243814467916 -0.05498468588775823 0.03053163558787014 -0.04597379930105587

topology.conv_GAT.lin_l.weight f8 [64, 1]
00000000: 474f 201f 444d 88bf ba6a c770 44fb cbbf
00000010: ada8 c292 816d c3bf 2865 58e1 0d9f bebf
00000020: 39d5 01db 4f50 b93f b40a 4437 d840 d03f
00000030: 710f 261e ff78 c03f 38ff ff6d 0bd3 babf
00000040: 4f82 fb61 430f 87bf d4f1 c5d8 dff1 c4bf
00000050: b9f7 f98e 3126 c8bf 3fed ca91 dad7 b2bf
00000060: 92b4 b473 9915 b33f 506f 07fa a14b d23f
00000070: 4ef2 7b41 702b ca3f b0ed 6639 93bd cb3f
00000080: 0f35 f800 a0b4 ce3f 425e 22c6 eaec b7bf
00000090: 8fe3 6876 d680 d63f 5578 bbd6 2441 cb3f
000000a0: 7293 bf99 a365 bebf 776c cab8 76a9 a8bf
000000b0: 2af6 709e 671a d03f c95f a708 fb6d d2bf
000000c0: b2ae e3e8 1171 bfbf 3c1c cec5 278c cc3f
000000d0: b76a e99c e488 cc3f 980f e095 0248 babf
000000e0: 7688 79d2 9049 ba3f 9ada ae4e bfdd b93f
000000f0: 084d f876 6553 d03f 8716 7045 8293 3fbf
00000100: 7ab9 07cf 2c22 893f 511f e7a8 b8a6 c8bf
00000110: a009 bf55 1603 a33f 13f6 e3cd b3ca c6bf
00000120: 473d 2fc9 353b cebf 685b 1249 2ad3 bdbf
00000130: f08c 0c53 7230 bdbf 4726 48c1 9237 d13f
00000140: 71a2 77fe 87b8 c7bf 9994 043d afcd cd3f
00000150: 2242 14b4 09b3 c93f 339c 90e5 96e9 ca3f
00000160: c5e5 375f 054f c4bf f6bb d144 6cd3 d53f
00000170: d160 2355 5c46 a23f d972 634b 802e b1bf
00000180: 2d15 d122 2f75 c83f 63a7 3191 2af6 953f
00000190: 0321 1c33 2a82 d03f ec1c 3c39 c968 c2bf
000001a0: aaeb 4edd 7ef8 ba3f 8fbb 04bc 9d8a d5bf
000001b0: 1a2f 52fd faff bebf 56c5 80d7 eced d5bf
000001c0: c351 9918 4319 ce3f 0003 aaef ed5b c63f
000001d0: a3ae d06b 2224 c63f e3a8 61aa c2e4 b4bf
000001e0: f957 150f bb6f 983f 5410 8e8e a56b c7bf
000001f0: cfec 4e2e 6a90 acbf 8461 6637 590b b93f
-0.011866123390099082 -0.21860557085786586 -0.15177936235460746 -0.11961447478860932 0.09888171288351523 0.2539577998833622 0.12869252178290538 -0.10478278575464806
-0.011259581020057 -0.1636314209425921 -0.18866557580252932 -0.07360616740600266 0.07454833102083772 0.2858662549676767 0.20445063779324574 0.21672287276110813
0.2398872380003145 -0.09345881783735258 0.35161363185357514 0.21292553410507034 -0.11873838904973669 -0.04816790586229385 0.2516116187360661 -0.28796268315408874
-0.12281906066680895 0.22302720220997851 0.22292764341076118 -0.10266128691733767 0.10268502367537899 0.10103984518978351 0.2550901090446165 -0.0004818146748565084
0.01227221495443297 -0.19258793112953268 0.037132928816862476 -0.17806098511930255 -0.23618194888556784 -0.1165033749006007 -0.11402048614086246 0.26901692271403416
-0.1853189461246703 0.23283949355496672 0.20077630322386236 0.21025358399603675 -0.15866152905782208 0.3410292312682367 0.03569305934223766 -0.06711580124415252
0.1910761756900369 0.021446862327514703 0.2579446314926061 -0.14382281584423795 0.10535424140009178 -0.33658545838528026 -0.1210934513530301 -0.3426467995187371
0.23514593793028213 0.17468046381329572 0.17297773613369313 -0.08161560687736684 0.02386371879159552 -0.1829726167744662 -0.05578929724966885 0.09782941439187282

topology.conv_GAT.lin_l.bias f8 [64]
00000000: 87be 29a0 9086 d23f 64ed d5da 2782 863f
00000010: 888c 93b8 4e34 debf b6b2 be0e f483 a8bf
00000020: 04be 0dcf c0e4 823f 6500 4e2e ae9a d9bf
00000030: 8ab5 b0d5 f492 d4bf 2d0a 4a25 2f36 95bf
00000040: 2053 3986 e60e debf f171 0ea3 aa1a e3bf
00000050: 0df4 3421 1533 d7bf 8209 7f6c 28ab ef3f
00000060: 6223 1f16 b5c1 d7bf a482 2b3d 5a8a c63f
00000070: 5138 f1de cbaf c7bf 2ed5 057d 14c8 e0bf
00000080: d70f 9205 8fdd ea3f 7991 5292 a468 dd3f
00000090: 4afe bd09 dad4 e13f 1df4 6302 95dc f03f
000000a0: 6b88 e842 79fe efbf 59f1 d233 c975 e83f
000000b0: 111a 676e 01d1 cdbf 225b 29e1 9f67 e13f
000000c0: 4033 7c0d b069 e3bf 23b4 a029 0b5b e2bf
000000d0: 69ef f028 97f4 cdbf 2656 5387 e8bd dcbf
000000e0: 27cb ffbc fc73 dbbf e4eb 2324 ac3c cebf
000000f0: 8977 b524 74b5 cbbf d276 45d1 1b52 d3bf
00000100: 724c 6d60 3eb5 de3f fdee 4c83 09dd e93f
00000110: a412 e245 2c27 d4bf be1c 4f32 0b33 e7bf
00000120: 4274 6e40 9051 e63f 2986 3d0e e917 dbbf
00000130: 226d cf7c 90b6 d33f 5cbe 4637 dbae eb3f
00000140: 4088 1d29 532c ae3f d04b 622d dfa2 dfbf
00000150: 8193 dea8 a3df e63f fcc4 0216 1e7b bd3f
00000160: 0c96 0363 235f cc3f eb7f 1fa1 074b db3f
00000170: f984 8b17 4229 813f 6573 d3dd 8649 d53f
00000180: a302 b325 3c6a e73f c8c1 2cb0 535b d93f
00000190: ec47 93c8 a98f d33f 8b20 28b9 72b1 e43f
000001a0: adf0 8278 ee4d c2bf ee35 f353 297f e93f
000001b0: 2d58 787b a77e ec3f 541d fe77 38b5 dbbf
000001c0: 79b4 a8c0 1083 eb3f 27f4 1a62 f14f d2bf
000001d0: 931a 3853 d6ea e2bf 9249 b7f4 d6a3 edbf
000001e0: c594 df62 d28b e9bf 0f69 f479 c656 ee3f
000001f0: c5d5 c333 f8f6 e73f b794 dbb9 4e3b e7bf
0.28946319237636725 0.010990439763864664 -0.4719425966743036 -0.047881724166790304 0.009225374525811077 -0.40006594201987006 -0.32146950596037327 -0.020714508677438005
-0.4696594534664644 -0.5970051941581557 -0.36249283068519916 0.9896432990138211 -0.3711979595214442 0.1760971831017929 -0.1850523794732362 -0.5244238321162464
0.8395457371520888 0.4595118931704501 0.5572328748966779 1.053853043878241 -0.9998136812976218 0.764378167361012 -0.23294084444769728 0.5438994786917173
-0.606651331270406 -0.5736137211839644 -0.23402680872993223 -0.4490910836733256 -0.4289543004698992 -0.2362265755144498 -0.21647502701210566 -0.3018865150132629
0.4798122350377475 0.8082320751632036 -0.3148909265949362 -0.7249809248541152 0.6974564798762304 -0.42333437338501995 0.30801784695150236 0.8650947646728571
0.058931921738591075 -0.4943159049227548 0.7147997186881271 0.11515987431882374 0.22165338835399984 0.4264544557063334 0.008379474967514332 0.332612721087392
0.7317181335748341 0.3961991520364134 0.30564350688393804 0.646661149629851 -0.1430032814440713 0.7967726363801242 0.8904607211613943 -0.43293582647352946
0.8597491991873901 -0.28612932758898285 -0.5911666512846118 -0.9262499599083631 -0.7983180934067141 0.9480926877907069 0.7488976489100244 -0.7259896879228539

topology.conv_GAT.lin_r.weight f8 [64, 1]
00000000: 7608 e3c7 36e9 cfbf 15c6 b1e9 c842 d0bf
00000010: 32fd 0ec3 828f b5bf f7aa 5f64 023f c8bf
00000020: 4447 8d82 7f56 d13f 1af0 3b7f 8e91 ccbf
00000030: 5b3e cd60 fb05 d0bf bcb1 bfb3 efc3 cabf
00000040: 7c25 5c62 a565 c4bf c5c1 c2e7 5f51 c2bf
00000050: 3c7e df61 12a6 c83f 89a9 3cf1 4836 c53f
00000060: 5a27 0a3e 641b d13f ec26 d0b3 196a d2bf
00000070: 078b 545b fab4 acbf 421d 2528 edfe a83f
00000080: 6015 748a 03a5 d2bf f9a0 bd67 9ae2 a83f
00000090: 46c2 15bb 2b56 b2bf 6767 af9a 59ac c6bf
000000a0: 4797 7f23 4c9f c4bf 572d 63a0 14d0 c73f
000000b0: 5c86 543c 4c3d acbf 1299 ef14 4074 d2bf
000000c0: 92c2 09d4 4295 ccbf 3b85 f09f df82 cb3f
000000d0: cd17 9985 022e c03f 0ccc 977e 02e1 bebf
000000e0: 0f8e d919 ef88 be3f 3402 025c 6b6e b23f
000000f0: aaf4 8a47 72cb ca3f a882 b431 e2ef ce3f
00000100: f125 7803 9887 be3f 79ef 0f87 cabf bc3f
00000110: 7ab7 9813 4cc2 c23f 1738 34ec 0bd2 a23f
00000120: 5553 6077 a41a cc3f edf4 febd 1c48 cfbf
00000130: 80a2 77e2 a57a b7bf 0e69 79c5 2591 cdbf
00000140: b00a 9c0e 6f0a b4bf 19a6 7a97 93ba bcbf
00000150: 5814 cf41 3572 b03f f003 966e d366 b7bf
00000160: 3ae7 5a12 f93c d3bf 0cb4 0f51 5e15 aa3f
00000170: e444 358d 628a ca3f 26b7 f99f 40f0 903f
00000180: 1743 b9cf 17b8 bf3f a8ee 989d 21ad d0bf
00000190: d79c 9eaa 7076 a1bf e462 23bb 84b4 bf3f
000001a0: 71cc 1687 1979 c2bf f77b 29e9 3c85 c13f
000001b0: 5d02 701d 5494 cbbf e467 8956 72ff d2bf
000001c0: f324 589d d1b0 cabf f3bd 4b9e 7379 b9bf
000001d0: 246b 8311 0809 b03f ee4f f902 2da6 a43f
000001e0: 331d 37ba fb5a c43f 2225 04cd 7001 d0bf
000001f0: 6f3f 1c3e 54e1 b2bf d71e f783 4f95 c43f
-0.24930462608432763 -0.25407622167321736 -0.08422105085536627 -0.1894228925806016 0.27090442418294836 -0.2231920357952511 -0.25036510899824344 -0.20910450245663792
-0.1593519907258204 -0.14310835663265045 0.19256810931163837 0.16571914462231188 0.2672968488555988 -0.2877258544909711 -0.05606825222846195 0.04881993403483388
-0.2913216449818119 0.04860384479872155 -0.07162736241822029 -0.17713470509516613 -0.16111137135811246 0.1860376151219991 -0.05515516506626447 -0.2883453564121662
-0.22330508569168167 0.21493144330546862 0.1264041092237548 -0.12062087622307177 0.11927694684123245 0.071997365916112 0.20933369153309417 0.24169566561706302
0.11925649723720945 0.11230150029581222 0.1465544791876104 0.036758778174871214 0.2195630629436446 -0.24438819195885433 -0.09171520976054559 -0.23099205152795615
-0.07828420740774322 -0.11222193191738263 0.06424267632162761 -0.0914127488122316 -0.30059649269570665 0.0509442781402428 0.20734817404676342 0.016541490329863205
0.12390278645876794 -0.26056709661836885 -0.03410675127752832 0.12384824341587436 -0.14432067009110797 0.13687859902253738 -0.2154641288507432 -0.29684122515538847
-0.20852108176067183 -0.0995094548668403 0.06263781001636609 0.040330320942899664 0.15902659027617858 -0.2500879289733168 -0.07375074879041475 0.16080659812563766

topology.conv_GAT.lin_r.bias f8 [64]
00000000: 7f4e 79ed f44d 953f 2434 9179 56c6 e33f
00000010: 66d2 91e1 2572 e93f a4a2 5a48 57aa d93f
00000020: d19e f8af bce1 91bf ee9a 33fc 6fff cdbf
00000030: 2ae5 1e2b 8d09 b3bf d28d ac13 0b40 e53f
00000040: a724 89ec 72f1 efbf 4aa8 f2f3 89cd dabf
00000050: 5bd7 0010 aee2 c9bf 5997 2903 5c47 ee3f
00000060: 81ad 7884 223e eabf 84a6 3fe6 9aad ed3f
00000070: a769 2540 e638 efbf 2f00 c273 9eae dcbf
00000080: 15f4 7af7 27fd c6bf a791 1d4b 6e73 ea3f
00000090: 3056 8c25 b8c7 d63f 8481 ba16 150a d03f
000000a0: 2e61 ec0c 7509 d13f bc23 ef37 593b e13f
000000b0: 7eb5 12b4 b1cd e5bf 2516 aed4 188f dc3f
000000c0: 3414 4b71 058b e23f 934f 0a48 6415 bd3f
000000d0: 1853 55bd b8cc d93f f8e3 1861 b88a eabf
000000e0: c502 64d1 d718 ebbf 8f47 9009 193b cd3f
000000f0: 023a e8b7 1ab3 da3f ce5d ce19 ffd8 e1bf
00000100: d912 7e38 bd9b e2bf 03e3 baa5 0add de3f
00000110: 9e1b 5e05 5e72 ee3f da65 d1d0 bb3d babf
00000120: c642 4a02 b77b d73f 8072 fedf fbed ef3f
00000130: df54 194c 2933 d7bf 1859 6ffe 55c6 d43f
00000140: 4bf6 bd67 3c51 b53f 400a 63bd a502 d3bf
00000150: edd8 e2c8 3679 debf 6450 8813 0692 dbbf
00000160: 792d 9742 8558 d13f 655a 88ec 1729 e8bf
00000170: 1350 4d23 95cf e83f 9d4e d8e2 df5e c73f
00000180: 8a5b 3d07 ea1a b2bf ee36 15b8 9e21 dd3f
00000190: 387f c9a0 0f24 8d3f e005 90d0 cf76 edbf
000001a0: 122d 6cdf e594 b2bf 049f f8fc 6818 ad3f
000001b0: 3b67 f58a c024 e93f b6a5 6a70 b87a d9bf
000001c0: 0764 9b2f fb5d d8bf b597 f36a b599 e5bf
000001d0: d513 5d30 c207 db3f b5b4 8422 9152 dfbf
000001e0: 9725 69da a30e cdbf e6d4 c0bc 4bb5 bf3f
000001f0: 5750 cee1 21a7 e0bf 6583 d9d3 0ad2 e2bf
0.020805193895581994 0.6179611563071643 0.7951840787560058 0.40102178636383656 -0.017462681045940457 -0.23435783209352884 -0.0743644933962925 0.6640677818544936
-0.9982237453306383 -0.41879509757075495 -0.20223022252474263 0.946210867096606 -0.8200848185855848 0.9274420258563656 -0.9756957295278895 -0.4481578951308646
-0.17960071166990646 0.826590677938431 0.3559399000817818 0.25061537952026236 0.2662022234158198 0.5384946911300328 -0.6813591496517544 0.44623394746335726
0.5794703686484639 0.11360766180797403 0.4031202172239303 -0.8294336220197911 -0.8467825975095243 0.22836602179500828 0.4171816631286732 -0.5577388290429839
-0.5815111258858351 0.4822413080651559 0.9514608483158218 -0.10250448082060562 0.3669259569515301 0.9978007674104248 -0.3624976390031644 0.32460546347773933
0.08327081234707483 -0.2970365857583239 -0.4761483155993023 -0.43078758151501106 0.27102786543829144 -0.7550162906434933 0.7753396691791771 0.18258284164823105
-0.07072317768812134 0.45517700173227993 0.014228937239010628 -0.920753390644844 -0.07258450226452265 0.05682685935999923 0.7857363428149492 -0.3981152627771637
-0.3807361569320737 -0.6750132645508901 0.42234854434019314 -0.48941448565421847 -0.2270092789133684 0.12386010511621101 -0.5204018984100099 -0.5881399285973258

topology.convs.0.eps f8 [1]
00000000: 23b0 14e2 d957 adbf
-0.05731087574744744

topology.convs.0.nn.0.weight f8 [64, 64]
00000000: 19b8 dea9 6bea a43f b0c3 448c 110a c03f
00000010: 6c4b 4122 1cac aa3f 919a 88d7 cb2f b93f
00000020: 5bf3 22ac 4eab 9fbf f5d1 9013 9ea0 c13f
00000030: 925f 6c97 0381 af3f e302 efb0 6528 a4bf
00000040: ed8e 0018 ebeb ce3f e3b0 3c58 2206 c23f
00000050: 3a02 60d5 5b48 c03f b00c 4bd8 dc27 af3f
00000060: 4d00 89e6 7a70 a73f 513b c07e baed 9dbf
00000070: 3f44 f881 f1ba a13f c45f ff8f 1f93 cc3f
00000080: 0c9d b048 cf52 8b3f 6016 b447 6bcd 88bf
00000090: a22c 5b89 c604 c03f c043 80f4 27fd a13f
000000a0: 6f1d 73e5 eaf3 d13f 6320 6d9d 4f2a b33f
000000b0: 21f0 5b09 6b41 a2bf 55e8 1458 10a7 bbbf
000000c0: 64a3 ed09 7937 cd3f 1386 daf4 be00 be3f
000000d0: 4bda a3e1 d4fa 903f e4b5 50cb ebe1 c63f
000000e0: 24e5 1dfe 5bf0 c63f d460 b8eb c0a5 c23f
000000f0: ade5 7219 e85f a2bf b87b 5036 d7d9 be3f
00000100: 3dc5 371b 90a7 bcbf a1a1 b06a 0ba2 843f
00000110: 2f76 594b 3d22 c03f b61a 7686 7ebe d03f
00000120: 4f26 c294 2d93 bb3f c2dc 2079 f26b c73f
00000130: cc69 0c0d eca5 af3f b2d9 48dc ed57 a5bf
00000140: 3a3c ad89 4d6c c53f ebca d6ca 427f 8d3f
00000150: 1b65 1591 7b35 b4bf 5e88 9c75 bb1c 973f
00000160: 732d e6b5 347d ae3f d99e 3ce5 4031 b7bf
00000170: 1258 c016 2853 a6bf ce62 9485 c3c1 a0bf
00000180: 3126 6abc 8656 b23f 990d 3083 12cc ae3f
00000190: 1d4e 462b 4f8d bdbf 822e 37d3 deea 853f
000001a0: a65b 21cd 6f6b 99bf 02fb 38eb a42b be3f
000001b0: 657e 2882 e627 a9bf 13bb 82da b88c c83f
000001c0: 193f ed58 dbb4 903f 5a22 7497 7c33 af3f
000001d0: 6eda dae8 fcff d23f 9da1 58d5 53ed d13f
000001e0: e68b adfa eddb c33f 4588 5cb2 e26f 9dbf
000001f0: 3e93 a70f 8f9d a3bf 5995 f342 4a40 d03f
00000200: 86d5 47c9 77ec a2bf 308d c0cb 74b3 c3bf
00000210: f052 683b e5ae c3bf f8b6 8934 cf67 393f
00000220: e9f3 7b0b f11b bc3f 8eb7 9e3b 7eb3 c2bf
00000230: e09c 0c4b 1c8a 9a3f 5ff1 2875 4255 c1bf
00000240: 5410 bddc 785b b3bf ba26 9915 659f c3bf
00000250: e2bc 4aed 2580 a03f f0e6 676d 21da c23f
00000260: 4b2d d6ab 5a6b b9bf 2f6d 2539 87da 94bf
00000270: e3ff 858b 3dc3 b2bf be94 83fb c249 b03f
00000280: 1563 554f 9afb b73f d8ee abca 8aa8 a93f
00000290: 2ccf e15c e6f8 b53f 910a fb4b fd8c 913f
000002a0: 25e4 bc63 e0e9 7f3f b02e a2f9 2f6f b83f
000002b0: 85c5 5ab2 450b ab3f e995 34d8 b096 a7bf
000002c0: 3a5b 37f1 f44f a6bf acea 7c2f d7cd ac3f
000002d0: d801 9ab4 c7ff a13f 6db4 e31e 57cb c3bf
000002e0: 4597 1e0a 7cde b6bf d6c7 73e0 67e4 95bf
000002f0: e302 ad63 cb0d b63f 7146 596a 7e6e c5bf
00000300: 23e4 c2df efb9 ac3f 04a0 e8f4 5271 c43f
00000310: 68b7 e623 1e62 713f 53f5 6544 0f0b 81bf
00000320: a08d 2750 544e b93f 6fc6 6d88 04a6 9d3f
00000330: f37b db98 1692 b03f fc9f d961 e598 c13f
00000340: 58cc 5ba5 b3dc a3bf 9b10 7ea5 3569 b03f
00000350: dc32 3e6e 58da bb3f 1056 9d45 f723 b0bf
00000360: 3938 2ee2 dc58 94bf 3524 afa5 ab48 bf3f
00000370: 1dca 0507 07e2 af3f 2835 228a c79b c43f
00000380: 8b5d af21 80e0 953f c624 9c19 e2c1 9fbf
00000390: f6de dfec c95a c13f a885 9999 368b b73f
000003a0: 13ff 2572 5d77 b4bf 80e4 4a67 83fa b33f
000003b0: f291 687e 2611 8c3f a3c6 63e9 4b22 aebf
000003c0: b506 7279 6325 b53f ef25 7c4a eb21 aabf
000003d0: 7a9b 7219 44b8 a33f 1079 7426 988a a1bf
000003e0: 40b5 ab17 5b2d 9cbf df39 8c4f 4058 a53f
000003f0: 04ba 3cfa d2a0 95bf 4ea7 c585 ce6a 863f
00000400: 4506 11e3 3da6 c53f ebd0 bda0 5de7 bcbf
00000410: 17bb 93f6 c107 b23f 85af 55cc 2bd9 b03f
00000420: 0d85 6246 fa36 82bf 8a0f beed 1bbe adbf
00000430: 6ee2 21e5 f879 b8bf fdf9 9ae5 2950 753f
00000440: e209 94c8 bf7e b5bf ee60 8198 b161 9f3f
00000450: 324d 5f8c 336f 9b3f b505 0498 5411 c53f
00000460: 8ce4 2b79 e41c ac3f e17d d2db a277 c53f
00000470: 8aea 531a 7038 bd3f 5c4f 9ce5 f9d5 92bf
00000480: e0cd 9abf 8cc6 60bf 90bb 1e23 e8c9 c53f
00000490: 5ef2 5688 8ee4 6abf 2ad2 8ea3 1731 aa3f
000004a0: 264a dc8f 2cb6 a73f e0b8 a988 8b37 af3f
000004b0: 057b 0326 d389 c5bf 9e42 aab2 1280 c53f
000004c0: 6e16 c380 add2 bdbf 3638 fca8 0e68 c4bf
000004d0: fe0f ae5c 8282 823f 134d 9fa5 3087 a7bf
000004e0: fe2b 0922 f648 833f 33a7 5208 3223 b23f
000004f0: 4c74 0398 1d8e a4bf 2890 0a36 0d23 c2bf
00000500: 8b47 b6ec 7e76 c43f e41a dd03 c213 953f
00000510: c9e6 b62a e775 a33f dc37 3f65 9f33 a63f
00000520: e2e3 a48b 524c c23f ea73 96eb 8b6e a53f
00000530: cc79 de75 194f c33f 1169 c7ba a6fa c23f
00000540: f21f 1c00 abe1 a4bf 97d4 3496 fb84 c1bf
00000550: 2f02 9f5f 8924 c43f d1b2 18ed 891a 803f
00000560: bc1b ab5c 4836 bf3f 6cbf e098 3cc2 5d3f
00000570: 1ea6 d29a 6cda b13f 8953 dc19 46e6 a9bf
00000580: 2915 2536 4350 88bf 79d8 bfaf 9622 9a3f
00000590: 10cf 5bbb 5d25 c63f 3c8c 5db0 6a4d bd3f
000005a0: d394 d65f 9f2c 933f 9738 d380 32b6 abbf
000005b0: a85f 2a11 2406 adbf c415 c73f 4d1f b2bf
000005c0: 1fb2 690d db55 c13f a598 df26 49a2 b5bf
000005d0: 6d9c 04d1 8026 c3bf 0c8b 7b1f 57dd a43f
000005e0: 7356 eaad 540f 703f d9bd af6c f4bb a13f
000005f0: 6ffa 681e d29a b43f 7a0a bd15 9ccf c0bf
00000600: 4e3f e62f ae45 bdbf 4048 4774 8c21 7d3f
00000610: 8669 ac33 1bf0 ae3f a363 05af 5d0f af3f
00000620: 306b bd5d a303 a23f 40d2 b5e3 9dd6 ab3f
00000630: 509c dc37 b88f bc3f e8fd 9840 98aa b83f
00000640: 3ad4 3227 6ce2 a43f e175 82cc 440b b2bf
00000650: ca53 f194 59bc a8bf 6116 6b4d 2118 a73f
00000660: 0446 779f 0dd4 893f 7811 262b c4af bdbf
00000670: a39d c1a2 6c89 853f e943 62dd 3d87 bf3f
00000680: 9524 bda8 9e5b c3bf 67df 0fee 2779 a2bf
00000690: eee6 2986 6ee5 b23f 0752 a2e1 feea b7bf
000006a0: fae3 6cba 33b1 b0bf aafd 5518 94fd c1bf
000006b0: 54ad ac74 8eae c43f 66b7 df49 896a a03f
000006c0: 9a89 8cee f985 98bf c9a1 71d9 b4a2 c33f
000006d0: c850 f472 7018 b63f 79d9 a868 601b 7dbf
000006e0: 96d1 0684 e2ff b03f 6972 70ba 64ba 9abf
000006f0: 7b25 27ec af84 acbf 30b9 7a95 2a6c c33f
00000700: d6a9 ebe7 35d8 c3bf 497e 3f9e 94c3 923f
00000710: f6cd 4f4e cb7b b73f 999f 72d3 8ec2 b4bf
00000720: 82de 3ec8 dc60 88bf b6d1 0c70 bc4b c23f
00000730: 23a8 9bec 0a10 9d3f 321a 5e86 7526 bfbf
00000740: dd58 bf72 65a9 c23f 2383 877c 7d68 b23f
00000750: 95fc 6890 1507 b2bf 2048 3f9c fb42 a0bf
00000760: 8516 de5a 777a 98bf 8dd0 446c a385 a0bf
00000770: f383 3a32 932e 873f 912e d5ce c24c c3bf
00000780: ed3f 5a81 28cc 93bf 8f20 83c9 5e8f ae3f
00000790: 820c 2b73 03b9 a23f d40d 1d70 5236 bdbf
000007a0: 887a 5145 8b70 a8bf e50b 702e 1fd0 843f
000007b0: b2d5 61be e4ab c4bf 9617 cd56 4d13 963f
000007c0: 8ef1 a067 59b4 b7bf 932a 4967 4508 95bf
000007d0: d3ee 94b1 64eb 813f a406 99b5 b22b c43f
000007e0: 74ad de2c a008 a5bf ec3b 2f4b d82c b8bf
000007f0: 0a8a a1a5 9053 9c3f fb30 d1e0 280b afbf
0.04085098694427831 0.1253072676568343 0.05209434431221535 0.0983855630116557 -0.03092692304265952 0.1377141566787398 0.06153117392949449 -0.039370706413597543
0.24157465621930588 0.14081219967318423 0.12720821303084212 0.060851003077482146 0.04578002990865624 -0.029227174745808885 0.03462938987298302 0.2232398465264379
0.013341540723628607 -0.012110555768695963 0.1251457377132726 0.035134552570645905 0.2805125466079152 0.07486436456122329 -0.03565535058257319 -0.10801794195586585
0.22825539574412368 0.11719888189193055 0.016581846496558843 0.17876956393722232 0.17921018512769493 0.14568339834000332 -0.035887959581894925 0.12051148487124308
-0.11193180717943547 0.01007470053998888 0.12604490451023895 0.2616268456553529 0.10771450883671572 0.1829817859122383 0.06181275996478383 -0.04168647111912395
0.16736764166350487 0.014402887168079434 -0.07894108097152179 0.022570542386468488 0.059548995213016286 -0.09059529873467954 -0.043603184487594274 -0.032728300148112774
0.07163278675047803 0.060150698198437165 -0.11543745810040958 0.010701886006152298 -0.02482390107646961 0.11785345785845538 -0.04913254107327417 0.19179449719873584
0.016314914038331716 0.06093968724059513 0.29687426318870436 0.2801103194674626 0.15514921894199957 -0.028747121940917237 -0.03831145349594188 0.25392395532829465
-0.03696035701788518 -0.15391406964145338 -0.15377488518483728 0.00038765724870058705 0.10980135469794984 -0.1461026946175789 0.025917474823612063 -0.1354144165105806
-0.07561450375675466 -0.1533018451175872 0.032227692810346445 0.1472818168838823 -0.09929434485655013 -0.020364868987013892 -0.07329163223585015 0.06362551346281273
0.09368290364126282 0.05011399959582058 0.08582916038158989 0.01713939453362429 0.00779140140712634 0.09544658512657622 0.05282037546329391 -0.046071554558050405
-0.04357877201589706 0.05625793890654526 0.0351545722924162 -0.15464295395159713 -0.08933234450395584 -0.021379111361006974 0.08614798720828847 -0.16743450348672043
0.056106086792574915 0.1597083755343648 0.00424396298914851 -0.008321875834321679 0.09885146099946107 0.028953619791940385 0.06472913009518759 0.13747851636730946
-0.038793195662855495 0.06410537042944713 0.1088004368923054 -0.06304879617285786 -0.019870234780278138 0.122202613783103 0.06227132759785923 0.1610040115814766
0.0213642139968591 -0.031013043225389912 0.13558315340173238 0.09196797609322138 -0.0799463657076525 0.07804127952376128 0.013704586727791377 -0.0588554117583844
0.08260175433135937 -0.05104003223648223 0.03851521311417279 -0.0342605158750634 -0.027516768760439847 0.041688928327960666 -0.021121307872073572 0.010945905167961147
0.16913579547149218 -0.11290536093094132 0.07043087263057789 0.06581376780166977 -0.008893924019789634 -0.05809104230050284 -0.09561114877750196 0.005203403148412719
-0.08396528860979616 0.03064610951727869 0.02679138702644685 0.16459138319627944 0.05490793208259345 0.16771350606448635 0.11414242403763289 -0.01839437927181052
-0.0020478009217528154 0.17022420611234823 -0.003282812484682914 0.051155794826091075 0.04631175285443971 0.060970650131695114 -0.1682685790646802 0.1679709789646226
-0.11649593728642468 -0.1594255757449347 0.009037989095084239 -0.0459532930541632 0.009416506684962297 0.070849539787244 -0.04014675598748649 -0.14169469012006286
0.15986620481686162 0.02058318279821493 0.0380089034692453 0.04336259947704921 0.14295417612609557 0.041859028347268026 0.15085142379116545 0.1482742702490403
-0.04078420997944922 -0.13687081178946833 0.15736500901222558 0.007863118694410616 0.12192203771984017 0.0018163291711168162 0.06973913936476392 -0.05058497491533049
-0.011871838655347649 0.025522570111171625 0.17301532410021325 0.1144625359134332 0.018724909042835258 -0.05412442991802029 -0.056687476249123236 -0.07079012686798253
0.13543260722089287 -0.08450753401811768 -0.14961252408940898 0.04075119265850988 0.003920870569933055 0.03463710619677913 0.08048737757142431 -0.1313357454437954
-0.11434448880595235 0.007112072610157283 0.06042561536578987 0.06066410790908285 0.03518400687490553 0.05437177090326317 0.11156798709690574 0.0963530690869373
0.04078996637819228 -0.07048444741163663 -0.048311995917778086 0.045105972958066294 0.01261149065877288 -0.11596323064265401 0.010516022412231879 0.12315737395171279
-0.15123351325226922 -0.03608059674291902 0.07381335044365375 -0.09342949875492233 -0.06520388890648113 -0.1405511015727659 0.1615770406436733 0.03206280733853255
-0.02394857901084322 0.15340290658356384 0.08631041342261192 -0.007106186482408788 0.06640449260050327 -0.026101659659718033 -0.05569982297636052 0.15173847483442549
-0.15503572296377283 0.018324205549900694 0.09173269903094891 -0.08109371816919832 -0.011903500424394812 0.14293628188319268 0.02838151044026217 -0.12168058901270554
0.14579456427481477 0.07190689363734441 -0.07042059684407527 -0.03176103861154922 -0.023904671593774757 -0.03226957985535348 0.01131930348430108 -0.15078005885367365
-0.01933348931794392 0.05968757829538262 0.03656779080258678 -0.11411013829370314 -0.04773364278002129 0.010162585835137914 -0.16149577423099754 0.021558006689950192
-0.09259566097256863 -0.02053936427027254 0.008749758405080332 0.1575835596759606 -0.04108143375136822 -0.0944342788272789 0.027662525281252605 -0.06063201660490055

topology.convs.0.nn.0.bias f8 [64]
00000000: 07a3 eb35 9c07 bcbf bb0e c279 29df b23f
00000010: 9985 8de9 404e bdbf f4d3 e191 d875 603f
00000020: fcf0 66ea e667 b3bf f6ea 0d52 5fb0 9abf
00000030: f502 8bf1 344c 9cbf b6d1 320d ab9b 85bf
00000040: d745 8ee1 6ca6 553f a196 0232 e35a b2bf
00000050: 4701 bc79 b445 773f 995e 3a21 3d3a a63f
00000060: 044a 1915 3cef abbf 13fc 3be7 deb3 b8bf
00000070: 01be 263e 3c77 b1bf c0bf ba36 ca93 96bf
00000080: 48e4 92f4 c721 bbbf 3b1d dc22 b725 b63f
00000090: 65dd 95c8 e7c2 acbf c5f6 f1f2 57f1 963f
000000a0: 5975 8567 57ec 96bf ea2a 6a38 6199 9bbf
000000b0: ab38 866c 7004 b2bf 565c bd21 df04 8abf
000000c0: 65a5 85b6 ff0f babf eb2e 1f24 30a0 a6bf
000000d0: f162 9bdf 0ca3 9e3f 5a73 b3c0 a307 bcbf
000000e0: 06e4 89b3 c1e1 bebf a797 f7ee 79b5 bebf
000000f0: 2b1c dc49 5b35 a03f 40cf 06af 6617 bfbf
00000100: 8998 ca85 b5dd a1bf 10e0 a77d 9faf 91bf
00000110: 6d60 19a4 334b a1bf 1f59 0d8c 7527 9bbf
00000120: c989 4de3 65f1 47bf 28b1 897b 36ca 8dbf
00000130: 99e4 6966 0e20 ba3f a0ad f8ed 3e62 b0bf
00000140: 97a2 fcdd 42c4 af3f 3259 ec9d 3d87 b73f
00000150: 37a8 bdaf a88d 8ebf b7ec 1303 872c b43f
00000160: 2d9f 4f44 c5b4 a6bf b688 69cf e12a bd3f
00000170: 890c e14e 8b13 b23f 21cc e4ed ca83 b73f
00000180: 0b23 04d5 61e2 bd3f cf3b 56b3 6b6e bdbf
00000190: 55be b9f7 e456 bd3f 8696 f28e 2a3f ba3f
000001a0: 4378 0be8 cfd1 953f 10d3 a9aa 4659 a6bf
000001b0: d444 bd04 de94 b53f 57ff d96d 9d62 48bf
000001c0: 38d4 b633 2628 b03f 5caa aa9e 9232 4ebf
000001d0: 4c2f a351 606d b43f 29e7 fa5c 6c5d be3f
000001e0: 5790 ef38 32b1 bf3f 1d69 c9ff 0c1c b5bf
000001f0: e46d b4cd 81bb afbf edba c258 0006 b4bf
-0.10949112240235702 0.07371768210037548 -0.11447530462239398 0.0020093183402942697 -0.07580416891773106 -0.026063432105256155 -0.027634455912223427 -0.01055081972149528
0.0013214171687859677 -0.07169933291387533 0.005681710226554343 0.043413076692727155 -0.05455959088853393 -0.09649460931176206 -0.06822563664785976 -0.022048148718283533
-0.1059842083076471 0.08651299096174096 -0.056174510226749054 0.022405027583309662 -0.022385945981445363 -0.026952284878045164 -0.07038023614424797 -0.012704604355958587
-0.10180662351708276 -0.044190887841606706 0.029918862483870382 -0.10949157194722883 -0.12063227303760024 -0.11995660862120748 0.03165707851990648 -0.1214508225737605
-0.03489463098712615 -0.017271511120242222 -0.03377686861193827 -0.026517712281326596 -0.0007306811809082932 -0.014545846600605275 0.1020516395600616 -0.06399911222313515
0.06204422912407386 0.09190735917613749 -0.01491863046949869 0.07880443406240799 -0.044347920025585054 0.11393557847762534 0.07061072040328233 0.09185474689438468
0.11673556757535779 -0.11496613624898021 0.11460715339648549 0.10252634038860195 0.021308182275668008 -0.043649872143680324 0.08430278411585174 -0.0007441776940168937
0.06311262857964628 -0.0009215560833884628 0.07979394906140874 0.11861302633306238 0.12379754915269935 -0.08245927090448331 -0.061977440224122465 -0.07821657340057771

topology.convs.0.nn.1.weight f8 [64]
00000000: d8c0 6188 2033 f03f a3bd 478f c360 ee3f
00000010: d9a1 f062 4ec2 f03f b30d 957a 5586 ed3f
00000020: d19f 1c10 2683 ef3f 0048 cd02 c5ca f13f
00000030: ea6d 1632 35a7 ec3f 460e 9807 b864 ee3f
00000040: b7a1 6fab c1cb ee3f fbdf ffb2 21b3 ee3f
00000050: 385c d294 1765 f03f f9e5 7541 95d2 ee3f
00000060: 6a8a b7b9 d809 f03f 98b1 f850 d481 f03f
00000070: e89e 5007 f49c f03f 0360 b8b4 eb45 f03f
00000080: fa75 cd30 a4de f03f 8895 95df 286f f03f
00000090: 0db4 d4b2 c017 ee3f 62cd 13a8 29fe f03f
000000a0: 2e78 2c8d 8bdd f03f 0fba ea35 6757 ed3f
000000b0: 35f4 600c 5c2e ef3f 2019 9222 ef94 f03f
000000c0: d59f fe16 9fa7 f03f 64c5 497d b3a0 ee3f
000000d0: 4570 ed2b 9eb8 ed3f a491 c6b9 fa10 f03f
000000e0: 0a01 0ab8 b47d ee3f b7d3 940a a5c1 ee3f
000000f0: 6e66 c4af d0c5 f03f 1044 654f 7c3a ee3f
00000100: 9855 d36b 5a5d f03f 9f89 489b 16c6 ef3f
00000110: ee47 5508 c1b5 ed3f f64d ff6f 49b1 ee3f
00000120: cc78 fb69 a9ea ee3f 0de7 a501 9d7f ef3f
00000130: 43f3 2418 7cfa f03f d701 84d1 628b f03f
00000140: ea7c 14f6 e71c f03f 04b5 6592 ea39 f03f
00000150: 6521 03b8 8579 f03f c697 7c86 48fd ef3f
00000160: 1683 1627 7130 f13f 6aa1 327a 8b73 f03f
00000170: 835a 6cbb 6c49 ee3f 7768 e85d 5910 f03f
00000180: 8151 d046 f892 f03f 0337 d4d1 9628 f13f
00000190: bf60 2089 d5d3 ee3f 1825 ab0e 6d7a f03f
000001a0: 4ad7 1837 5225 f13f d4df fc54 c4b7 f13f
000001b0: d225 0937 d6b8 f03f 46d7 77a9 642e f03f
000001c0: 03aa 3294 5d12 ee3f 4c16 5a1b 60ed ed3f
000001d0: abb5 c1db 4aff ef3f f7f6 a3c0 637a ee3f
000001e0: 416b c926 b2e1 ef3f 5881 65eb 6fb1 f03f
000001f0: 8d9e fbf8 e7d3 f03f 5d50 8be4 c1f7 ef3f
1.0124821975151033 0.9493120001260887 1.0474380364267886 0.9226481813606625 0.9847593607601032 1.112004290528148 0.8954111078523372 0.9497947834319767
0.9623726223335812 0.9593666549762924 1.0246806920383857 0.9632059362913302 1.0024039511269174 1.031696621222272 1.0383186612834212 1.0170704898246192
1.0543558031416738 1.027138589264128 0.9403995030203319 1.0620514455339038 1.0540881647680282 0.91691933184285 0.9744091264507292 1.036360869447499
1.040923204252967 0.9571168372187171 0.9287863595923304 1.0041453606473647 0.9528449625504731 0.961138268152914 1.0482947221666126 0.9446393538183901
1.022791310494858 0.992930701530259 0.9284367716556952 0.9591414630362454 0.9661452360121756 0.9843277961910829 1.0611535018098983 1.0340297874646376
1.0070571529866421 1.0141397207874556 1.029668539808051 0.999668371838873 1.074326660811669 1.028209187827168 0.9464629803286048 1.0039914768481404
1.035881306282221 1.0724094578212664 0.963358657670163 1.0298891613950385 1.0716116096713955 1.1073649711452065 1.0451261663277944 1.0113264674996159
0.9397418875208249 0.9352264913765764 0.9999136249659178 0.952440143824531 0.9963007695726916 1.043319625394437 1.0517348981756272 0.9989938224557694

topology.convs.0.nn.1.bias f8 [64]
00000000: d6db 912c 7509 6abf b47c 962f 3c77 abbf
00000010: 9c41 cbba 6754 ab3f f406 be24 9f35 adbf
00000020: 73ab 995d 6b86 5bbf 3419 df18 78dd ba3f
00000030: 3f71 1d78 1ffa bebf 5974 e861 f345 abbf
00000040: 9637 7e8c 9d2e b5bf c188 bf99 2c45 a2bf
00000050: 3bab 6939 dcf3 8a3f 0427 e577 4ba0 a4bf
00000060: 999f 7028 ced0 7f3f e133 2ddb 1678 a63f
00000070: 25dc 7db4 7d83 813f 53a2 c17c da39 753f
00000080: e18a ca4c 01e1 8e3f 619b 7a22 b974 913f
00000090: 9346 44f8 e44a b0bf d215 f93c ff65 b13f
000000a0: 2e2b 962c 9556 ad3f 01a3 c117 cc7b b8bf
000000b0: 34b7 6a5c e089 92bf 8075 f68d 77e5 a13f
000000c0: 8e67 a918 92f7 a53f 636a e8a3 0bce a4bf
000000d0: d68e ca7b 3ed5 afbf 7915 8501 f648 74bf
000000e0: f931 a258 e1ee acbf 0738 1548 80e2 a7bf
000000f0: 4292 1b89 7c42 b33f adeb e59e 5b7c aabf
00000100: b84e 512a ff3b a03f e612 56c2 2bd4 b3bf
00000110: 8a5b b329 69d0 b6bf 484c 8216 eedb b6bf
00000120: 0ca0 1b70 05b4 a7bf 7f99 4860 22f2 b4bf
00000130: aa4a 31df 2889 ad3f 57cd 8e21 2859 903f
00000140: eb6a f7d7 9b12 6bbf 8677 d5d0 1358 92bf
00000150: cf63 a8f4 4531 a03f 9115 befd fcff a5bf
00000160: db8e 8531 12c4 a33f 86d8 00d9 f07e 9d3f
00000170: 2207 696e 1176 a7bf 3090 765b bb4c a23f
00000180: 6505 0316 dca5 593f b9c5 9840 b145 a63f
00000190: fd3b 58f9 9ebe a0bf 42e2 63d3 5799 783f
000001a0: 1efc 782a cb36 b1bf 3fbb 9195 ae9f bc3f
000001b0: b522 11b3 b85e ac3f 339c 0f3a 2092 91bf
000001c0: 323e d2a6 0a12 b2bf 079f 6e98 b571 b6bf
000001d0: 351f 64b6 3b99 883f f5cf c976 b420 97bf
000001e0: 9abd 0f78 5cd9 8a3f 8c7b 0589 66f9 a93f
000001f0: 68f9 7d6e 7d4a 91bf 64b7 e9d0 d163 79bf
-0.0031783379131939777 -0.05364406662851576 0.05337833552551105 -0.05704972575678183 -0.0016799973003809004 0.10494185073102785 -0.12100407297606795 -0.05326805658499074
-0.08274254493718866 -0.035684007423485216 0.013160439016436256 -0.040285452256808824 0.007767491631092493 0.043884958510353796 0.008551580496471154 0.005182126489764532
0.01507760062788094 0.017046826104571425 -0.06364279805372978 0.06796260107611055 0.05730119866628623 -0.09563899593343807 -0.018104081764867178 0.034953819350657334
0.04290443945929133 -0.04063450218037159 -0.062173798190341564 -0.0049523934943115295 -0.05651001173928089 -0.046649941252880515 0.0752332529769513 -0.05173002543138892
0.0317077387959705 -0.0774562215284039 -0.08911759632188257 -0.08929336595092352 -0.04629532807831546 -0.0818196759288181 0.057687070126708775 0.01596510605641063
-0.0033047717877087066 -0.017914113637167904 0.03162592517418938 -0.04296866033022718 0.03860527853501391 0.028804553265410003 -0.045822663047614634 0.0357416676663721
0.001565422942846639 0.04350046075377229 -0.03270432275541422 0.006005614346797973 -0.0672423342411865 0.11181155349343629 0.0554101675593918 -0.017158988517533124
-0.07058779309067445 -0.08767256709563408 0.012011019233355217 -0.022585696935905692 0.013109896100984387 0.050730900026557085 -0.016885719174291408 -0.006198711008080202

topology.convs.0.nn.1.running_mean f8 [64]
00000000: 3377 996a 62d4 f5bf be9a f676 8ebd ef3f
00000010: 7b4a 0e12 6f04 e63f c3d1 c075 ce33 e5bf
00000020: 7ed9 ba4d 70dd edbf dd23 31fb 82e8 78bf
00000030: c804 dad3 9a29 eb3f 0aed 9682 649e d73f
00000040: 3438 5bb9 82f0 dcbf 5a0f 19e9 05f3 d53f
00000050: 1cc8 8ecf 438b e33f 3e77 762c 6d1d d2bf
00000060: 5790 4283 cc8b e03f 765e 5a03 a3d8 e13f
00000070: dee9 2df9 cfc2 bcbf 0333 ddd5 8159 e13f
00000080: 27bc d7ef b85a e03f e54f cbc8 99a5 ec3f
00000090: 0eb4 694c 8a28 de3f 0dff 3baf 6cb2 e63f
000000a0: 1c73 f84a 45a2 e33f 1127 4f90 c390 e2bf
000000b0: 32b8 f0b2 f836 e6bf 43ae f44f 1f5b e33f
000000c0: fdc5 e714 e131 c93f ed92 07c7 5af4 d13f
000000d0: b0c5 c070 fc1b e63f 93fc cad5 982c da3f
000000e0: ecf5 999e a2a8 e5bf 5ea8 053c 1470 d73f
000000f0: 57c5 34be 4a7a ed3f 78b2 c052 1107 e0bf
00000100: 9f12 5c92 b4f7 e53f b248 379c ea23 e1bf
00000110: ba9a 8e1a 3a1f e43f 6405 e963 247f e7bf
00000120: be43 dfb8 2fde f03f 03c9 101c b8ec d7bf
00000130: 1fb0 18e5 12e7 ed3f eb94 02c0 f24c d83f
00000140: 3ba7 cb06 42ca dabf 97dd 2e66 3310 e8bf
00000150: 395f 33c8 2902 993f cf1d 1e54 313b d8bf
00000160: c75b 16e3 5be2 da3f 4ff2 1a05 d2aa e53f
00000170: 9c15 77f5 5db8 e0bf d1aa ced8 be98 ea3f
00000180: f46c 07da c020 ec3f 04cc c622 a921 c4bf
00000190: 4bb9 4ec2 e977 ea3f cf3d 3e45 2cba eb3f
000001a0: 66fa 0f3b 2d78 d63f fac3 2bd0 4983 e53f
000001b0: 3d5d 1187 96ca d9bf 00ba da54 458d eebf
000001c0: 6e93 7268 be7d e1bf 1c7a a3f0 9c0b efbf
000001d0: 215f a337 5b34 e83f 29ad 3967 50ea f03f
000001e0: 45ca 68c7 ca4f e93f 858e 9f0b 7fc2 e33f
000001f0: eabd 0d13 36e1 e5bf dbf8 3a19 37e4 ec3f
-1.3643516696969982 0.9918892215253761 0.6880412438061535 -0.662574033724518 -0.9332810896074049 -0.006081115384469063 0.8488287103392844 0.3690425181664102
-0.4521796045418143 0.342957952150973 0.6107501081335189 -0.2830460485655414 0.5170652927086036 0.5576949182022435 -0.1123476012561819 0.5421761681587615
0.5110745129039785 0.8952149316560251 0.4712243791789782 0.7092803404375175 0.6135584320323662 -0.5801713770426621 -0.6942103857925359 0.6048733293186576
0.19683469315309302 0.2805392211578653 0.6909162714202264 0.40897198560919285 -0.6768353555377735 0.36621576177151904 0.9211782183612439 -0.5008627525581479
0.6864874704920857 -0.5356343318074066 0.6288118857090332 -0.7342702819225164 1.0542447301452138 -0.373823192031651 0.9344572519817155 0.3796965479944691
-0.41859484351754234 -0.7519776340258656 0.024422314495353013 -0.3786128350697852 0.42006585289476245 0.6771020984375101 -0.5225057405702276 0.831145690395113
0.8789982088450459 -0.15727724264215237 0.8271378321713113 0.8664761879353423 0.35108500259221953 0.672276407798676 -0.40298999014108344 -0.9547449738800537
-0.5465995826713035 -0.9701676082584672 0.7563911520655645 1.0572055847395154 0.7909902472222902 0.6174922205941163 -0.6837416050092859 0.9028583042889083

topology.convs.0.nn.1.running_var f8 [64]
00000000: 4730 1d24 4f85 dd3f 0271 85d1 4f95 ce3f
00000010: c8db 5d40 9bfa c63f abbe 8bc9 6701 bf3f
00000020: 51b7 2d82 3182 cb3f 0ab5 9132 5c33 6d3f
00000030: 87f1 1969 1ce5 ca3f 1110 522b 57ee a53f
00000040: a26d 3115 225a b13f c179 bee6 ce4c a93f
00000050: 2e66 6aa1 896f bc3f 3bc2 704d d737 a53f
00000060: 725d aafd 5339 b73f 4ab8 0194 3c84 ba3f
00000070: 2836 beb4 c876 553f 270f 9bc4 c2a5 b73f
00000080: aa97 2d7b 7389 bb3f 1c8a 4fa4 5cd1 c73f
00000090: 3f63 3688 1f98 b33f ef04 2900 ac1f c13f
000000a0: e680 a3c0 f208 bf3f d029 acb5 8e33 b83f
000000b0: 60c1 d743 046d c03f 36fc 6842 ae67 ba3f
000000c0: 00ca 0893 31f0 a13f ed86 a3e2 ce7c a13f
000000d0: c339 ff1b e5c7 bd3f 6c49 2b58 083b b33f
000000e0: 8a69 0796 19ad b83f bb43 1c3c bed5 b23f
000000f0: 5a4f ec8d 2560 ca3f 796d 5c68 bfe9 ac3f
00000100: 6de3 2824 6f3d c23f bd32 34d0 2bdc b13f
00000110: 4a82 2661 1a2c bd3f f1ad aef0 4285 c23f
00000120: 4036 b3e9 af4e d33f 1eca 1d6b 7ef8 a83f
00000130: 47fa 893c e8b1 c83f 9fb9 959a 8391 ae3f
00000140: ff14 b0e8 0104 b23f fee6 1775 844e cb3f
00000150: 47ab 1860 d227 5d3f 31a8 41c3 000f ac3f
00000160: e03e 57df cf96 b03f 6e68 e564 0cdb b43f
00000170: a944 38d3 12ab bc3f e5f6 3ce0 532d c23f
00000180: b146 8d67 6dff c53f 35eb 36cf 1aea 493f
00000190: d107 b47f e91d c13f bcea df1f 133c c43f
000001a0: 0f0e b84e 7fd0 a63f 32fe 938b 5b73 c23f
000001b0: 357a 6d54 3973 b13f 735f 6337 2fd6 d13f
000001c0: c31c 121f 0cf1 bb3f c72a b7e1 bc6a d03f
000001d0: d32f 4cc5 46d7 c03f 7cb2 b7ba 8b88 ce3f
000001e0: 68e6 6d24 2592 bf3f 9b45 a15f e147 c23f
000001f0: 80b3 4401 1536 b83f 4913 5e27 c165 d13f
0.46126154448279916 0.23893163424043712 0.1795229019441804 0.12111519499353089 0.2149106870305624 0.0035645294888612166 0.21011691219235848 0.04283401874366189
0.06778157250794561 0.04941412512492916 0.11107692900477481 0.04144165821378861 0.09071850722317779 0.103580270895436 0.0013100585956381614 0.09237305927223059
0.10756608731534692 0.18607671759589628 0.07653996539592088 0.13377904899429136 0.1212302894887248 0.09453670440067374 0.1283269244445462 0.10314454194393438
0.03503565711834611 0.03415533558451309 0.1163314050056448 0.07511951592031146 0.09639129555526985 0.07357396094836492 0.20605916433180022 0.05647085331858199
0.142499821334947 0.0697657950697232 0.11395420905911027 0.1446918177801844 0.3016776830889718 0.04877085740635699 0.1929292960739579 0.059703934307310684
0.07037364893774976 0.21333366124581937 0.001779513783172164 0.05480196364881385 0.06480120852142646 0.08146741355213447 0.1119853749917349 0.14200828980567973
0.17185752445452843 0.0007908469109943807 0.13372534499654745 0.1580833345068039 0.044559458121536825 0.14414543452584067 0.06816442786428285 0.2786977806949757
0.10914684065402284 0.2565147594693084 0.13156971582100016 0.23854204766339027 0.12332374705683835 0.1428186146681981 0.09457522660222928 0.2718356022308411
