src/models/mentor/results/3-channels/real-world/IMDb/model_weights/4.ckpt (torch, 205783 bytes, 112 tensors)

topology.conv_GAT.att f8 [1, 1, 32]
-0.3858449762791177 0.26830729517754565 0.28966754781173193 -0.09103745147923127 -0.22286501249215063 -0.28174984416954674 -0.8469918456141372 -0.27138891812715094
0.17821320513479724 0.09840430598392877 0.19040234221822033 0.285223558875853 -0.045759250400331054 -0.2686912063919408 0.11526554514026394 -0.12499019972135578
0.22077921830141725 -0.49189373847173284 0.28307231758133783 0.06557715786815171 0.04256544714856392 -0.3531379418963486 -0.12464890458792945 -0.33427506429918735
0.03160345812930555 0.11912900902033154 0.286323977500494 -0.5791170945454128 -0.0270977430573609 -0.4021381244881731 -0.14968348919525343 -0.4482459871209416
00000000: 1176 9c20 afb1 d8bf b135 845c f22b d13f
00000010: 0517 24c1 e989 d23f 1982 d0fc 3a4e b7bf
00000020: 14c8 093a d786 ccbf 881f 977f 3008 d2bf
00000030: 5a86 9ca4 8e1a ebbf 7c96 f69f 6f5e d1bf
00000040: 3578 e2b7 b0cf c63f 9e8e fc4b 0631 b93f
00000050: f65b 749c 1a5f c83f c9e9 5a50 1a41 d23f
00000060: 85f4 eaa7 c16d a7bf 6646 0b9a 3c32 d1bf
00000070: dca8 bbf2 0a82 bd3f dcac 1f94 5bff bfbf
00000080: 21da 1e51 7e42 cc3f 21f8 f5df 2f7b dfbf
00000090: 9f8b 9a5a db1d d23f 0489 6824 aac9 b03f
000000a0: 60a9 e266 23cb a53f eefa dae1 cf99 d6bf
000000b0: 39f8 af98 fde8 bfbf b321 423d c364 d5bf
000000c0: f234 3616 542e a03f 5949 bf1d 3d7f be3f
000000d0: 7c37 dbcd 2153 d23f 1b11 b492 2088 e2bf
000000e0: 0038 e8c0 82bf 9bbf dab1 498b a1bc d9bf
000000f0: d821 6c1d d428 c3bf 03da cfef 0fb0 dcbf

topology.conv_GAT.bias f8 [32]
-0.1560768760868273 0.44222017903179206 0.1452624485185747 -0.33188321947661803 -0.22324674053185684 -0.11829808039590284 -0.18747966247767037 -0.06336535600932872
0.3219477052044424 -0.10974623851054548 0.26974670281981983 0.12084504076774284 0.26938817805546805 -0.14967755575993355 -0.27233828336056776 0.1351072135734058
0.39350854426739734 -0.3683849382382213 -0.06138406437290173 0.5318780665462232 -0.41643857565545317 -0.02791176788628252 -0.17097630912191578 0.19853004031532315
-0.21703166914815689 -0.005365523022943829 -0.034230098734519585 -0.008957863912571458 0.11261752430411488 0.1683707489549202 -0.015250393160012097 0.12095335995141006
00000000: d435 3abb 53fa c3bf f3a8 a4dd 554d dc3f
00000010: 57b1 dcbc f597 c23f a691 6f1d 933d d5bf
00000020: 22ef c264 5993 ccbf 10e0 7a72 c848 bebf
00000030: f5db 8065 55ff c7bf 3a6c c243 b638 b0bf
00000040: 6405 388c ca9a d43f e305 4359 5418 bcbf
00000050: 4228 b4ac 8743 d13f b132 fb59 b3ef be3f
00000060: 3b58 abe9 a73d d13f 9b91 7757 a228 c3bf
00000070: f6df 1e8d fd6d d1bf 0330 e073 314b c13f
00000080: 74cd 1476 3e2f d93f f39d 846b 9e93 d7bf
00000090: d94f f469 bb6d afbf ddd2 a826 2505 e13f
000000a0: 5ce9 cefb eda6 dabf 6f02 fb08 e794 9cbf
000000b0: 95e2 083c 8de2 c5bf 97c4 36af 6e69 c93f
000000c0: 2104 9898 b1c7 cbbf a539 8d9e 28fa 75bf
000000d0: b60c 3585 9b86 a1bf 3742 5f24 8058 82bf
000000e0: 79b8 d787 80d4 bc3f f0a4 2e36 2c8d c53f
000000f0: 05b6 fc1e 993b 8fbf bd26 55a5 ccf6 be3f

topology.conv_GAT.lin_l.weight f8 [32, 13]
-1.041282911366239 0.9394319272580115 -0.1863956082655724 0.21574995965733693 -0.5074338102693073 0.01125829566385652 0.09210279454674612 -0.01669006855416321
-0.27575066817423727 -0.768923503143325 -0.7884366864827372 0.47953266998508104 0.8246346194929919 0.1728883984864571 -0.44013621497949057 0.32545222488551834
-0.49994664343663264 -0.4191144533953546 -0.22839115644742203 0.08188817495763108 0.4203874698076883 -0.11633389264352144 0.46431755251113355 -0.45151412006422886
-0.22308152262159925 -0.11711292279903493 0.6454959006488712 -0.4029786283280859 0.5158549652708628 0.01469183452295581 -0.08373924256125592 -0.4844974735853067
-0.04860466866284743 0.6081775568633633 0.2979573173752416 0.2621005050390263 -0.06571395123952362 -0.6455869427234897 -0.2024257613905299 -0.06641976741467448
-1.1326464320561502 0.07956745093032883 0.33942172909373564 -0.026450465860079805 0.07128347425240635 0.26779369558056415 -0.5783256180713876 0.608881837965893
-0.5650702545218766 0.10378018698468305 -0.5672368478128207 -0.9470705007434623 -0.2526584887197523 0.763096390250833 -0.15030050602530143 0.09706217475346189
-0.29600696663547826 0.1123840053425933 -0.40202528910748253 0.6055041922239902 -0.2982445591576756 -0.2042007109120837 0.6064190090904938 0.7780516131599347
0.8997846859392601 -0.2261375673561511 0.34119101370779575 0.34405447635930936 0.41737206476051636 0.08865675895876764 -0.08464396977261837 -0.6360466873614586
0.43017553346394555 -0.31466845619414885 0.15550127856231122 -0.3199397798027421 0.49247214585560806 0.9457004814199539 -0.9386903827991628 -0.0668866141271882
-0.23718824070897665 0.08821533555088008 0.6202690826799762 -0.1107717391567476 -0.5967200858121408 0.10230810822560468 0.018243495684998987 -1.0941689520535733
-0.5594676433712696 0.21539442515972193 -0.04293223052832588 0.06081095648221322 -1.1846484560678818 0.12231896600252333 0.6881190923190328 0.4453106836393161
-0.14798615741673188 -0.3385569512601337 -0.4111939083399793 0.6104040950491155 0.22256259632576225 -0.5528138946966582 -0.43207835992374416 0.3922781331724009
-0.28658251147975794 1.008655972185337 0.013657385869125035 -0.1470415860070884 -0.3450983527908807 0.06802415696250269 0.1492253132426713 0.03398235432985114
-0.39505268855924974 0.2831263309703224 -0.09514927037011384 0.7965757671648955 -0.21805481210044766 0.12313369039019909 -1.2377692693123235 0.42860436760656045
0.33223930903154225 0.11325480494342709 -0.005195401303011033 0.20355198449188885 -0.09309783275530628 0.016528869424264504 -0.06280379262322476 0.022401020270569127
-0.19248388354953316 -0.6410151583283293 0.228263255019132 -0.8436626445066988 0.20025899342415587 0.5009896050569688 0.8722592380803236 0.13513438481333964
0.2958606435510131 -0.48300580551552674 0.30150729426131334 0.13667770660778514 0.46621230562145255 -0.3920817564354263 -0.4153457062461471 -0.1963466802502655
1.089442118395796 0.38450193917618786 0.17236870966399065 -0.7084270201138323 0.6697945866219888 0.15833450027586998 -0.15711029370932733 -0.801623675141633
-0.5423049483130068 0.702099889270558 -0.3093042150748835 -0.14023219673585677 -0.3116282298797309 0.8912047472157152 -0.25240001703321363 -0.6952551618818782
-0.3331026314022058 -0.05985148480006023 -0.053804884848095466 0.8156568557583298 -0.7391795975819828 -0.028991306970257105 -0.07966484186863605 0.7635661274268114
0.2286175845781151 -0.5154453637271691 0.12101674286340973 -0.42879731774058283 0.3992188762277417 -0.4794990657614823 0.006279265446891187 -0.0010443563114682138
0.7974121522385077 -0.07144202984517448 0.21247949325220197 0.28160345478982884 0.8506328963451147 0.2934535959541451 0.16178024505052385 0.26139040692083165
-0.006555435298653303 -0.158080962530814 -0.10242334977830633 0.21957946707801498 -0.18099318330978362 -0.3430194366948514 -0.16037504618884038 -0.3138811653691863
-0.2187973104154167 0.05482565669510249 0.005803035400778813 0.422547075957253 -0.3344927325776213 -0.20593752495707598 0.03022994110049126 -0.18294782249224442
-0.33759447794033093 -0.0913485258292882 0.4515356611526758 0.12559261277471648 0.7044394639384256 -0.7187831235306434 0.13347848517803207 0.32624291858926
0.0722774070780418 -0.3460638199828393 -0.3666467282896339 -0.15498139434479036 0.1865805562584831 0.24846506422155246 0.08623894462303994 -0.3213741707373651
0.012152970169124528 -0.07211412672764726 0.1479353426757929 -0.2833158718919984 -0.33448214305277935 -0.45224527866778297 -0.9759065032534131 0.006681942685653791
0.2184967339710885 -0.024306321874613426 -0.1577082414506366 -0.07142992127741518 -0.7486031819661616 -0.1081895687255028 -0.5148730987343445 -0.393998892686285
-0.08228322211629488 0.3647039704008284 0.1284975615030365 0.7163474349605888 0.29365799730041364 -0.35523716779860925 -0.7320002280862883 0.5082930929512967
0.24236930529799283 0.5685820229053692 -0.048894673051851675 0.3385996230199242 0.5796042175700364 0.09878352107715198 0.19764853251500009 -0.13252807327436852
0.6083510785578075 -0.23424680649570592 -0.5430945663653248 -0.13874455483687118 -0.12306952804809988 0.20846079184218194 -0.18078978093375003 -0.5644035191650613
00000000: 033a 2345 18a9 f0bf 6f86 8c8b d30f ee3f
00000010: 4630 cfb0 cfdb c7bf f1b8 6bd6 b19d cb3f
00000020: 17b9 7fd4 e53c e0bf 8ccd 7add 960e 873f
00000030: b3cf 727a 0c94 b73f 5eb9 6e8a 3317 91bf
00000040: d124 6a21 e6a5 d1bf ee0a 6476 059b e8bf
00000050: 681e ed92 df3a e9bf 58c4 bccb a9b0 de3f
00000060: d2e5 3b24 6863 ea3f 10b7 ad00 3521 c63f
00000070: 19d1 4716 312b dcbf 9dcc 9291 35d4 d43f
00000080: 348a d334 20ff dfbf 304b a76d c5d2 dabf
00000090: f492 d1e1 eb3b cdbf 5545 5f99 9ff6 b43f
000000a0: ab38 9ed8 a0e7 da3f 27ff 51d8 0ec8 bdbf
000000b0: 079f bff7 60b7 dd3f caea d67a 9be5 dcbf
000000c0: 2a36 0072 ef8d ccbf 365f 5ccd 1cfb bdbf
000000d0: 9ea5 df04 e7a7 e43f 05fd 69df 66ca d9bf
000000e0: 8c29 aa45 e281 e03f 63ce 5aa6 c016 8e3f
000000f0: 7c41 315c ef6f b5bf f8c8 02b1 0102 dfbf
00000100: 4400 ae0c b6e2 a8bf 5b75 9cc7 3076 e33f
00000110: 6bc1 6e91 bb11 d33f c717 5a32 41c6 d03f
00000120: 18f6 7627 a1d2 b0bf bc1a b7f2 a5a8 e4bf
00000130: 1b26 855c 16e9 c9bf b09c dac8 e200 b1bf
00000140: c8cb 79dd 511f f2bf 9264 924f 885e b43f
00000150: 7599 80ea 15b9 d53f dcff 54b7 d415 9bbf
00000160: b9ca a83e a23f b23f f3fb 252b 8823 d13f
00000170: 72c7 01ba a481 e2bf e523 a6c3 f57b e33f
00000180: b6a4 e336 0e15 e2bf 306d 129d 5691 ba3f
00000190: 7426 cee3 cd26 e2bf 6c62 76cb 664e eebf
000001a0: 75eb 8682 8e2b d0bf dc55 fa1e 496b e83f
000001b0: c4b7 f906 0c3d c3bf 4fa8 3e12 11d9 b83f
000001c0: 4b9a 4534 c7f1 d2bf b038 8abb 32c5 bc3f
000001d0: d96b 3847 c8ba d9bf 872c e653 4a60 e33f
000001e0: a7b2 f258 7016 d3bf 14fb 97b7 3f23 cabf
000001f0: bbec 76d6 c867 e33f 1ee7 237f cce5 e83f
00000200: c59f f140 09cb ec3f 8488 1868 13f2 ccbf
00000210: bb19 64d5 12d6 d53f 635c 0011 fd04 d63f
00000220: 3044 1a52 39b6 da3f 5d19 4c98 35b2 b63f
00000230: 3a1d fa29 3aab b5bf 8f4a 1e95 7e5a e4bf
00000240: 8616 f1f5 fe87 db3f 88f2 1b2a 8723 d4bf
00000250: e4a5 f444 77e7 c33f 4f4d bcb2 e479 d4bf
00000260: 8402 29e4 a984 df3f 3653 f0a7 2d43 ee3f
00000270: e425 e669 c009 eebf ef68 372c 7b1f b1bf
00000280: 56a0 6b2c 2f5c cebf ad5a 32bd 4795 b63f
00000290: c892 1a8c 3ed9 e33f 64d0 ff64 895b bcbf
000002a0: 1fbe adb8 5418 e3bf 5ad1 f13a dd30 ba3f
000002b0: 2cc0 5345 6cae 923f 27e6 954d b781 f1bf
000002c0: b764 eeaf 28e7 e1bf ef9e e665 0b92 cb3f
000002d0: 1582 209c 36fb a5bf 5dbf a81a 9d22 af3f
000002e0: 5a18 81f0 51f4 f2bf c74f a9b6 4b50 bf3f
000002f0: 306e a854 1205 e63f b393 b261 f87f dc3f
00000300: 0acb 2edd 35f1 c2bf 35ba 5fc6 eaaa d5bf
00000310: d39d 2841 0051 dabf db92 322b 6e88 e33f
00000320: 8818 4460 ee7c cc3f 9de3 cfc3 a6b0 e1bf
00000330: 95a2 4bfe 2ba7 dbbf 4a54 3abe 151b d93f
00000340: 8b4f 9a2c 5e57 d2bf bd37 d771 7423 f03f
00000350: 4b03 414d 67f8 8b3f 90b5 8639 42d2 c2bf
00000360: b9fa c866 1716 d6bf 74ee 7df9 076a b13f
00000370: a06a 0ea8 d019 c33f 38c0 f998 2266 a13f
00000380: 37c4 6312 8b48 d9bf 3fdb 09e7 bd1e d23f
00000390: b457 7adc b35b b8bf 7d4c 9876 8c7d e93f
000003a0: fd79 5a57 38e9 cbbf 6afe 4285 b085 bf3f
000003b0: 3f0b 3b26 e7cd f3bf 83bf 7203 416e db3f
000003c0: 731c afa9 6843 d53f 07cd 5853 44fe bc3f
000003d0: adf8 f9ea c547 75bf 1ddb 36ce fd0d ca3f
000003e0: 6234 0373 42d5 b7bf 4de1 77a6 f1ec 903f
000003f0: 0fab 61cb e813 b0bf 8325 d605 4bf0 963f
00000400: bc18 6dd8 4fa3 c8bf 7f55 a838 3283 e4bf
00000410: 5bc4 97f7 ba37 cd3f b06b 60cd 48ff eabf
00000420: d849 be31 16a2 c93f 6161 2b5a 1b08 e03f
00000430: 340b a634 8ce9 eb3f cd4f ab61 154c c13f
00000440: 4768 0e7b 61ef d23f a2e8 9d2e 91e9 debf
00000450: 05e6 1640 e54b d33f 1982 fcb3 a77e c13f
00000460: e6c2 6823 6cd6 dd3f aee5 4f14 de17 d9bf
00000470: 4e1e 3728 0695 dabf 0d31 2d55 e321 c9bf
00000480: 8751 d6db 5a6e f13f e3a8 8005 ae9b d83f
00000490: cc26 6e89 2d10 c63f 8cbb 5f24 6fab e6bf
000004a0: 7889 920e f56e e53f eeb5 410e 4e44 c43f
000004b0: 9e5a acaa 301c c4bf 34d8 8db1 e6a6 e9bf
000004c0: a3d3 2ee8 8f5a e1bf 0f27 de2f 9a77 e63f
000004d0: a4bd 10e8 a3cb d3bf b5d2 69ed 20f3 c1bf
000004e0: 0d01 f687 b7f1 d3bf 309b 6ad1 bf84 ec3f
000004f0: 3fb8 aa66 5227 d0bf 210d d5c0 873f e6bf
00000500: 8760 05b3 8d51 d5bf 45a6 aa93 daa4 aebf
00000510: 6642 9359 508c abbf d9af 0768 dc19 ea3f
00000520: 9685 aff8 5ba7 e7bf 64e2 38ad e5af 9dbf
00000530: 6d80 7742 ea64 b4bf 7135 343b 226f e83f
00000540: b0d9 864c 5743 cd3f 11a8 8246 877e e0bf
00000550: b3e5 dd08 f4fa be3f 94bb 134e 6a71 dbbf
00000560: 7704 5654 cd8c d93f a31e 7ad9 1cb0 debf
00000570: 95fb cb7b 49b8 793f 1809 000d 591c 51bf
00000580: 0184 697d 6684 e93f 7ab0 be5d 064a b2bf
00000590: c55f 4b2d 8732 cb3f d6d3 307f ca05 d23f
000005a0: 6187 d67a 6238 eb3f d010 6197 f1c7 d23f
000005b0: 36c0 d00e 37b5 c43f 7fa3 4dd4 9eba d03f
000005c0: 690a 8043 dfd9 7abf 7a53 183a ff3b c4bf
000005d0: 2604 a5a9 6a38 babf 4391 fc12 2e1b cc3f
000005e0: 6ba6 8edd c82a c7bf 69ca 9fcb 07f4 d5bf
000005f0: 1ddf 3c65 2b87 c4bf 52d3 0507 a116 d4bf
00000600: cbee 57de 8c01 ccbf ca70 f9c4 1b12 ac3f
00000610: 42d5 3874 ecc4 773f e56f 10e4 020b db3f
00000620: 69ea ca34 5468 d5bf 8ddb 5a2b 295c cabf
00000630: 1fe5 8b01 99f4 9e3f dd42 3d91 d56a c7bf
00000640: 2e17 84de 259b d5bf a77f f9f2 9d62 b7bf
00000650: 0539 68d4 f5e5 dc3f e148 3e32 6b13 c03f
00000660: eb12 74a1 c48a e63f 0e63 0f77 4500 e7bf
00000670: 1c96 47b0 d215 c13f 1a1e 79fa 29e1 d43f
00000680: 6bce a3ab c580 b23f 96ed 49dd e825 d6bf
00000690: bb1e ccd6 2377 d7bf 6e84 192a 6ed6 c3bf
000006a0: e38e 9925 dfe1 c73f 90da 8306 b4cd cf3f
000006b0: b829 cc66 c113 b63f 8e26 46f8 6491 d4bf
000006c0: fdbc 670b a8e3 883f cff5 df47 1276 b2bf
000006d0: dc87 5b99 8bef c23f ddaf 0de5 d821 d2bf
000006e0: d87d 60ca 2768 d5bf 9681 692e 96f1 dcbf
000006f0: 06ab 6d46 a03a efbf 6d25 f054 865e 7b3f
00000700: 4525 5873 b3f7 cb3f 176a 26a6 c1e3 98bf
00000710: 3a8a ab9d c82f c4bf 6ea4 d737 3b49 b2bf
00000720: 0a3d 07a9 8ef4 e7bf d1c2 71c3 4fb2 bbbf
00000730: 1def 1426 d779 e0bf 15dc af21 4737 d9bf
00000740: d6bd ff63 8310 b5bf 3df2 6552 4f57 d73f
00000750: a5b9 22ac 9b72 c03f bd55 b774 51ec e63f
00000760: f44d a7e9 4acb d23f 3c32 81ac 34bc d6bf
00000770: dc71 09be 8b6c e7bf b145 60e0 ef43 e03f
00000780: 3491 e717 f505 cf3f 4f1b 2fed d231 e23f
00000790: 2ea2 69fb b808 a9bf 84be d3c0 9dab d53f
000007a0: 80c8 e224 1e8c e23f f3fb 6878 e049 b93f
000007b0: 7e8d a00f 8c4c c93f 7ff5 410e aef6 c0bf
000007c0: 2a8c 5cae 9c77 e33f 2fb6 8ba2 ccfb cdbf
000007d0: 7494 25db 0761 e1bf 53df c2ae 61c2 c1bf
000007e0: 57ca 190e 7c81 bfbf 89ef badd d7ae ca3f
000007f0: f2dd 479a 1e24 c7bf bdf5 11f8 970f e2bf

topology.conv_GAT.lin_l.bias f8 [32]
-0.6406829628240845 -0.6877297005663241 -0.11716449351132391 0.05722636137878098 -0.36471313286704854 0.05727358334527194 -0.10879504840360031 0.13904755199245084
-0.7681109164737299 0.11865590934047887 0.33834572432398896 0.003218321762070978 -0.7145616997448074 -0.5647430038788882 -0.6208163133737961 -0.09472463971991417
0.7455195552222696 -0.3360420578073102 0.3589821551009063 -0.7938163162583141 0.04148790475405566 -0.24014789249778024 -0.4383349871691197 0.1802886507453527
-0.5512041192490361 -0.0030882733337738878 -0.39174679409138663 -0.3136821562664212 0.23247744344698354 -0.2507761665337492 -0.3059160902567147 -0.34172407757868206
00000000: e9e1 8d8e 7980 e4bf 9072 8db7 e101 e6bf
00000010: b42f e203 7efe bdbf ec8f 2e0d c64c ad3f
00000020: b87b 85c0 7557 d7bf 780c c98e f652 ad3f
00000030: 1736 dc06 fed9 bbbf 6abe 3268 4fcc c13f
00000040: 7891 3e58 5d94 e8bf 0031 18d2 3b60 be3f
00000050: 35a1 2dd3 74a7 d53f 6e4a ea56 4f5d 6a3f
00000060: 8e19 6c7f b0dd e6bf 7fbf 89eb 5f12 e2bf
00000070: 9270 582c badd e3bf 1ff0 b8bd df3f b8bf
00000080: dfa8 86d3 4bdb e73f 643a 178c b681 d5bf
00000090: 2d62 004a 90f9 d63f 768a ab79 f166 e9bf
000000a0: 764b 3214 e73d a53f e89a 3d88 2abd cebf
000000b0: 6b5f a530 ae0d dcbf df47 65d1 b213 c73f
000000c0: 030b 33d2 76a3 e1bf a484 071f 944c 69bf
000000d0: cddc 3b25 6112 d9bf d131 a052 5e13 d4bf
000000e0: 45cc 5424 d2c1 cd3f a93c 787a b70c d0bf
000000f0: ed41 be14 2194 d3bf 7c32 5daa cede d5bf

topology.conv_GAT.lin_r.weight f8 [32, 13]
-0.5422702033161803 -0.3074335943444459 -0.4130647774569344 -0.06833320091627983 -0.4352655304248688 0.3889391918867305 -0.03745763014794756 -0.1457304791444593
-0.00017127319918102622 0.16256093014774878 0.45456300798647936 -0.18355864604587344 0.15257335312900241 -0.7531948899809023 -0.26475919147739524 0.02608430394472568
0.0806850286033362 0.1489617124163056 -0.5860078059356124 -0.46655001337540575 -0.48165127410319586 -0.8449028941566188 0.1317022119592291 -0.35653802133572554
0.36802248661449394 -0.8085850030129503 -0.17198131943855408 -0.7433695843372021 0.09616307164480786 0.4224765505338817 -0.4380159860722619 0.22604982730508114
-0.5137001920823643 0.4117605024777424 -1.0620176560667038 0.3704452925068583 -0.2664592005002676 -0.06552380851036613 -0.4949247793614459 -0.7796690017314353
-0.4658536575189007 -0.8776999825116444 0.026697151785933418 -0.3179263341673865 -0.2686053442229117 0.4700906919037747 0.09268367929138493 -0.8189642957690563
-0.1867018147154723 1.1510395596488714 -0.06296820308734483 0.767541231297339 -0.1348878944311784 -0.6513683512600725 -0.4821017621112013 -0.23932373871401197
-0.15347083695794758 -0.7777852494826575 -0.19302803092755524 -0.08173445374826761 0.08176293990680307 -0.6401421917339386 0.7923988066912531 -0.32879247341568335
-0.04201664470233355 -0.04386937599902181 0.22347353379188428 0.5958361964954406 0.8280542720898653 0.8469552659146918 0.2694586591569415 -0.33147061116504173
0.29248626284054413 -0.6844952214334841 -0.7441842385252331 -0.5785210926338055 0.3169274719216605 0.04061555719875501 0.016542391841231737 0.16474663032918796
0.3900247872379783 0.71426770549514 0.18627848201526 -0.7872977280476868 0.22134579985823932 -0.6357764823604949 -0.6099097446338322 -0.5886735765972476
-0.06423768570435086 0.12826332291327477 0.34803167287874387 0.044902412129967956 -0.16500600854819514 0.26401554266890176 0.009441005604874531 -0.8332807560668681
-0.2843135449120778 -0.07900648726029844 0.2266238058751023 -0.8656173554242297 0.7310471382694437 0.8425680411924307 -0.5804737484154776 -0.18246949708388283
-0.385633969692792 -0.28283403041263727 -0.5550107032765298 -0.1520030794694658 -0.12641419412545657 0.025731039582176648 -0.037977653358297496 -0.35413721951759725
-0.5346832975455929 -0.3260165265366154 -0.34579278467840524 0.17545819178374406 0.14037901373556463 -0.5177019445190223 -0.4056782692920707 -0.30014291645706603
-0.6191546408028463 -0.001801668588992622 -0.6863979290490307 -0.567613494893005 0.12305863118820601 -0.1985109629864088 -0.04814622430240967 0.282193525715779
-0.3282312093934615 -0.19742110753547545 -0.580005253428469 -0.6706571968982118 -0.3214228657898995 -0.6020616357215591 -0.26375808219803687 0.013793267067406193
-0.8918553679053136 0.4013272503323103 0.7825351004373305 -1.0478283789694716 0.3574787951979134 -0.3544914077951858 -0.6875176082681896 -0.20698083869758194
-0.40035536731595467 0.04057186368512537 -0.4207022316983067 0.009102801773621591 0.06811176463763238 -0.3235606908968729 -0.6839842290169754 -0.26730551301968564
0.18577788056135963 -0.509629459833026 -0.3290745518701249 -0.8934729617652406 -0.17147554271770293 -0.4588504373901402 -0.19085567825762897 -0.08195047495557757
-0.05546502887174094 -0.18062861318241558 -0.5754125636827865 0.11237482919674815 0.09274075878177314 0.022034537385566457 0.6170068835281106 -0.49251119067274257
-0.35383023142806397 0.23467581736867357 -0.318637160067109 0.42282877840314637 -0.2665364916675437 0.01645165009712885 -0.6593031570845922 -0.8127353199570649
-0.16238440458924294 -0.07053891780792289 -0.04811320216441008 -0.08286654344409886 0.675226887245543 -0.37872335777077626 -0.266895473877627 -0.9594187064622842
-0.5220207140587957 -0.6779807935204789 -0.5370776259373721 -0.6907186563975863 -0.2680259728896316 -0.5757356004807301 -0.1642586787642899 -0.028360897455078853
-0.4207391974369269 -0.2331417313008017 -0.5620604121244186 -0.5110544069184607 -0.4751060441017293 -0.7875330027132497 -0.7815130825791486 -0.1333746927163095
-0.1925877729850241 -0.33418186501380653 0.6442122014078642 -0.47901276003128934 -0.3408529408389402 -0.6597137792895851 -0.054903484131283944 -0.27309732361649186
0.2902991675213836 0.5551740529316881 0.632246443818985 -0.26378112437469686 0.26699638461352726 0.3845628317100035 0.49241909635268344 -0.4206207876038831
0.1568485528598066 0.5911417930863205 0.18908603904018595 0.17989147352505952 0.1909982087400488 0.5240958443429454 0.5246189454933593 0.2937752006015858
-0.05975078947217443 -0.11847777996731837 0.7457877363059288 -0.15567190744255782 0.05088048603896127 -0.2669354780126544 0.06425420620253433 -0.6363942297770551
-0.648026383474004 0.5463006774632184 0.17977500201539431 0.1968728564477209 0.030093623612944168 0.15615004716433867 0.6837903173248395 -0.4019660979739877
0.6772916125673825 0.3720238076324742 -1.0067406126545562 -0.7120368867545809 0.3509048519961555 0.12681081060899427 0.36911420421504515 -0.15865079902136603
-0.49458603016741526 -0.7360188312292628 -0.1222204306103108 -0.7396594967088935 -0.13783322558923025 -0.3838366110834093 -0.4318860097415647 -0.15015762620950585
00000000: 11d3 9a0a 475a e1bf 0bac 59f4 fdac d3bf
00000010: baa6 933f a76f dabf 719a 2adf 487e b1bf
00000020: d20e 90f4 63db dbbf b550 5235 61e4 d83f
00000030: d033 f180 a52d a3bf b659 fadc 4ba7 c2bf
00000040: 1e47 0d94 f972 26bf 15c4 4beb cbce c43f
00000050: 017e 5171 8f17 dd3f e320 d586 d97e c7bf
00000060: 530e f70c 8687 c33f f36e 7f2b 2c1a e8bf
00000070: fc7d 2d89 d0f1 d0bf 55ad 8601 d8b5 9a3f
00000080: acce 2027 c6a7 b43f 8793 9769 2d11 c33f
00000090: a436 3671 93c0 e2bf a553 5996 f4db ddbf
000000a0: b665 96dd 5fd3 debf 8459 56cb 7109 ebbf
000000b0: f27e 963a 9edb c03f 2eb8 5ad9 84d1 d6bf
000000c0: 19eb 0c30 ae8d d73f fd40 ffa7 eddf e9bf
000000d0: 7379 41df 7b03 c6bf 8038 b202 afc9 e7bf
000000e0: 701f cc9f 249e b83f a9ac f715 db09 db3f
000000f0: 3c8e d333 7408 dcbf c358 c563 33ef cc3f
00000100: 602a 9e62 3b70 e0bf a34a fbb8 485a da3f
00000110: 0f4c c939 06fe f0bf 068b 112c 60b5 d73f
00000120: 367c f7e3 aa0d d1bf ca50 a916 2bc6 b0bf
00000130: 6398 55fb d8ac dfbf 0587 0468 0cf3 e8bf
00000140: 9f00 f1db 8bd0 ddbf 09cb 1246 1e16 ecbf
00000150: d489 4487 7f56 9b3f 574f f2b1 e758 d4bf
00000160: 74f7 3d78 d430 d1bf ca5d f844 f715 de3f
00000170: 7cf0 6d1b 1eba b73f bd6e 5d9c f434 eabf
00000180: 6345 2756 d8e5 c7bf 9d81 1175 a86a f23f
00000190: 3eb2 f224 af1e b0bf d71d d8a0 b28f e83f
000001a0: afa6 9aab 0144 c1bf 6af7 c970 02d8 e4bf
000001b0: 2724 6759 c1da debf d270 7707 29a2 cebf
000001c0: 97e3 cfb0 eea4 c3bf d9da 3ae4 9de3 e8bf
000001d0: b3c6 057c 24b5 c8bf d123 ce95 8cec b4bf
000001e0: 29ae ec80 6aee b43f 552f 497a 0b7c e4bf
000001f0: 821b 04be 545b e93f 9d71 1f96 ef0a d5bf
00000200: 7db2 c4a5 3483 a5bf 5a67 6cfe 0b76 a6bf
00000210: 502f 94df c79a cc3f 0012 3712 1711 e33f
00000220: c10c 3eac 6b7f ea3f 2bea 08ee 411a eb3f
00000230: 2dff 2c88 cf3e d13f c27e a282 d036 d5bf
00000240: 3e7b 5b4d 18b8 d23f 2867 ca85 62e7 e5bf
00000250: e843 d576 5bd0 e7bf 7511 9daa 3e83 e2bf
00000260: 1ee1 c629 8a48 d43f c443 c1f3 8fcb a43f
00000270: ffa4 d21f 7df0 903f 9eed b1e6 6a16 c53f
00000280: 2041 7486 2af6 d83f 4719 76f2 47db e63f
00000290: d51e 1a2a f9d7 c73f e1c1 4501 8b31 e9bf
000002a0: b8c1 bf25 0f55 cc3f 63bc e9eb 4758 e4bf
000002b0: 42d9 d670 6184 e3bf 1b25 f0f7 69d6 e2bf
000002c0: 995a 4587 e171 b0bf af2a 98bc ee6a c03f
000002d0: c520 3fa3 2646 d63f 042e 38ef 72fd a63f
000002e0: c4d2 2db9 ea1e c5bf 1583 5972 a1e5 d03f
000002f0: daa9 8352 ce55 833f f12f 7667 3caa eabf
00000300: c942 4d70 3132 d2bf 3e6f f4e6 c439 b4bf
00000310: 5343 5d45 0202 cd3f d6b4 0c2b 23b3 ebbf
00000320: ec73 d6f7 bc64 e73f cf70 b240 51f6 ea3f
00000330: 3831 b4ae 3d93 e2bf 8415 3f15 295b c7bf
00000340: 1da9 031a 3aae d8bf 835c b4e7 f319 d2bf
00000350: c115 70ce a5c2 e1bf f137 9b3f d674 c3bf
00000360: 9e6f c21e 572e c0bf 8f78 fdd5 3c59 9a3f
00000370: 4f30 4e96 ce71 a3bf 0af7 0728 2faa d6bf
00000380: d09f 9525 201c e1bf b289 db6b 74dd d4bf
00000390: c0bc 580f 7821 d6bf 9663 c3fd 6975 c63f
000003a0: 75fd 8484 f0f7 c13f 241d 19ab 0391 e0bf
000003b0: 35ab d3fc a1f6 d9bf 42c9 93a2 8a35 d3bf
000003c0: 7846 ad64 1dd0 e3bf 33c1 bfea be84 5dbf
000003d0: ced8 29ca f8f6 e5bf d5ad aac6 e329 e2bf
000003e0: 7ea1 713c c580 bf3f a848 f6a6 ce68 c9bf
000003f0: 9005 9c35 9fa6 a8bf b3e6 056f 750f d23f
00000400: c2c5 7779 bd01 d5bf efd5 3348 1845 c9bf
00000410: 8e78 5f2d 678f e2bf c027 f014 0676 e5bf
00000420: 1145 3036 3192 d4bf 2a36 73c3 1644 e3bf
00000430: ee28 4694 69e1 d0bf 2210 adf7 a43f 8c3f
00000440: b64a bd44 148a ecbf aaef ca7d 58af d93f
00000450: 8f36 0b0d 870a e93f c7e9 b7b0 e7c3 f0bf
00000460: 83dd 98bd eee0 d63f 655f ccba fcaf d6bf
00000470: d3f3 5ded 2400 e6bf f668 8d1e 597e cabf
00000480: 1e9b 591e 6c9f d9bf 26ad 54d7 d5c5 a43f
00000490: 78e6 9f0d c9ec dabf d87e 5b5f 7da4 823f
000004a0: 426b 97c9 c56f b13f 4416 6be6 37b5 d4bf
000004b0: 2572 d3e4 32e3 e5bf 7e71 1d95 881b d1bf
000004c0: de65 aad0 91c7 c73f a6f3 e170 e24e e0bf
000004d0: 3e98 8eb5 8e0f d5bf fe8a d49b 5497 ecbf
000004e0: 44a8 041c e9f2 c5bf 0224 9639 ce5d ddbf
000004f0: 49ab 2f78 f56d c8bf 656c d3d1 b4fa b4bf
00000500: 4ad2 268a e965 acbf 428f 2ba1 d61e c7bf
00000510: e633 d79b c769 e2bf a22a 4bc8 98c4 bc3f
00000520: 2954 f9bd dbbd b73f 9761 d0c5 3890 963f
00000530: ac1f 4538 85be e33f eb9e 36a8 4d85 dfbf
00000540: 1575 148e 27a5 d6bf c758 6170 db09 ce3f
00000550: c5d3 711d 8d64 d4bf 3025 c36f a00f db3f
00000560: 74c5 b912 ef0e d1bf d194 878c b3d8 903f
00000570: f27d 3aef 0219 e5bf 4da1 7080 ed01 eabf
00000580: 73ad 8b1d 03c9 c4bf f98b 14a9 d60e b2bf
00000590: d29c 9a2b 4ba2 a8bf 4a64 06e6 bd36 b5bf
000005a0: ff2e c36a 759b e53f acd5 f6e4 003d d8bf
000005b0: 244f f0c0 d014 d1bf e5a2 eddb 8eb3 eebf
000005c0: 71f2 d6c8 64b4 e0bf 1c92 efc6 04b2 e5bf
000005d0: 070f da6a bd2f e1bf c7de fe02 5e1a e6bf
000005e0: fe87 0269 5627 d1bf 22a5 e610 6d6c e2bf
000005f0: d03a b0aa 6d06 c5bf 7e16 389c a30a 9dbf
00000600: c6c2 4819 64ed dabf 9787 a297 96d7 cdbf
00000610: ce6b 0e1e 66fc e1bf 7b20 86c5 8e5a e0bf
00000620: 8a20 632e 2368 debf 1e92 6569 7833 e9bf
00000630: db5a 62b9 2702 e9bf 0f51 aa03 6c12 c1bf
00000640: 6242 4a55 b7a6 c8bf 32a3 4955 3c63 d5bf
00000650: e063 17e8 629d e43f 8ede ac22 25a8 debf
00000660: d383 69da 88d0 d5bf 5a9e 5812 601c e5bf
00000670: 0a86 8f39 4f1c acbf a2b5 6332 6d7a d1bf
00000680: 12dd a3f5 4294 d23f 6dbd 1d60 fcc3 e13f
00000690: fcdf e6e4 5c3b e43f 9d73 9f39 cae1 d0bf
000006a0: 7c2e 0401 7816 d13f 4ae7 5c6c ad9c d83f
000006b0: 76ae b062 cb83 df3f 32b1 b173 73eb dabf
000006c0: 1499 7a06 9d13 c43f 7058 9331 a2ea e23f
000006d0: 4465 e7a8 f833 c83f dc47 cf0d af06 c73f
000006e0: 2009 111a a172 c83f c584 eda5 64c5 e03f
000006f0: 0731 b8ab adc9 e03f ea6a bd7f 36cd d23f
00000700: 37e7 62cd a797 aebf 2a27 434e 8f54 bebf
00000710: 8523 263e 7edd e73f ae94 af9b 0eed c3bf
00000720: f676 15cf 010d aa3f ee36 0d8b 7815 d1bf
00000730: 0a34 45b2 f672 b03f 8e2d 886e 575d e4bf
00000740: 7de9 7ed3 a1bc e4bf e096 ef8e 4b7b e13f
00000750: a0b0 2505 de02 c73f 48df f437 2133 c93f
00000760: d462 f1e4 dcd0 9e3f 087b eb88 b9fc c33f
00000770: a969 473b 9ce1 e53f 5d89 3903 d0b9 d9bf
00000780: d49f ba75 5fac e53f 105a c7f1 3ccf d73f
00000790: 4c80 6e0b 9c1b f0bf b502 c594 01c9 e6bf
000007a0: 8432 d59f 3975 d63f 0925 2c2e 563b c03f
000007b0: 8aee e52e 919f d73f fcf8 a35c ab4e c4bf
000007c0: 4129 282a 4ca7 dfbf a0d5 2b5d 778d e7bf
000007d0: 95d3 5f90 d649 bfbf eb4b 9164 4aab e7bf
000007e0: 979d 1ae6 84a4 c1bf f015 e76e c790 d8bf
000007f0: 4528 dc37 05a4 dbbf 064c e876 5d38 c3bf

topology.conv_GAT.lin_r.bias f8 [32]
-0.3966393142566594 -0.6629550157649778 0.11543157799026744 0.14557345293909035 -0.7243825436720511 -0.17703817504190375 0.3979808414735258 -0.1740110446285451
-0.784566707787655 -0.20339973857868815 -0.5277072710766475 -0.1592695467954259 -0.5078939229772105 -0.1509084996935372 -0.4218053090036705 -0.6881296209949644
0.688353716392504 -0.05572748935956001 0.2425880464236723 -0.4624149813241419 0.06635859966984364 -0.5606842021504554 -0.39068352170462056 -0.0052823273321781945
-0.36829564119303193 0.030967758703913738 -0.7335478043553613 -0.623015779305378 -0.5643018570935031 -0.6462635865093698 -0.1014450751130309 -0.46698873661681434
00000000: f192 c2dc 8962 d9bf 77c0 ed6f ed36 e5bf
00000010: cdd4 6484 ec8c bd3f 1e04 c5a1 26a2 c23f
00000020: 0bac db4c 242e e7bf 7368 f9d9 2fa9 c6bf
00000030: fd0d a4a2 8478 d93f 5444 e970 fe45 c6bf
00000040: c84e efa3 2b1b e9bf e2ee 9aac 0009 cabf
00000050: e656 e45b fae2 e0bf 9f17 5ecb f162 c4bf
00000060: c1c6 a0c1 aa40 e0bf 36a3 6f3f f850 c3bf
00000070: cecb dcb1 dbfe dabf c5a1 3269 2805 e6bf
00000080: 328c 7f5f fe06 e63f f832 9340 5088 acbf
00000090: 5925 e506 200d cf3f d1ed 7d01 3598 ddbf
000000a0: fcec 638f e0fc b03f 86d7 f3fe 1ff1 e1bf
000000b0: 49ad 3375 f500 d9bf b42e 37f2 eba2 75bf
000000c0: 32bd 8be1 2792 d7bf 5675 741b 03b6 9f3f
000000d0: c548 b83e 3979 e7bf 0f46 a0c9 beef e3bf
000000e0: b73c a9c4 c20e e2bf bce8 14f9 30ae e4bf
000000f0: 1f63 f3ef 4df8 b9bf 1fa7 d7b9 24e3 ddbf

topology.convs.0.eps f8 [1]
-0.8170985747116338
00000000: 6bd4 ffe8 ab25 eabf

topology.convs.0.nn.0.weight f8 [32, 32]
0.08780730881523238 0.12857513061107612 0.45121842697411424 0.7479624636185428 -0.44872267728344684 -0.31659277058640545 -0.10228921708532543 0.3025369824230187
-0.5570324428201564 0.5645321804833986 -0.29696684477069957 -0.49099488568602623 -0.5966482976143097 -0.12954740127410036 -0.03179665714184143 -0.5246427926513043
-0.3508207257684824 0.6795372810113919 -0.7663553160193722 -0.45868210401513426 0.05130286425533647 0.4377418029538042 -0.5243016808999554 -0.12232479275882342
0.3288672310198592 -0.20699878608748712 0.13077513020504697 0.37957488221758123 -0.5088457937659036 0.41240611110599246 0.7374441839605754 0.1925663733626516
-0.562430138183401 0.05597511695624085 -0.2760318619040744 -0.12433927822515431 0.122765354888372 0.23896234618301393 0.17777838283640807 -0.08744623865778603
0.44089335821018466 0.030345779905494405 0.35869343020212757 0.25004708929109765 -0.09896039243406533 -0.38163270893000095 0.4152791839904313 0.0969316795817221
-0.29560628456663124 -0.5389178708796193 0.3359178416813151 -0.3678598154497839 -0.2469355423138345 -0.5618940144966661 0.39187251193187567 0.39492520901959294
-0.15896090976430127 0.053815717310947475 0.43234264121139454 -0.6421370181058231 0.212814823515741 -0.44816437017520616 -0.3030980516713614 -0.43323334984189776
-0.33322048176098257 -0.024236366495868432 0.0042877006375657886 0.7150289891426649 -0.2129509741006457 -0.18119653680054026 -0.10086005500129326 0.6752935538612006
-0.9560453485428715 0.4200060577732396 0.30406564162422695 -0.7272310960751585 -0.6853268971500995 -0.12582443596392964 0.3523670101700543 -0.21924022263367243
-0.451068495764898 0.49932903387636374 -0.35485899780097385 -0.5322977738531158 0.7330520135533227 0.16105711574360776 -0.3205242551218614 -0.16499488082481376
0.6669450247209655 -0.13658929393013428 -0.3804371838291141 -0.13632429080635403 -0.4023277529473051 0.03196344987104293 0.5851082847006766 -0.03264507153728877
-0.31052374833170393 -0.6184680108420274 0.05143116457698251 0.49314538695068183 0.4004559042497237 0.38755190542699514 -0.029859454759434818 0.5737127887132438
-0.8060845596576791 0.2591139136607277 0.18615458486193667 -0.4435271845187654 -0.7231225806177282 -0.16760041093708383 0.0903179676641759 -0.13845539480973604
0.0544516798844674 0.3364408940062536 -0.5689243251485878 -0.6245025808476412 0.793503095887532 -0.04480978432839303 0.06567583248768664 -0.21728124320024023
0.2777093382209804 -0.02800373044408479 -0.27753692978746375 0.6053261551425693 -0.6437857627635877 -0.04219700180749631 0.14940703592563429 0.257079060343142
0.6985812334804135 0.20956214619246388 -0.26223227424144324 -0.2460138288486403 -0.11064252893850865 -0.331509973656376 0.22046686468307056 -0.5344068672909982
0.34920843761348164 -0.7206351069740786 -0.6246755690037715 0.5185370198388062 0.5598972924172761 0.3724863158311377 0.0314761838000857 0.16969051059972015
0.15560524566295328 -0.17692905421174676 0.5736245895685098 0.5501279648516028 -0.20830277272949563 -0.2011659046427802 0.40080529464129855 -0.2677127893083894
-0.29632062375874213 0.5078806669410336 0.5425948490992458 -0.06162525628281095 0.1311290798304474 0.45701217747439155 -0.5247039160517036 0.0694399249419574
0.05493323443764366 -0.12162624405909024 0.4252177351760056 0.8544682551247323 -0.6065723766707091 -0.44763975174064197 -0.325688314865637 0.17328296005502092
-0.33419580296195023 0.5028317627866098 0.4151624153669853 -0.1894463999596177 -0.6591114867276263 -0.12309195163459653 -0.10888381154141522 -0.527800005055093
0.09869058046520757 -0.026246957517835113 -0.8466723344725791 -0.115979896081756 0.09748515769328236 0.7578114115939916 -0.6350923326237528 0.12144424099925262
0.5155671249655225 -0.23679807858742719 -0.3218284894348793 0.05828010721447507 -0.17721337345245922 0.18942793541681305 0.5000736026140071 0.2094726333722148
-0.45778952474971457 -0.7578781175592185 -0.030266866602048408 -0.4172705041275801 0.5627082174979933 0.23031562434619476 0.07503978456486152 -0.2750301491943074
0.26407683201562926 -0.5012456862263247 0.23768334680722109 0.13435395448366025 0.22728857829768231 -0.33835004039360417 0.21165801683131835 -0.011071295299746006
-0.4222698961495323 -0.2844622860301472 -0.05715389639403117 0.14704958348192346 0.5117467614268569 -0.3177228013008961 0.26400277469765393 0.5101446635738335
-0.07344094776891066 0.08501912845194096 0.31858191191308266 -0.34302785341966757 0.012049568849494475 -0.5075616108409099 -0.04252256161204229 -0.1010277813519676
-0.2586449992094669 -0.17132313280582454 0.4052253407284908 0.878778081123328 -0.23126323076555355 0.020547125152350514 -0.5489863367246077 0.4316855223277639
-0.6084159628843292 0.5194632235627088 0.1324330821555024 -0.2734496073422455 -0.6340276927244752 -0.05061554280654717 -0.4226688840598917 -0.24015444001216388
0.09679542549411418 0.38979795375759707 -0.5318092250575426 -0.1490310057508798 0.4727509814861555 0.32922493346568676 -0.5367219118655201 0.1412953998143128
0.29462650857870415 -0.5409921433505708 -0.8462679397378219 -0.05959974556844737 -0.22608164747232717 0.20876697333844452 0.30668526879312435 0.1354994060924112
00000000: ea10 b62f 8a7a b63f 1ad9 865e 2675 c03f
00000010: 6935 cd40 c3e0 dc3f 4712 fcf9 4eef e73f
00000020: 5afb f951 dfb7 dcbf a264 f452 0e43 d4bf
00000030: 366b 1d4a a02f babf d597 5513 c45c d33f
00000040: 6b27 97b3 35d3 e1bf 8fe7 96ca a510 e23f
00000050: 6a55 9239 8101 d3bf 5c95 21d0 756c dfbf
00000060: 0cf6 ae2b be17 e3bf b484 e05d 0295 c0bf
00000070: 10b9 17c5 a647 a0bf 6d9f 90ae dfc9 e0bf
00000080: c1d0 fbc5 d873 d6bf 016a cbf7 c4be e53f
00000090: 0768 6d95 fb85 e8bf a759 002f 0c5b ddbf
000000a0: 8fe9 5578 5e44 aa3f a7d5 f131 f603 dc3f
000000b0: 1880 9651 14c7 e0bf a59d 6378 ad50 bfbf
000000c0: 3335 7d24 290c d53f c05a 47ac ef7e cabf
000000d0: 4d2f ae4d 3dbd c03f eb7b 6072 f44a d83f
000000e0: 9fd0 5df9 7648 e0bf dcba f799 dc64 da3f
000000f0: f68d 978b 2499 e73f ec71 f3d1 03a6 c83f
00000100: fb09 397d 6dff e1bf 4704 6f41 c5a8 ac3f
00000110: 170c e28a 81aa d1bf 16d5 95ed b2d4 bfbf
00000120: edcf 53e0 8c6d bf3f c86d ea72 5196 ce3f
00000130: 06ec 1b2a 71c1 c63f ca82 316f e062 b6bf
00000140: a953 a2c6 9837 dc3f ec16 10d1 f612 9f3f
00000150: 4b86 004a d5f4 d63f c2c6 bd81 c500 d03f
00000160: eb87 1ae1 7755 b9bf 250c fc98 ab6c d8bf
00000170: b8b3 7c24 ef93 da3f fff5 bfb9 83d0 b83f
00000180: 052b 2d9f 36eb d2bf a50d d5b0 d03e e1bf
00000190: 8081 0a8c ad7f d53f 89a4 37e5 038b d7bf
000001a0: e39d 3a77 959b cfbf 439a 0228 09fb e1bf
000001b0: beb8 bc71 7014 d93f 38ba 4662 7446 d93f
000001c0: b2d9 63c2 d458 c4bf 60fc b8d3 bb8d ab3f
000001d0: 32d4 2a78 80ab db3f 5518 8aee 628c e4bf
000001e0: c853 8d21 843d cb3f fea2 489c b9ae dcbf
000001f0: 6a3a da5e f565 d3bf eae0 465f 18ba dbbf
00000200: 8954 e1ff 7b53 d5bf f6fd e405 6bd1 98bf
00000210: 86d1 36e0 fa8f 713f f0e8 8179 84e1 e63f
00000220: 61f1 b43e fa41 cbbf cc77 dab7 7231 c7bf
00000230: 810c b4ed f6d1 b9bf 3212 213a 019c e53f
00000240: 7881 2f6a ec97 eebf 4482 9016 61e1 da3f
00000250: 7d40 a7bc cf75 d33f 82dd c825 7a45 e7bf
00000260: cd85 4aac 32ee e5bf 4359 c0de 031b c0bf
00000270: e1a8 375c 2e8d d63f fef5 1649 1010 ccbf
00000280: d33b 6465 4ede dcbf f64d 9cc3 01f5 df3f
00000290: f6c6 8f83 02b6 d6bf fad8 4d57 9508 e1bf
000002a0: a04f 0f7f 2975 e73f b614 7402 859d c43f
000002b0: 93ae 542a 7883 d4bf f532 9360 8d1e c5bf
000002c0: b501 ad17 9d57 e53f bff2 340b c27b c1bf
000002d0: dd9d ae33 1559 d8bf 99f3 5409 1373 c1bf
000002e0: 51a3 4be7 bcbf d9bf 0f18 ba67 835d a03f
000002f0: da0e 6d02 35b9 e23f 1ca8 41d5 dab6 a0bf
00000300: fed2 edff 9edf d3bf ad09 066d 7dca e3bf
00000310: 23e8 b483 2f55 aa3f a717 48ab b18f df3f
00000320: eb87 0fcd 11a1 d93f 74ee d381 a6cd d83f
00000330: 3533 ac16 7a93 9ebf 3a40 1aec da5b e23f
00000340: 144a b1d8 71cb e9bf 1121 4786 5295 d03f
00000350: bbc1 fdd6 e9d3 c73f 9448 19d8 bf62 dcbf
00000360: 9012 58f7 d123 e7bf 06ae e225 ee73 c5bf
00000370: b1db 5b0d 141f b73f 91cf 5408 e8b8 c1bf
00000380: 1dd1 a130 17e1 ab3f a1ce 3263 3f88 d53f
00000390: 8e2f 4dc9 a034 e2bf 4c43 20d6 ecfb e3bf
000003a0: 1093 c39a 6064 e93f e567 76dc 4ef1 a6bf
000003b0: 8b14 aca0 21d0 b03f 0025 ca2c dfcf cbbf
000003c0: 89fc 5c63 fdc5 d13f 0581 b189 02ad 9cbf
000003d0: 55a4 3741 2ac3 d1bf 3406 f8f4 d45e e33f
000003e0: 9866 9699 e499 e4bf 1141 816d d89a a5bf
000003f0: 07e4 8b0e c51f c33f ce40 2abb fb73 d03f
00000400: 17ba ec07 c75a e63f 6e27 30b2 eed2 ca3f
00000410: 26a7 74e0 69c8 d0bf 2b63 a292 617d cfbf
00000420: ce6e 569b 1153 bcbf a8b9 c99b 7537 d5bf
00000430: 512d d51a 4238 cc3f 8bb9 386e dc19 e1bf
00000440: d460 c258 6e59 d63f 3cb3 195b 710f e7bf
00000450: 8c67 6f9e 57fd e3bf 9e22 bff2 da97 e03f
00000460: 05a3 01ba adea e13f e3f1 2cd8 d0d6 d73f
00000470: e66a 0c78 a51d a03f c7d1 bb2c 6bb8 c53f
00000480: d7ad 9a68 dfea c33f e89c c67a 9ca5 c6bf
00000490: fd19 8cf4 215b e23f afe2 34f6 a59a e13f
000004a0: ed07 454e aaa9 cabf 4d68 c1ea cdbf c9bf
000004b0: c812 2340 cba6 d93f ea3a b3d2 3422 d1bf
000004c0: c024 0bc7 eaf6 d2bf 7c09 d9f4 8e40 e03f
000004d0: 847f 7bdf ef5c e13f d740 af78 588d afbf
000004e0: 7792 b672 d6c8 c03f a314 0801 b03f dd3f
000004f0: 69ce f0dd 5fca e0bf 2993 a99e d0c6 b13f
00000500: 8311 bf7a 3520 ac3f fdb0 91c4 e522 bfbf
00000510: 04a6 9072 c436 db3f 9d63 67cf cd57 eb3f
00000520: 63a5 0e79 0a69 e3bf 4266 8733 21a6 dcbf
00000530: 7e62 42cd 13d8 d4bf 46f8 31d3 222e c63f
00000540: 7ba6 0bcb 7663 d5bf 63df 11a3 3217 e03f
00000550: 78e4 2161 0592 da3f 82f3 1596 c73f c8bf
00000560: 0f38 fdf8 7017 e5bf 41e1 ab42 f482 bfbf
00000570: 4e5b a239 cfdf bbbf cd49 11d6 bce3 e0bf
00000580: 6c75 852f c943 b93f dd68 a280 7be0 9abf
00000590: 3e9b 5f94 f017 ebbf 9324 aac4 dbb0 bdbf
000005a0: 4857 238c c9f4 b83f 049e aab7 fd3f e83f
000005b0: 60e6 d127 ad52 e4bf ed1b 6143 f816 bf3f
000005c0: 4ad4 93a0 867f e03f 14f2 a441 664f cebf
000005d0: 10cf 4285 d698 d4bf cfb1 fce4 e3d6 ad3f
000005e0: df31 b285 edae c6bf 8d31 c8b1 2c3f c83f
000005f0: f03d 1a5b 9a00 e03f f9cd dece ffcf ca3f
00000600: 0c17 506f 6c4c ddbf 1bab 289c 8940 e8bf
00000610: 6e30 d508 47fe 9ebf 930e 3458 8fb4 dabf
00000620: cd04 eba9 b401 e23f af90 297d fb7a cd3f
00000630: 0adf 9aac ce35 b33f fb06 0d0e 189a d1bf
00000640: c4db 4883 a2e6 d03f f14c b364 340a e0bf
00000650: aaa0 ab6c 686c ce3f 673c 4ca8 8232 c13f
00000660: 1f7d 45c9 ca17 cd3f d0cf 85ed 86a7 d5bf
00000670: 7c05 1d22 9c17 cb3f 6be6 e419 8cac 86bf
00000680: 2f0b 8350 7806 dbbf ea78 dc4d a134 d2bf
00000690: 57e2 b387 4643 adbf 09ff f84f 85d2 c23f
000006a0: 4631 85be 3a60 e03f 87f9 3104 9255 d4bf
000006b0: ad4c d8e4 6be5 d03f c7e9 c8e6 1a53 e03f
000006c0: a2ce daa4 06cd b2bf 5a4a 3c48 d0c3 b53f
000006d0: cde2 3063 a563 d43f d07d 0319 2bf4 d5bf
000006e0: 3aa7 1dc1 71ad 883f 8589 e8d8 f13d e0bf
000006f0: 1486 ee66 84c5 a5bf 54e6 e4e8 f4dc b9bf
00000700: 153b 38c1 a38d d0bf 0b82 399a eaed c5bf
00000710: e61d 7c44 36ef d93f f7b8 db35 f31e ec3f
00000720: a0e2 7396 089a cdbf 2e83 393a 4e0a 953f
00000730: 6adb 45cb 4b91 e1bf ae7b 2350 bca0 db3f
00000740: 3d7b dec0 2478 e3bf 78a6 9556 719f e03f
00000750: 3718 6236 91f3 c03f 25e5 28c8 3280 d1bf
00000760: 9451 a071 f449 e4bf 27fc 0bca 47ea a9bf
00000770: 3fbd 84ca 010d dbbf 3bb4 eb74 61bd cebf
00000780: d44d e6c2 95c7 b83f 40f1 db1d 73f2 d83f
00000790: faa9 aac7 9404 e1bf 441f e5af 7213 c3bf
000007a0: d9a2 2855 8d41 de3f 5dd3 9074 0512 d53f
000007b0: c149 506e d32c e1bf 438c a3b8 f715 c23f
000007c0: 2955 b824 29db d23f 39ad 62c1 ce4f e1bf
000007d0: c878 9a80 a014 ebbf 7eff 219c db83 aebf
000007e0: 044a 0f51 3ef0 ccbf 689c 7c4d e0b8 ca3f
000007f0: 7d69 e83f bba0 d33f 95ac e566 0b58 c13f

topology.convs.0.nn.0.bias f8 [32]
-0.11261138751317458 -0.07963217697616853 0.15762514193288935 0.012480981679787624 0.10775223090028585 0.0068313097312856326 -0.033692332664608915 0.17292954088669651
-0.1509098647167187 0.021253146694745095 -0.04593236512364509 0.15329589607501698 -0.14486036519121867 -0.10307566331322658 0.131905020018223 0.0559196909178172
0.04987262437764705 0.054280698991391325 0.04957642690503567 0.16106365546688486 -0.0505132303810214 -0.09193616592440466 0.04572624757347853 -0.06560789461540958
-0.01504649546975584 0.11454664255309151 0.16609393880557655 0.058897621925395674 -0.061490863078085246 0.09985282228319728 -0.13311332658968564 0.019306318426706843
00000000: 79b9 8692 19d4 bcbf e069 d23b c662 b4bf
00000010: f086 d086 0f2d c43f c4e2 1701 a18f 893f
00000020: 30ab c973 a695 bb3f 6bce 27be 25fb 7b3f
00000030: f044 d715 1f40 a1bf ab71 4f21 8e22 c63f
00000040: 5211 cdb2 0351 c3bf 20ce f687 62c3 953f
00000050: b366 116c 7284 a7bf 4669 202e 339f c33f
00000060: b3cf 7dd1 c88a c2bf df9d f1aa 2a63 babf
00000070: f707 9481 43e2 c03f 5b8f 6377 81a1 ac3f
00000080: ffda 5595 e788 a93f 01b0 f105 aeca ab3f
00000090: e958 6bd8 1462 a93f 45f9 66de bb9d c43f
000000a0: 00ec 00c1 dedc a9bf cf06 f7e9 2089 b7bf
000000b0: 1f35 cb43 6e69 a73f 968b bbd1 adcb b0bf
000000c0: 2134 b26f b2d0 8ebf 45d3 a1c3 ed52 bd3f
000000d0: 64ec 9df1 9042 c53f 8aa7 f63f d427 ae3f
000000e0: 5dac d8fb ba7b afbf 3aa0 1e5e f48f b93f
000000f0: dba6 2e84 db09 c1bf 45d7 fe18 09c5 933f

topology.convs.0.nn.1.weight f8 [32]
1.1608984279444328 1.0545202341701636 1.2420261380220003 1.6953963058402932 1.1797238692556844 0.9875561684596944 0.6342775834057987 1.0179191164319128
0.5973351042487665 0.9377202141670327 0.7881731920952755 0.24368380286953017 1.2785744098491538 1.12393376128162 2.0993364523333984 0.8586334123760129
1.6361828156660239 0.7588938938056305 1.3002134020592813 1.5069642511688546 0.696304721572463 0.5072375451505438 1.0291826824323589 0.8626184106314557
0.8230429544590571 0.8029056149719337 1.3079928782689965 0.9869064610988345 0.4403492991892355 0.9052704151506534 1.268361545111318 0.5325221254872662
00000000: 86fc df3a 0a93 f23f a5b2 eb9b 50df f03f
00000010: 894e b9cc 56df f33f 0c7e 75e0 5720 fb3f
00000020: 4c38 cc22 26e0 f23f 25eb cf64 0f9a ef3f
00000030: cb0a aa80 004c e43f c3c5 308e 6549 f03f
00000040: da09 3082 5e1d e33f 1ca8 94d2 cd01 ee3f
00000050: a242 74fc b638 e93f 8cdc f1e5 0731 cf3f
00000060: b5df bc70 0a75 f43f 8032 b9f7 a1fb f13f
00000070: b494 f0e8 70cb 0040 2a0d 2dc7 ec79 eb3f
00000080: 1a01 3908 ce2d fa3f ddef e0d8 db48 e83f
00000090: f0a5 7a91 accd f43f 882e f08b 861c f83f
000000a0: 1b88 e6d6 2048 e63f 7432 773b 4a3b e03f
000000b0: 2b81 aa42 8877 f03f 03de d2ec 919a eb3f
000000c0: 135b 932d 5e56 ea3f ff88 c21d 67b1 e93f
000000d0: 5b0f b9f0 89ed f43f cc2d d4db bc94 ef3f
000000e0: f064 b5d3 ae2e dc3f 0278 63a9 f9f7 ec3f
000000f0: 3e1d bc79 354b f43f a9a7 2bd7 6b0a e13f

topology.convs.0.nn.1.bias f8 [32]
0.04463555413039669 -0.042250037376592 0.5431651508407997 0.5291479446032826 -0.2050950541453785 0.36835568923476436 -0.3366478129862604 0.7366746100928988
-0.11144376458139912 0.8595609501768314 0.26677858150974126 -0.6511437402919614 0.4361626834213693 0.7875122402132181 0.14590169397749916 0.2979525883845912
-0.015870654617074098 0.880364285423919 0.15331322184982055 -0.10981493735596179 0.06675929001219845 -0.4213167444445631 -0.0836620308283712 -0.42043036245994325
-0.40054049701781413 -0.2032370807023973 0.18027348686236408 0.19995159289652842 -0.6000727558006915 0.5545548497810916 -0.07069911887288098 -0.40495475097863376
00000000: 4431 75aa 78da a63f 2811 9301 cca1 a5bf
00000010: 4205 e6e1 9b61 e13f 8f22 9aab c7ee e03f
00000020: 9318 1003 8e40 cabf 3cc4 a3bd 2393 d73f
00000030: 3bf0 c244 a38b d5bf c98f c4a1 d692 e73f
00000040: 2661 381c 9487 bcbf 9fb3 3df7 8581 eb3f
00000050: 11e3 b678 e612 d13f 2992 b165 2bd6 e4bf
00000060: caf1 41e3 16ea db3f 834b 9dde 4c33 e93f
00000070: eb3c 081e e8ac c23f 1fb4 b7bb a711 d33f
00000080: 308f 2f9a 6540 90bf ddc9 ceb8 f12b ec3f
00000090: f0d6 f184 c49f c33f 7e5f 8eec d41c bcbf
000000a0: 7d7b 4e07 2317 b13f b361 a981 daf6 dabf
000000b0: f825 53f6 df6a b5bf 4cb2 40c0 54e8 dabf
000000c0: f490 da9b 74a2 d9bf 7fc4 7933 ac03 cabf
000000d0: 5772 349d 3313 c73f 7408 2388 0398 c93f
000000e0: 5a4e acc7 cb33 e3bf 43bc f4cf e9be e13f
000000f0: 1340 6a63 5619 b2bf 1c09 f454 c7ea d9bf

topology.convs.0.nn.1.running_mean f8 [32]
-0.31156264173681564 0.002291113133126666 -0.09640603418911839 -0.23727024502759358 0.18844646843271112 -0.058840528696994 -0.025587938693573977 0.07657104216688221
-0.2554318632530408 -0.061668850816130466 -0.13492777756877197 0.06254985148350482 -0.11191288007193845 -0.26029486560282916 0.10118468126711544 -0.02927327912214221
-0.00945791408166281 -0.020283343866549525 0.000535878596543009 0.28923056568249117 -0.3188180007451963 -0.007344425179364398 0.0475755566504508 -0.3945017547957657
-0.034981239191269276 0.10454135047454219 0.2174637254220996 -0.025360341176025855 0.12339247434313357 0.13545958182070952 -0.2799989793481087 -0.023382051550122254
00000000: 298f 3a6f a4f0 d3bf ce89 4dff cfc4 623f
00000010: ceb4 fadb 10ae b8bf c68c 5a13 df5e cebf
00000020: 5e8b 7b8d 031f c83f 25aa dd84 5820 aebf
00000030: b79d 717f b933 9abf d469 ede9 289a b33f
00000040: 48cd c1e2 fe58 d0bf 7cd6 df42 0f93 afbf
00000050: 556b fd3b 5045 c1bf 83c6 7d5e 4403 b03f
00000060: 50ff e88f 52a6 bcbf eb2c c5cb aba8 d0bf
00000070: 7800 e640 3de7 b93f 0bb6 e781 d0f9 9dbf
00000080: 665b 5abd ab5e 83bf 05cd 3d2a 28c5 94bf
00000090: 5cd7 fc85 468f 413f 4408 27eb c082 d23f
000000a0: 02e9 a49d 8367 d4bf feab 401f 3015 7ebf
000000b0: 452c cec7 d25b a83f c5fe c349 843f d9bf
000000c0: d0a0 999c 0fe9 a1bf 4a2a 5ed1 38c3 ba3f
000000d0: fd8a 60f2 d9d5 cb3f aca0 ddaf 0ff8 99bf
000000e0: bd53 e031 a696 bf3f b5c5 ec54 bd56 c13f
000000f0: 16aa cdd6 80eb d1bf 1478 e2ea 76f1 97bf

topology.convs.0.nn.1.running_var f8 [32]
0.0005077924247585419 0.00024350272396075467 0.0005926242757425102 0.00039376518543077845 0.0002466873214306509 0.0004495372210987412 0.00015665679320062543 0.00039287199570147005
0.00013517464781895186 8.872878804877949e-05 0.0002672525226142236 7.148226371768303e-05 0.00016428483512592848 0.0006140417583751727 0.00023367004200328494 0.00017998246714543727
0.0004323864545222578 0.0003723117930781098 0.0005029211662741442 0.00032473515640819595 0.00033238808912613136 0.00010857511918440498 0.00032760504992070686 0.0005966491468887566
6.734766169831874e-05 0.00017686469432602196 0.00045510777655039143 0.00024054124885692122 0.00023256415639174972 0.00029137588408417785 0.00012786511954120718 5.355837897495806e-05
00000000: 0a61 c2ed aba3 403f 60ab c778 98ea 2f3f
00000010: 6f65 0af1 4a6b 433f 7398 fe97 48ce 393f
00000020: af81 56fa b92a 303f 5957 b7a9 fb75 3d3f
00000030: 986c 639b 8788 243f 1957 805f 4cbf 393f
00000040: d46b 1d62 b5b7 213f 3861 b6f8 7c42 173f
00000050: e1b3 2ad8 c083 313f a3a3 8cf0 17bd 123f
00000060: 28f8 f9fc 7b88 253f d102 a3a2 f41e 443f
00000070: 8db4 7d60 aaa0 2e3f 3e2d d89e 3597 273f
00000080: d8a7 70ae 3d56 3c3f 77c3 a5f9 5a66 383f
00000090: c527 16fb ce7a 403f d120 6be0 2648 353f
000000a0: 62ad edf8 8bc8 353f fb25 1f58 5a76 1c3f
000000b0: 69b9 b4f9 4c78 353f 0779 5a49 0e8d 433f
000000c0: a434 9004 a0a7 113f 6ab5 e827 982e 273f
000000d0: 205c 3504 71d3 3d3f 74e8 2798 3987 2f3f
000000e0: c533 50e4 8e7b 2e3f 09a4 9ae4 7918 333f
000000f0: deee 7103 71c2 203f 2f18 95e3 7b14 0c3f
