src/models/mentor/results/3-channels/real-world/IMDb/model_weights/5.ckpt (torch, 597975 bytes, 112 tensors)

topology.conv_GAT.att f8 [1, 1, 64]
0.3206043853646206 -0.018848488089338075 -0.2531135345278052 -0.14472766051248231 0.08305284822203707 0.03442329556315208 -0.41453334879892084 -0.2502674673437009
0.20172919336455442 -0.039439798869532375 0.06858960234000344 0.07422475567553756 0.15873881871764883 -0.2710294354020149 0.09377739106780524 -0.05793121938538494
0.02786345984684474 0.2202379952234749 0.21532371238637757 0.18659650169610917 0.16361700068554763 -0.05447838730592298 0.3397893237022372 0.18412813510072373
0.2722443087080279 0.017408305202500723 -0.10313149739030704 0.30619587894147565 -0.031850261486065914 0.18469655980665953 0.2037791020536031 0.041326675910025396
-0.05821010058191042 -0.2525864263824709 -0.1559722836965792 0.337343319230096 -0.4741584653188557 -0.22188890998682773 -0.05277564569459735 0.021681509874238808
0.16976790397582928 0.014358105651639289 0.14661089463044652 -0.5443813212029008 -0.0857620278732947 -0.28718502894974857 0.10675233198938834 0.08426487428673435
-0.07030806230507704 0.07016123524620824 0.2749858765325572 0.05592618666467495 0.1238873278243232 0.0059410688952594645 -0.04266277050215745 -0.07442234268666466
0.1817690988135231 0.3974124206935662 -0.0763058466886623 0.2702609677393665 -0.0681839126625144 -0.0021939266171791074 -0.2412347029004365 0.1296072556178822
00000000: 3118 8641 c884 d43f 0ce6 b09f 044d 93bf
00000010: 7333 3e1c 0333 d0bf 5825 5d9c 6f86 c2bf
00000020: 880b f492 f342 b53f 851c 5421 ee9f a13f
00000030: 9f55 0ce2 b687 dabf c59c dfd6 6104 d0bf
00000040: b019 1320 43d2 c93f 2a65 9c0c 7431 a4bf
00000050: a05d e592 168f b13f 1116 2ec2 6400 b33f
00000060: a0bd 7fb9 8d51 c43f 1985 53d8 8b58 d1bf
00000070: 8f8c bd8b cb01 b83f 42f2 5a29 29a9 adbf
00000080: b0b3 2e23 3d88 9c3f 9524 6935 c230 cc3f
00000090: cf5b 6037 ba8f cb3f 1b99 2ae8 64e2 c73f
000000a0: f4cb 81e1 66f1 c43f 89b1 a257 97e4 abbf
000000b0: 3130 35b8 1bbf d53f 5efa 43bf 8291 c73f
000000c0: 3314 9b64 736c d13f 8817 1896 7bd3 913f
000000d0: c197 7a68 d366 babf ad4f 8e99 b698 d33f
000000e0: 6a45 e76e ad4e a0bf e3d2 060a 23a4 c73f
000000f0: 2ad8 7601 6f15 ca3f 74ce f822 c528 a53f
00000100: 5ca4 97dc b6cd adbf 757a 2e42 602a d0bf
00000110: 3b95 c758 e6f6 c3bf aa82 e76e 0897 d53f
00000120: 53a0 6abf 9c58 debf 9787 de15 db66 ccbf
00000130: 3e31 91d0 6805 abbf e8dc 597f ad33 963f
00000140: b74a be65 f4ba c53f 7582 a651 c867 8d3f
00000150: b068 d652 25c4 c23f d5d4 6360 926b e1bf
00000160: 4256 f410 80f4 b5bf e35b cf50 3d61 d2bf
00000170: 4d89 aaee 1e54 bb3f e858 43ff 6192 b53f
00000180: e9d4 3e8c b5ff b1bf 5255 d432 16f6 b13f
00000190: 376e a45c 5e99 d13f 5df6 6d6d 5ba2 ac3f
000001a0: c7f0 6475 14b7 bf3f f818 bc89 a955 783f
000001b0: a985 2008 e5d7 a5bf 6551 eeb7 570d b3bf
000001c0: acea 69b7 3544 c73f becb 7981 346f d93f
000001d0: 1c7a 05ac c788 b3bf 62db 74a8 f44b d13f
000001e0: a5b2 ff3a 8074 b1bf 156c 4262 fff8 61bf
000001f0: 310f cf5b c7e0 cebf b7ff 1976 f896 c03f

topology.conv_GAT.bias f8 [64]
0.2727222346139583 0.13584957623412272 0.14447421783244868 -0.17589352964683583 0.17277678420706832 -0.07459371674612483 0.0754108358791088 -0.0022027853247784304
-0.05725936587219463 -0.02679298432308877 -0.0016592185682961986 0.2188864247166591 0.06846494941788718 -0.3578823953347928 0.18774537594447982 0.18911518276275258
0.21399644968231876 0.2824263781649655 -0.08771411271768051 -0.01316321499178948 -0.17284282321970373 0.3469713963308988 -0.26354780878304124 0.20163996438592174
-0.13293268305836958 -0.08525360974805016 0.35875864513321865 0.042436207219177124 -0.4631509828063979 -0.01632028344620811 0.002703214463818087 0.1000018307589466
-0.07977168707502054 0.07016913722563434 -0.2450455142958144 -0.2263374094509135 0.28026092483674425 -0.05420587220596019 -0.1598389919083107 -0.38807183140365
-0.10271913347144104 -0.01134343326717642 0.08178309722142675 0.26580493823196316 0.013495655377080355 0.039860542131459224 -0.01265720363710725 -0.10886623961852492
0.19705368951422092 0.1071410282735677 0.17705753220965603 0.017062684700017892 0.00961314879519539 0.03304117500583523 0.06937275104055309 -0.08252569192760334
0.08436068707945728 0.043319930301815336 0.14013033601042746 -0.09319746746510094 0.076893924462975 0.048948193568636146 0.014703192813954595 -0.35226070273970894
00000000: 7ec6 a3f5 4774 d13f 17ee 8cd7 8463 c13f
00000010: 5e4f 5a94 217e c23f 19a1 b4de ad83 c6bf
00000020: 4cb5 d6b6 8c1d c63f c264 e9e5 9218 b3bf
00000030: 4063 dde1 1f4e b33f acd2 c25d 930b 62bf
00000040: d41d 9f7f 1951 adbf 8839 b8bd 9e6f 9bbf
00000050: df43 375f 442f 5bbf 3024 d969 7804 cc3f
00000060: 0910 ac3e eb86 b13f a6bb f18f 8be7 d6bf
00000070: e810 d45c 0a08 c83f 9e50 9222 ed34 c83f
00000080: df3e 6c54 3c64 cb3f a6c2 6f16 4613 d23f
00000090: fa24 859d 6e74 b6bf 6a1a 33cf 50f5 8abf
000000a0: 12d9 89b0 b61f c6bf e2df f883 c734 d63f
000000b0: bdf5 e9a0 f7dd d0bf 6a54 4d9e 56cf c93f
000000c0: cc11 272b f003 c1bf c6db bb39 2ed3 b5bf
000000d0: ce48 00d2 e6f5 d63f e864 58d4 32ba a53f
000000e0: 12e1 1005 44a4 ddbf eed2 a6ae 43b6 90bf
000000f0: 58e3 ea36 0d25 663f 7559 a650 b899 b93f
00000100: 254b 22d3 ea6b b4bf 4098 92c5 9af6 b13f
00000110: 8a4c f7c2 a65d cfbf 0bfd b9cd 9ff8 ccbf
00000120: 6050 a184 cbef d13f e162 c040 dfc0 abbf
00000130: 3e97 6fa5 9a75 c4bf 0029 183c 2bd6 d8bf
00000140: a2ec ee16 cd4b babf e84a 41d7 393b 87bf
00000150: 697e eeaf bcef b43f cc94 34b7 f202 d13f
00000160: dc75 dc33 9ca3 8b3f 37fd b5d9 9968 a43f
00000170: 5906 711d 05ec 89bf ffd0 cc6a a8de bbbf
00000180: 1686 0228 0e39 c93f 34aa 7e2c 986d bb3f
00000190: 94eb 2c3b d2a9 c63f 36fb 1263 e178 913f
000001a0: 8cdd 7efd 0eb0 833f 5c98 24dc c5ea a03f
000001b0: d1e5 f3a0 69c2 b13f eca8 e85b 6720 b5bf
000001c0: 2d09 1378 a998 b53f 6d95 d2a7 072e a63f
000001d0: bccf 2b75 caef c13f 6827 d50a cadb b7bf
000001e0: d45e d4fa 51af b33f 15b1 26d5 bc0f a93f
000001f0: 3c01 4322 b51c 8e3f b9b6 7b79 708b d6bf

topology.conv_GAT.lin_l.weight f8 [64, 13]
0.2822720761304926 0.31728221935163037 0.4978064618035092 -0.23373363346848347 -0.2945287418322166 0.13571325472711704 0.2233944642576972 0.26551178760366223
0.2345307581586487 -0.28767752144318953 0.09473694708759393 0.3038352996903241 0.20425013067295694 0.21248267173271676 -0.347743022973906 -0.01174258186980462
-0.10486865568598351 0.579122963612288 -0.15462233546596368 -0.11282927861101805 0.07797499688517308 0.025365526066727213 0.36334267846895174 0.1376579194091235
0.04014505348197439 -0.4420529906341983 -0.04873382338440617 0.24821667698708783 0.21623490491326022 0.14041618328502498 0.12595933655420885 -0.09998328741251089
-0.24035242944407634 0.005124032507441482 -0.3439778135765226 -0.22969359110587315 0.04051756608502059 0.2862565702221943 0.30378384042754275 0.09367009819456104
0.1955097659286944 -0.40811749731027147 -0.15102497698199863 0.4251803756438318 0.2519526504130895 0.23116942246736363 0.41616429363911045 0.1327651289039992
-0.08864841023827107 -0.4493957445397907 -0.17026496737512928 -0.18817892188120952 0.1724497381188658 -0.023603731715324785 0.054743610013670944 0.019838301195076506
0.025330609041797743 -0.2794033260998277 0.18437838976740228 0.19628756850616877 -0.23663520606723712 -0.1978423438563776 -0.14526480010283432 -0.44870222152831724
-0.015806990340532533 -0.250039040565764 0.15919196353385623 0.3846961077802364 0.03626998635245839 0.13087560931196945 -0.020125460189156143 0.22302064111087844
-0.23412840483161088 -0.15807986349475844 -0.024926593897446836 0.10266329625364104 -0.02453570651988455 0.2381385424321421 -0.0068187507637134555 -0.08698640201290905
0.35107372307372026 0.39192727100273 -0.047588540476416974 0.019071901417425312 -0.020552444575215753 -0.23988978788108697 -0.2657168847839889 -0.4538698065061103
0.10507100543169286 -0.15784446175272596 0.15643460756214417 -0.3751500825884615 -0.5131238516933698 -0.47969543040749596 0.36704597861185856 0.08296319281520398
-0.032011904684934214 -0.29747457355458573 -0.2756746982142732 0.2832258644252146 0.1881036296745736 -0.06248288266164713 -0.1565553404299112 -0.1461272607534871
-0.11026132052624296 -0.15411522217199908 -0.4698109866535363 -0.25670331800165697 -0.3638889353285664 0.2160113969534698 0.018970339384013872 0.28846114192287436
-0.336743945636823 0.11639312686141329 -0.017409872206113088 -0.06937402393403792 -0.08407509576038386 -0.08257668998594235 0.17950270815209968 0.18232530452931764
-0.2497478611915533 0.26382594353041966 -0.2808674922429688 -0.039976937175155075 0.24679209684569584 -0.24201329139534916 -0.07362120741423203 -0.27040123361241775
-0.09388251841025112 0.3224462636641232 -0.05594805395128253 0.48766725924274695 0.5432348806844199 -0.022071180929113175 0.13835334250641992 -0.23554765115408755
-0.24892456102750277 -0.06232347395368782 -0.05797783329212644 -0.10077336321631335 0.04788877233265358 -0.25595012040163395 0.2065284643645958 0.17812972955322498
-0.481381590755641 0.08518047445085859 -0.15961196316256945 -0.09329659168529142 -0.04643668013026889 -0.11140282283554566 -0.3607743667434029 0.30764639687125556
-0.16509751039150836 0.3255794941745526 -0.3195849143398307 -0.02559515703962118 0.009998824860898373 0.053249874831552094 -0.06292812310970597 -0.08170451028567491
-0.2509060403502096 0.24721720216813103 0.15228864879080284 -0.1771345469065464 0.0004256478491841244 -0.1224005628398619 0.21649290874531657 -0.11547770447940978
0.3676664001826648 -0.1375649759490247 0.4673156646734083 0.17457724855153428 0.09288180947335752 0.22757740248079553 -0.07413017606167424 -0.2944062269159806
-0.09999484249751603 -0.32890581722033774 -0.12882336174478368 -0.20711961504637225 -0.3595704126314864 0.2185300170932223 0.3870080716589799 -0.50131280138547
0.3832667703989154 0.13504181042417374 0.3168827024330753 -0.13089834332804248 0.3726258455264585 0.1595445584837316 0.21152786282027056 0.35077128445374295
0.2780744861745997 -0.05616300104547046 -0.07178832615669264 0.15273456809684033 0.027216976751939872 0.09661089755394159 0.009918179881864084 0.4205131977751664
-0.1867984231755601 0.16168960188144726 -0.3086689545153891 -0.24878954751551277 -0.3550889137668297 -0.08924641765740546 -0.2882143364446916 -0.061896730783805226
-0.04198164924331434 -0.5166412623225098 0.12628329850921532 -0.035651799080708084 -0.29537974680455964 0.2202031395738056 0.10957259783053298 -0.23294718663449962
0.38085753022483276 -0.26054503284006114 0.34847487584787673 -0.27771459438478846 -0.4567619210459636 0.18515118298279584 -0.3048133987633856 0.0614283315790439
-0.0036433344025579052 0.08913869018152994 0.1343385555853951 0.005314082653504113 -0.3253137027072428 0.37269008806436305 -0.05223062958691906 0.19165851673484188
0.25344931846715074 -0.33182020525834083 0.2716225609607894 0.3387335816510111 -0.07168831501285967 0.1978033044833186 -0.1592507843999712 -0.05237941237639614
-0.06826416285148779 0.09106272978010825 0.18404767994962395 0.2779290283326082 -0.3237404604817367 0.10766044948853318 0.054177511896623336 0.19784325030494226
0.20723648814810242 -3.932431069588946e-05 -0.4216749725969286 -0.10536334566146521 0.062293070074117746 -0.0672433602461608 0.08359011628457091 -0.4171097076525439
00000000: bb7c e3e5 be10 d23f 5aec ed14 5a4e d43f
00000010: 34bf 4ba2 0fdc df3f 3277 dcd3 fbea cdbf
00000020: 7fb0 7914 8fd9 d2bf 4ce5 574b 0d5f c13f
00000030: 6610 0c97 3098 cc3f 5e74 1d27 25fe d03f
00000040: 1247 1998 1a05 ce3f 4124 99fa 4e69 d2bf
00000050: 27cf 7639 ae40 b83f 4a94 e29c 0972 d33f
00000060: 80d7 b847 de24 ca3f 3584 07d7 a132 cb3f
00000070: 5472 c5f3 6b41 d6bf d0b1 cfa8 7e0c 88bf
00000080: 03fa 8b16 acd8 babf db79 a2e1 2c88 e23f
00000090: af5a 0729 aaca c3bf 6c64 aa2d 61e2 bcbf
000000a0: 910b 875d 2bf6 b33f 5216 9ca3 6bf9 993f
000000b0: e4f8 50a6 0141 d73f 33e4 f252 c69e c13f
000000c0: 903d 9a77 e48d a43f 33dd 77a0 984a dcbf
000000d0: e645 4ac3 a3f3 a8bf 7c9c fd66 90c5 cf3f
000000e0: 6b95 6dda 95ad cb3f cee7 8451 28f9 c13f
000000f0: cf26 907f 6f1f c03f 5453 9535 8198 b9bf
00000100: 7dfc fc4f dec3 cebf c48b b000 f0fc 743f
00000110: 8416 f784 bb03 d6bf 4b44 f37e 9966 cdbf
00000120: 4653 7fea b7be a43f 1aa5 d713 0752 d23f
00000130: 0f22 ecc6 3171 d33f eed6 5b78 c3fa b73f
00000140: 882e 5bc9 7606 c93f f8de f7d9 981e dabf
00000150: b627 8254 c954 c3bf e2a3 12c0 2736 db3f
00000160: 1b8b 6a02 fe1f d03f 7d90 aaaa f596 cd3f
00000170: ce58 bc8f 6fa2 da3f 3590 589f 72fe c03f
00000180: 07d6 d086 a9b1 b6bf 60a3 705e e6c2 dcbf
00000190: 8fed 4311 3ecb c5bf e75e a335 3f16 c8bf
000001a0: 3d4f b640 d512 c63f 779e 1f9f 932b 98bf
000001b0: 87ee 58bd 5a07 ac3f 8e3c 5ddb 7d50 943f
000001c0: 026b b065 44f0 993f 3583 ff7c bee1 d1bf
000001d0: e8ef 1109 b699 c73f 9334 ac77 f31f c93f
000001e0: 6d0c 92fb 0f4a cebf be45 50de e552 c9bf
000001f0: b2cf d976 0998 c2bf add3 c685 89b7 dcbf
00000200: d63b 3e2a b52f 90bf cc00 7dbf a300 d0bf
00000210: e4fb 94fa 6660 c43f 8322 746c dc9e d83f
00000220: 139c 6bca fa91 a23f c263 eb2e 88c0 c03f
00000230: d747 51c5 c49b 94bf 0abc f3bb f08b cc3f
00000240: 5b80 e868 ebf7 cdbf 68dd ee01 f63b c4bf
00000250: 505f 5c66 5b86 99bf cab0 e84b 2448 ba3f
00000260: fa3f 5964 e31f 99bf 62e2 d4e1 527b ce3f
00000270: 34c0 7978 faed 7bbf 5697 d7a7 bd44 b6bf
00000280: ad8a c5eb fd77 d63f 1981 d71e 5615 d93f
00000290: 286b 0572 865d a8bf de06 71a3 9587 933f
000002a0: 9caf 3635 b30b 95bf 95fc cb64 b5b4 cebf
000002b0: 561a 8964 8101 d1bf 567a e5f1 330c ddbf
000002c0: f542 16f4 eee5 ba3f 4995 8a50 3f34 c4bf
000002d0: 9293 b899 0c06 c43f f8c8 f37d 7502 d8bf
000002e0: 2c42 3ab6 826b e0bf 8203 6976 54b3 debf
000002f0: 350a 916a ae7d d73f 34bd e967 133d b53f
00000300: 32af 6847 dd63 a0bf 56be 33cb d209 d3bf
00000310: eb8e 4a7d a7a4 d1bf ac9b 4560 5f20 d23f
00000320: 3c08 db9c c713 c83f 8ee3 2ea3 c1fd afbf
00000330: 0a8f 9461 010a c4bf dec1 fe4e 4cb4 c2bf
00000340: 6a8a acfd 153a bcbf 82b2 852f 0cba c3bf
00000350: 9d9e be19 6211 debf 21e0 e5c0 d36d d0bf
00000360: 6932 27d1 f449 d7bf 173d bdee 42a6 cb3f
00000370: 2e52 feec f56c 933f 936f aeb8 2576 d23f
00000380: cbb6 687a 368d d5bf bc54 59a1 f0cb bd3f
00000390: b7dc 02bf e4d3 91bf d115 fdfb 7ec2 b1bf
000003a0: 38ec b20a f285 b5bf 2fcc e6f6 be23 b5bf
000003b0: f841 87da f1f9 c63f 79e4 1782 6f56 c73f
000003c0: 4e26 08e8 bcf7 cfbf ee2a d335 86e2 d03f
000003d0: 805b 6ca5 bbf9 d1bf 44e8 856b db77 a4bf
000003e0: 1988 6e28 e296 cf3f 8ec3 dea1 4afa cebf
000003f0: 56db 22e6 d6d8 b2bf fc74 caf9 404e d1bf
00000400: 2bf7 3c4a af08 b8bf 48e8 49a7 f5a2 d43f
00000410: 8dbf fd2b 39a5 acbf 69c3 71bc f035 df3f
00000420: e3c0 d21d 2e62 e13f 393b 19e1 d399 96bf
00000430: fbbd adf4 8fb5 c13f 429f 2de9 6c26 cebf
00000440: 4e63 6490 c2dc cfbf e9f2 cec4 dce8 afbf
00000450: 2ce7 c343 45af adbf 476e 527b 48cc b9bf
00000460: 2657 078e e084 a83f e110 229d 7c61 d0bf
00000470: 13cc 1154 866f ca3f ba2e 7079 f4cc c63f
00000480: a648 4cbb f4ce debf 0d32 0638 63ce b53f
00000490: 29b3 ea30 2a6e c4bf fcd8 1d12 49e2 b7bf
000004a0: 3c17 fd6c 8cc6 a7bf 8dc0 c238 e584 bcbf
000004b0: 4079 995e ed16 d7bf 79d5 5283 7ab0 d33f
000004c0: 8d2a e44b ea21 c5bf 5796 ee5f 4bd6 d43f
000004d0: 369c d848 1474 d4bf d243 afe9 9d35 9abf
000004e0: 623a 358e 437a 843f f2d0 d54d 9143 ab3f
000004f0: c83d c1b6 0e1c b0bf e6d7 9c37 96ea b4bf
00000500: 8a12 6b35 d80e d0bf 1c0e 2933 d0a4 cf3f
00000510: 40e4 0dc7 317e c33f 604a fa46 58ac c6bf
00000520: d00a 8497 2fe5 3b3f 51c1 68ae a455 bfbf
00000530: 1443 7025 0ab6 cb3f e2fd 2764 f28f bdbf
00000540: 93d8 27a7 d887 d73f d756 63a8 ba9b c1bf
00000550: 1592 2bf6 7fe8 dd3f c2c6 931a 8c58 c63f
00000560: e5d4 142e 1ac7 b73f c158 7b9e 4121 cd3f
00000570: 96e4 d4f9 31fa b2bf f0f1 1537 8dd7 d2bf
00000580: 0aa6 4b12 4399 b9bf 763b 1bfc ca0c d5bf
00000590: b3ca d3ae 487d c0bf d5fc 7d42 e582 cabf
000005a0: 2722 b79e 3303 d7bf 010b 4ea6 caf8 cb3f
000005b0: d00d c480 bdc4 d83f 1c89 e024 c10a e0bf
000005c0: c370 2059 7187 d83f 90a6 aecf 0c49 c13f
000005d0: e78f e762 ce47 d43f 1be6 d8e3 46c1 c0bf
000005e0: 1a8d 0b13 1ad9 d73f 20a0 78c2 f46b c43f
000005f0: 3fbf 8052 5813 cb3f 0cb4 c666 0973 d63f
00000600: c533 feed f8cb d13f b194 7899 65c1 acbf
00000610: 0adc 1341 b860 b2bf 1ee9 786b ce8c c33f
00000620: f7aa 2e64 c4de 9b3f 486f 6ee5 7dbb b83f
00000630: 52de d391 fb4f 843f 1cc4 fe2f b0e9 da3f
00000640: 06e0 3dbf 02e9 c7bf ce8f 17b0 3eb2 c43f
00000650: 6cc8 3b6e 3bc1 d3bf cd37 15fd 55d8 cfbf
00000660: a23e f3d9 c6b9 d6bf aeab 1f6d dad8 b6bf
00000670: af2b 518b 1a72 d2bf a43a e4a4 edb0 afbf
00000680: aa79 1065 9e7e a5bf 0c0f ae41 5388 e0bf
00000690: 1a65 9016 0d2a c03f 97be 30de f340 a2bf
000006a0: 3949 1b74 80e7 d2bf 2217 79d1 9d2f cc3f
000006b0: 594b 3824 f30c bc3f 4f2b 25a2 36d1 cdbf
000006c0: 3110 3043 f85f d83f 54bb cb12 c5ac d0bf
000006d0: 76a2 cf90 694d d63f e74a 206f 13c6 d1bf
000006e0: c6d5 3c5a 963b ddbf 6f08 ddb1 08b3 c73f
000006f0: f790 c40e 1082 d3bf ac13 5cc6 8873 af3f
00000700: c8a3 6f43 a0d8 6dbf 8550 230f cbd1 b63f
00000710: 2063 6a7b 0132 c13f 24d9 4733 38c4 753f
00000720: 9c5e 8490 f0d1 d4bf 3be8 f186 27da d73f
00000730: e3c1 d91b f9bd aabf 3f21 b02a 4488 c83f
00000740: 39a2 807d 8338 d03f 2524 6fd0 8a3c d5bf
00000750: bcab 0b98 4362 d13f dcdf cf9d cfad d53f
00000760: d94e 7c58 2a5a b2bf 73f6 e561 9e51 c93f
00000770: cc1b 6e67 5462 c4bf e6d7 476e 79d1 aabf
00000780: f49a ef9a c279 b1bf bb40 4a16 e34f b73f
00000790: 56e7 24d7 df8e c73f 090c d3d5 96c9 d13f
000007a0: 794e 8ae8 29b8 d4bf a23b a09d a28f bb3f
000007b0: af9e 8ca3 27bd ab3f 0ea4 e578 ed52 c93f
000007c0: a226 91a9 b986 ca3f 004e ea06 059e 04bf
000007d0: bf1c 3606 b9fc dabf b829 d09b 17f9 babf
000007e0: 1cb7 7895 e0e4 af3f 5d62 2161 dc36 b1bf
000007f0: a008 b66f 2966 b53f 158e 4dea ecb1 dabf

topology.conv_GAT.lin_l.bias f8 [64]
-0.025884992161438965 -0.19501235788930527 0.27343273749478825 -0.2808745246750031 -0.24371282735993374 0.0082476756885278 0.5301772249296552 0.012388676898922459
-0.1570718272135195 0.44901070473061155 -0.4184990526426884 0.2021944044128551 -0.1266457212975377 0.09579234948919453 -0.15813583665304418 -0.21402347326370685
-0.10203991486207226 0.3613946378239934 0.2896021007287956 -0.16332905426679628 0.18348695548751348 -0.18176035678039776 -0.14020482919400265 -0.20376569288454321
0.24874838848608324 -0.3124516700171894 -0.24653187218849446 0.23441653176128485 -0.513330800899761 0.0547430705547815 -0.3615313245927934 -0.19703093945357605
-0.33029268123694966 0.13705485560736033 -0.14516910898785576 -0.39185190348434196 0.4175845931893817 0.10561393471142178 -0.27281534086350867 -0.17100257574164213
-0.13843789226696296 -0.18691465730803783 0.3765440359583553 0.36548922011800444 0.22217374584277622 0.009790724420373884 0.3544721468847247 -0.20396475843960415
0.24133218181911684 -0.3309178694723161 -0.02876009333309251 -0.3349064458756944 -0.2261654779843914 -0.13698662137906623 -0.1625014825967489 -0.3842001428042257
0.05250662307725676 0.18488558064235497 0.003612113490435602 -0.293072447928448 -0.2172006163556115 -0.4103859663717299 0.004240155128410784 -0.5131133992754231
00000000: 2f92 296b 9881 9abf 28a7 b939 2af6 c8bf
00000010: 1c89 4c06 ec7f d13f 458e 7024 d9f9 d1bf
00000020: bd34 905f fb31 cfbf 404b cd4a 28e4 803f
00000030: 5e05 453a 36f7 e03f 5400 f910 3c5f 893f
00000040: cba4 80fc ed1a c4bf 08cd 1765 97bc dc3f
00000050: 1478 2040 b0c8 dabf ad96 3199 81e1 c93f
00000060: 545c 934f ed35 c0bf 0d5a 43f0 d885 b83f
00000070: db0d 608b cb3d c4bf cc39 1f05 1f65 cbbf
00000080: 1c1f 38b1 491f babf 20d8 99f9 1621 d73f
00000090: b3ea de3f d788 d23f faff 4769 f7e7 c4bf
000000a0: 84de 8724 807c c73f 7e61 0a62 ec43 c7bf
000000b0: b393 105a 3bf2 c1bf be31 7e85 fe14 cabf
000000c0: bf7e bdb8 fcd6 cf3f 7d7b 134a 35ff d3bf
000000d0: 7351 3c3c 5b8e cfbf 343a c764 5c01 ce3f
000000e0: 549b 3cb7 346d e0bf d849 6ea3 4807 ac3f
000000f0: 49c2 e647 5423 d7bf ff6a a050 4f38 c9bf
00000100: a255 01ea 8323 d5bf 09ba 4b75 038b c13f
00000110: b103 bfbf e694 c2bf 58cc 9501 1a14 d9bf
00000120: 7ef5 c3ba b4b9 da3f 3062 96cb 8309 bb3f
00000130: 72c6 b679 ce75 d1bf 74ca 2b93 69e3 c5bf
00000140: da29 e835 55b8 c1bf 19fa 23ca d1ec c7bf
00000150: 9e7a fc27 4c19 d83f c8a1 dce5 2c64 d73f
00000160: 5257 3676 3070 cc3f 8569 84c9 280d 843f
00000170: 889e 8df1 abaf d63f 146f 8467 841b cabf
00000180: db55 3112 f9e3 ce3f 05eb c224 c22d d5bf
00000190: 07a2 2e31 4973 9dbf 6a5d 1072 1b6f d5bf
000001a0: 7aad b689 fdf2 ccbf 0f04 6811 c788 c1bf
000001b0: 7cfb a63c d9cc c4bf 899c 1d32 bc96 d8bf
000001c0: 1464 e1e9 25e2 aa3f 7d31 2ea9 54aa c73f
000001d0: 7093 f2a9 2697 6d3f b686 cdf0 b2c1 d2bf
000001e0: f08d f5d3 3acd cbbf af73 1380 c343 dabf
000001f0: e82f b4f9 1f5e 713f e8df a0ca 6c6b e0bf

topology.conv_GAT.lin_r.weight f8 [64, 13]
-0.16443850939633636 -0.08740309221086749 -0.048901034620158296 -0.12282012248254291 -0.1577118803451141 0.0067800148542198286 0.36066537701377227 0.05731942090110699
-0.052836947390020615 0.160929379320084 -0.4877316323788746 -0.2140785825392888 -0.3667515369286236 -0.4714503489464223 0.04191734418068563 -0.5706588487577102
-0.23543737105074608 0.05170074443052945 0.06866194981880243 -0.11612191932452852 -0.0276642157806559 -0.24532164411293791 -0.20589120326463736 -0.13751238184473377
-0.4604605146626324 -0.2659318991025593 0.28235552276618137 0.25199928248776493 0.2383813696911567 0.2603211325609185 0.12995462116795714 0.07266657651766853
0.24403888706198554 0.2119568884338321 0.19992734153586703 0.2728966789363435 0.2488350338628176 -0.2359466465241997 -0.15842364584328467 -0.4061456034197016
-0.027724105252557578 -0.28697324653943834 -0.13134535368549136 0.11694410394983801 -0.06818049998604461 0.0938262798306013 0.3043148847299475 0.3131102920828375
-0.3267661753405182 0.10707798270228093 0.12284629911670579 0.19646679728875585 -0.11223083988484922 0.09912296699954092 -0.1851241493929143 -0.44281079822698166
0.47064452565070414 0.2556205462125367 -0.3020394503596384 -0.12352903827777484 -0.2919226566983171 0.2920048714646652 -0.12358929463277907 -0.423235191815983
0.02129028887815208 -0.38025851020332224 -0.21748660371608286 -0.032477452548588415 -0.3709233143425015 -0.2904524234063787 0.23861769707383793 0.22437908090633507
-0.43135609061729124 0.07292104035217462 -0.40107665911769735 -0.20862729137416858 0.11909824590161702 0.03401331274900093 0.13405796940381765 0.2351349755264214
0.37098663006353844 0.16784796493685877 0.0952239870176097 0.22582097126177983 0.14575669741967226 0.157528384811165 0.11316005149761485 0.20310620720520103
0.002912846021276106 -0.1415607859277502 0.11103040429446619 -0.2578051371346885 -0.3359801512626169 -0.3149632500775849 0.4512822896337686 -0.3477864773161985
-0.2062445783975655 0.09781763576335986 0.005771127601570832 -7.610975166395806e-05 -0.2401937374148102 0.013810438972497105 -0.3624429450347959 0.14215776224322194
0.03263234829867672 0.03430021174490581 0.1510589446807406 -0.17042397114433183 0.2813070043299236 -0.07012465992248959 -0.13518257242063764 -0.3621972159646867
0.12604056797658794 0.31864659432153386 -0.12060852818454793 -0.49538603503427264 -0.14990087478479058 0.08433970374298604 0.029650033900057913 0.036732063609605
0.1824490800042717 0.07413554717309191 -0.09777563908632858 -0.023992356737275136 0.20952380915222477 -0.1433882690671611 0.15899887192074277 0.017169726976507784
0.06763500155815337 -0.13703327805847568 -0.20423209273261617 -0.3510698196378559 -0.23980651406883385 -0.21192264214715809 -0.007228054505261136 0.11031715272118979
-0.44940328238414884 -0.28500117860339486 -0.2114070212354891 -0.058160581650511224 -0.014796360342380882 0.4131036426534432 0.1062407883923661 -0.3115437797656198
-0.5199170753566514 -0.2437538985643392 -0.2735383366228121 -0.4588845103941617 -0.20723656353633346 -0.4071439217461023 -0.3736696257929963 -0.18312187139496539
0.264540717535484 -0.2890067535584123 0.09570168028881845 -0.10315939703901261 -0.28935829440279887 -0.2168498662355564 -0.17803827929135152 -0.1808484112336895
-0.2897589433018154 -0.23352576959804147 0.0062610581089025084 -0.29702210522814 0.3712605036289861 -0.181960652700648 -0.08250333966049844 0.044036341666624464
-0.1927593388236183 0.2523971821399754 0.12005559525857837 0.10412571552897323 -0.006151400730026863 0.02259774143197444 -0.15026297287190601 -0.05757347297363084
0.11609389581178539 0.15838806978918962 0.2789510893490487 0.056513919932455275 -0.27288532968232104 -0.03374752213589128 -0.3502484199020285 -0.052226195478436974
0.01854290889499709 -0.22206538537233744 -0.3896215988012112 -0.2809914200872152 -0.29789212281303845 -0.4532161017755743 -0.023995470832398842 -0.4588685862136299
0.22496154115287836 -0.1626499446310743 0.23653705179493986 -0.376057833497368 -0.2707125726173484 -0.29370146841074257 0.025676757341542795 -0.17841892215440483
-0.4548738604027161 -0.2563875662621766 -0.4262576222667904 -0.19597310946228516 -0.04351250034552549 0.04863576380163141 -0.24287025971038895 -0.2385464173638055
-0.13368777337009854 -0.11737913356389029 -0.11240558302343794 0.0890269089026124 -0.21068079919743313 -0.2837350693770836 0.29586415227855845 0.06629458859773601
0.4695586561760223 -0.11073648011590258 0.01598269768054353 0.1161406906200045 -0.3290102168331415 0.4284793539154565 0.28407994419325744 0.43944594418106275
0.3200652579469242 -0.22915993386782485 -0.09361033773405775 0.2876516852935097 -0.12478798040569036 0.028328425842900073 0.14213930994776497 -0.1950000474784276
0.20459525917883478 0.23130850838605915 0.3551416568449696 0.13417672870753797 0.00521983611309302 0.25635673585692775 -0.03445791515415644 -0.009931516507093154
-0.028516564639480893 0.25152997286837586 0.19264845082050552 0.2788719062272378 0.03900024364853291 -0.11888071573816952 0.25803785803779605 -0.43414553939158673
0.05878782622937193 0.2283065370720747 -0.5833498228190459 -0.5021516790206798 0.2819940846792486 -0.10309764417220604 0.4324636102269946 -0.03540050045281817
00000000: 62b6 0732 520c c5bf 3f6d 9d8e 0c60 b6bf
00000010: 1448 de70 8e09 a9bf af6d 5ab9 2371 bfbf
00000020: 61ef 2224 e72f c4bf d956 0b61 5cc5 7b3f
00000030: e1b6 c43b 2415 d73f c24e 649c f858 ad3f
00000040: 6b08 1fc2 710d abbf 7c9a 927a 5599 c43f
00000050: 7eaf 92bc fe36 dfbf 48e0 634f ed66 cbbf
00000060: 686f 3770 db78 d7bf 3769 9a15 3e2c debf
00000070: 144e c8ac 3076 a53f c8cb 9258 d642 e2bf
00000080: 6aa7 75d0 cf22 cebf b615 041d 8578 aa3f
00000090: a58b f35c d493 b13f 57fc d885 2aba bdbf
000000a0: ba8a 3018 0254 9cbf 85a6 3b1b b366 cfbf
000000b0: 5f21 4798 a45a cabf a3ba 6877 019a c1bf
000000c0: 48d2 e460 2f78 ddbf 5af4 663a 0705 d1bf
000000d0: 000c 08e6 1c12 d23f 6aa0 3999 c120 d03f
000000e0: 4e4c 66dd 4783 ce3f 08a3 b3f7 19a9 d03f
000000f0: 6eb2 f05f 5aa2 c03f dad9 a7d9 469a b23f
00000100: 6515 718f aa3c cf3f 001c fe3f 6721 cb3f
00000110: c583 bc18 3897 c93f aafd cda1 2377 d13f
00000120: f119 458e d3d9 cf3f 3f0e 36ed 7f33 cebf
00000130: e2ad e7dc 3947 c4bf f583 0621 4afe d9bf
00000140: ae7d 7b35 b563 9cbf 70af 2d09 c55d d2bf
00000150: 47c6 47af eccf c0bf 30b1 ec7d 0cf0 bd3f
00000160: ca3c aaf9 4674 b1bf feb5 60c3 ff04 b83f
00000170: fc78 6623 e579 d33f d95a 22c0 ff09 d43f
00000180: a0b2 21ad bce9 d4bf 8df4 d371 7669 bb3f
00000190: 0b11 24e5 da72 bf3f dd72 8df2 d225 c93f
000001a0: 4c75 e80a 29bb bcbf e7a6 8b6d 1f60 b93f
000001b0: 47d3 abeb 25b2 c7bf aad5 2c1a 0357 dcbf
000001c0: 6c84 6d37 0a1f de3f bcc8 8a47 165c d03f
000001d0: a45f 5946 9d54 d3bf 6866 825b 999f bfbf
000001e0: e8c3 de5d dcae d2bf afa8 4d33 35b0 d23f
000001f0: e45f 954a 8ca3 bfbf 766b d70e 4916 dbbf
00000200: fbf3 d019 1fcd 953f 3855 56ca 2756 d8bf
00000210: 0cac 23dd 99d6 cbbf b86e 1b79 e2a0 a0bf
00000220: bc32 1b24 35bd d7bf 03c2 e4c2 c596 d2bf
00000230: 73e8 9652 068b ce3f 881a 3327 74b8 cc3f
00000240: 6b6d 8893 569b dbbf 28bd 800b f4aa b23f
00000250: 655d 866f 3dab d9bf aca7 c090 4cb4 cabf
00000260: a28d 28ff 387d be3f 976a c563 316a a13f
00000270: b4c4 2dc1 cf28 c13f 1110 0423 e718 ce3f
00000280: cf12 d8b4 3ebe d73f aa4e 0dc8 0a7c c53f
00000290: 800d 0966 9960 b83f 99ff 289b b3e7 cc3f
000002a0: 3194 4bcc 27a8 c23f f652 7ade e329 c43f
000002b0: c65b 65a0 0ef8 bc3f d1cc c75a 62ff c93f
000002c0: 680d ca4c aedc 673f d355 faf0 a91e c2bf
000002d0: 976f 4e13 7d6c bc3f 7bfe 2e1e e17f d0bf
000002e0: f1cb 71e4 b280 d5bf 2f9b a19e 5b28 d4bf
000002f0: 226d cf1c cfe1 dc3f 841a 8436 2242 d6bf
00000300: e8f0 98eb 3866 cabf 265f 939a 930a b93f
00000310: fce5 f444 77a3 773f 0044 c493 a3f3 13bf
00000320: 9047 731b abbe cebf 789c d7bd a548 8c3f
00000330: b0c8 e5e4 4332 d7bf ef84 dabd 3932 c23f
00000340: 1710 78e9 2fb5 a03f dd67 611f cc8f a13f
00000350: de05 9645 e655 c33f 287a 42e3 73d0 c5bf
00000360: 6ae5 ee17 ef00 d23f 6e9d 0291 b0f3 b1bf
00000370: c694 c49b a94d c1bf 2851 513b 3d2e d7bf
00000380: f9df b6ea 1822 c03f e6ef 65af b464 d43f
00000390: 20dc 2b54 33e0 bebf 0782 d7a0 67b4 dfbf
000003a0: f2d5 6bad f32f c3bf 9f98 546d 4997 b53f
000003b0: d943 b417 945c 9e3f ceef d587 8bce a23f
000003c0: 7fdd e6cf 7d5a c73f c959 9416 8cfa b23f
000003d0: d8a5 3804 d307 b9bf 1489 29ce 7391 98bf
000003e0: 3365 051a add1 ca3f 3902 23fb 8b5a c2bf
000003f0: d30f 8035 135a c43f 67a3 61df f094 913f
00000400: 67d6 c107 8750 b13f 25c7 dc73 4e8a c1bf
00000410: d644 8af7 4624 cabf ec42 7d8c ed77 d6bf
00000420: 4e8e a5d7 fab1 cebf 01e8 a6f8 4720 cbbf
00000430: b0bb 6b1b 2a9b 7dbf c716 20b3 be3d bc3f
00000440: aa84 23fc 05c3 dcbf 0513 5b95 753d d2bf
00000450: 3af4 2ca1 620f cbbf b5e7 3548 39c7 adbf
00000460: 10b1 29de 8d4d 8ebf 4585 c342 4a70 da3f
00000470: fb7e a5a7 9832 bb3f 6565 5752 55f0 d3bf
00000480: bb3d 6922 29a3 e0bf 7e9c 4de7 5333 cfbf
00000490: 67d2 7ff0 a681 d1bf 5d2b 3223 5d5e ddbf
000004a0: ec44 764b ba86 cabf 538a 2a61 a50e dabf
000004b0: cb86 9201 34ea d7bf d06e 6998 8970 c7bf
000004c0: 269e 9130 3cee d03f 1ad1 b62e 167f d2bf
000004d0: d241 03c3 e77f b83f 64c1 8e7c a768 babf
000004e0: bd53 d2a6 d884 d2bf 0ed5 cf85 bcc1 cbbf
000004f0: 3809 7f55 f5c9 c6bf f220 e46d 0a26 c7bf
00000500: b21b 4d18 698b d2bf 5f31 9923 2ce4 cdbf
00000510: 5cb6 0efd 31a5 793f 2e36 0901 6902 d3bf
00000520: d282 586a bbc2 d73f 5509 4196 7c4a c7bf
00000530: 2412 a759 f01e b5bf 3957 966e ee8b a63f
00000540: b47d 1f88 56ac c8bf 3233 b982 4627 d03f
00000550: 4a60 56a7 f6bb be3f 229a de9e fba7 ba3f
00000560: 9463 5c0f 3632 79bf bab9 a7c1 dc23 973f
00000570: d76c 242d d13b c3bf a6e8 132f 457a adbf
00000580: 9edf c65d 54b8 bd3f f41a e96d 0f46 c43f
00000590: e703 7cab 55da d13f 74df c17b 64ef ac3f
000005a0: c0cc a207 f476 d1bf b114 caef 5a47 a1bf
000005b0: e21c 3d59 786a d6bf 6e16 2653 64bd aabf
000005c0: 7d5c 1b8d e9fc 923f c4b8 df77 a36c ccbf
000005d0: dfa6 2a6e 8fef d8bf c4cb ee6f c3fb d1bf
000005e0: f8f3 4d1f aa10 d3bf 8563 c91b 7e01 ddbf
000005f0: c2ba e8c9 4492 98bf 48c1 bc58 1a5e ddbf
00000600: dcff 0d2f 8acb cc3f 907e 71a0 b6d1 c4bf
00000610: f731 e09a d846 ce3f daa6 11e0 5411 d8bf
00000620: 7a7b 80d3 5a53 d1bf cf1f 673e 01cc d2bf
00000630: b26f 3204 024b 9a3f b903 d265 6ed6 c6bf
00000640: 2d09 8f40 a71c ddbf fc9c 0c65 a768 d0bf
00000650: 1c9f d30c ce47 dbbf c799 0498 a515 c9bf
00000660: 6606 e73b 4547 a6bf 5652 e36d c9e6 a83f
00000670: 5a46 5067 5f16 cfbf cae7 9362 b088 cebf
00000680: f9f3 3f53 ae1c c1bf 00c5 e313 8f0c bebf
00000690: e735 f9be 9cc6 bcbf 8560 33ae 77ca b63f
000006a0: f15b 39a3 96f7 cabf befb ec22 b728 d2bf
000006b0: 4e17 8632 70ef d23f 44d6 eda1 aef8 b03f
000006c0: 341a f5bf 3f0d de3f b36b 92d8 3959 bcbf
000006d0: c8f1 5baf c45d 903f 45a1 f273 65bb bd3f
000006e0: 1949 56de 800e d5bf 83ff 04ab 346c db3f
000006f0: 669c 70a5 5d2e d23f 3885 a7e1 e11f dc3f
00000700: 26f1 ddfd f27b d43f bc06 c2da 1c55 cdbf
00000710: 8ca2 22db d8f6 b7bf e664 3e9d e268 d23f
00000720: 7ebd c6e6 1af2 bfbf 606f 2b7a 2002 9d3f
00000730: eecf d9f3 9e31 c23f 9db3 51f5 c2f5 c8bf
00000740: 937c 8b6d 2d30 ca3f 4aff 6667 849b cd3f
00000750: 672b 6612 a4ba d63f 2171 d7fa b32c c13f
00000760: c8e4 5616 6561 753f 2259 2715 2668 d03f
00000770: e4d3 59c5 77a4 a1bf 54fc c794 f956 84bf
00000780: 3457 1542 7233 9dbf 82bd db2b 1119 d03f
00000790: e016 f355 b4a8 c83f 003a 418d 09d9 d13f
000007a0: 6c51 0306 d7f7 a33f 6273 3872 f76e bebf
000007b0: 0dbe 5938 b183 d03f 8408 595f 0ac9 dbbf
000007c0: 1dbd 1d1e 7019 ae3f 6002 180b 2639 cd3f
000007d0: 8853 643f cdaa e2bf 55cf e065 a011 e0bf
000007e0: 9038 d7ea 300c d23f 32a7 0372 9b64 babf
000007f0: 61a4 a8d9 7bad db3f 20ed 69af 0320 a2bf

topology.conv_GAT.lin_r.bias f8 [64]
0.24820445483415807 -0.2118142555068505 0.02875821723391031 0.1397644460449165 0.04039653546877864 -0.06910229162432317 0.21689101293196528 -0.041026041031526246
-0.007543692414147415 0.217344989390686 -0.2177607913140989 -0.23096231561726505 -0.2588610188574882 0.2714887832106197 -0.3085337471561541 -0.25563016742106
-0.022800425334209007 -0.04453205618956367 0.023671643027582356 0.10568657437727441 0.291848997383877 -0.2734425886572309 0.20640700453677313 0.2576161226683293
0.4853575683615846 -0.415781897554359 0.1734440742343758 0.17999388197775198 -0.20395855194996557 0.30014131977658753 -0.03776302400860411 -0.289991925300381
-0.134200614097078 0.04419344238206271 -0.20733684760998938 -0.3701365704541147 0.28624620964964465 0.02614575736626639 0.03782092146108411 0.18666306073476913
-0.34036381538878596 -0.022858233625954304 0.15970092788165005 0.25672244868940236 0.33282972244766157 -0.084440786404178 0.26462359913488825 -0.17195577773037932
-0.026840221330832872 -0.23417278643665781 -0.238455352409631 -0.4163329525962986 -0.41702171240318664 -0.29553294009961617 -0.3980057105768986 -0.14465219136050406
-0.13564332698650283 0.3221131224651208 -0.2073087126698782 -0.050571226772673165 0.08790837382395053 -0.2383513650688619 -0.1522965895795787 -0.10439425530433155
00000000: dbfa 1de0 29c5 cf3f d83f 1dc2 ba1c cbbf
00000010: 902b 0b4a cb72 9d3f 4e07 7426 cde3 c13f
00000020: 5093 6bcd daae a43f 53e9 9a12 b0b0 b1bf
00000030: c267 abaf 15c3 cb3f 898e 0781 5d01 a5bf
00000040: f087 5b83 22e6 7ebf 8ff4 b0ea f5d1 cb3f
00000050: 01c7 85ea 95df cbbf 6ea0 1754 2c90 cdbf
00000060: 0bf0 8cce 2d91 d0bf 61b5 477d 1260 d13f
00000070: 7adf 6f54 04bf d3bf fd71 3ca2 3e5c d0bf
00000080: 20ce 94a4 fe58 97bf 1e66 ead9 e7cc a6bf
00000090: d38e 9512 613d 983f 54a0 937c 460e bb3f
000000a0: c595 c86a a7ad d23f e472 e757 1580 d1bf
000000b0: 3e4c 1373 8b6b ca3f 5f19 7255 c87c d03f
000000c0: 6aa9 be30 1910 df3f 64f2 10ad 2b9c dabf
000000d0: 1cc5 4259 6a33 c63f 278a 491e 0a0a c73f
000000e0: d7ab 2e57 501b cabf 2299 27f0 8335 d33f
000000f0: 92e3 3ad2 ac55 a3bf c23a d14a 3a8f d2bf
00000100: 6235 5358 7c2d c1bf a30d 75db 85a0 a63f
00000110: 4ccd de89 038a cabf 81db 494c 51b0 d7bf
00000120: d225 439f db51 d23f 2ee1 4413 f4c5 9a3f
00000130: 6654 8f89 435d a33f 7411 9d3e 93e4 c73f
00000140: 238b f54f 85c8 d5bf e3a0 7817 2668 97bf
00000150: cd3e 327b 1471 c43f 0748 51fe 236e d03f
00000160: 692a 4309 154d d53f 7bf1 0d50 e99d b5bf
00000170: a92f 02d2 97ef d03f a1e8 da9c a502 c6bf
00000180: 2454 55c3 007c 9bbf d7e7 adb5 5ff9 cdbf
00000190: 14e8 137a b485 cebf 737c e9f7 32a5 dabf
000001a0: 3697 1fd6 7bb0 dabf ca96 27fe 02ea d2bf
000001b0: 2823 a3f1 ec78 d9bf 9e13 9887 f683 c2bf
000001c0: e4f0 a9b2 c25c c1bf a468 a65b 809d d43f
000001d0: 05e7 8b86 1789 cabf f7e6 36ca 78e4 a9bf
000001e0: 1e50 9ec6 2981 b63f 7cbf f62a 4c82 cebf
000001f0: 20b0 c463 747e c3bf 0021 6cf8 94b9 babf

topology.convs.0.eps f8 [1]
0.1009190318028138
00000000: f716 2365 d4d5 b93f

topology.convs.0.nn.0.weight f8 [64, 64]
-0.26903466841066737 0.40603978713480565 -0.1261202871586455 -0.24063304294346347 0.11556611780625728 0.05915033584085521 -0.007340256088173555 0.15573907614492882
-0.35744953640831945 -0.3074271809882152 -0.05591643109578673 0.25258704008918065 0.05139187898396743 0.13540497376110353 0.3698804263018955 0.2144895051047246
0.1658707973229301 0.21274950157070266 -0.10417524072570623 -0.37229959492967357 -0.2849985786981863 0.22763067582397112 -0.33348973308175284 0.08008771288714883
-0.11384027867427146 -0.31347081607696564 0.08237165809727952 -0.21475401472161523 0.1796606598602257 -0.2865551538558154 0.25018785721112613 0.20053990122928858
0.0018619710932898277 0.15777066294977588 0.12116561494682841 -0.0038869025755799494 0.07270688953171923 0.14932210414552863 -0.17627062129963705 -0.0017947788401630575
-0.27542674745244244 0.040932282892459336 -0.017985844837916674 0.10808792037434872 0.2664749529216163 0.1696236456608765 -0.09332812152873524 0.0068976695097836375
0.059400900671333 0.25743551448939594 -0.025591760540876335 0.18749625275564472 0.06830054398680294 0.21582970283218217 0.12610689750780618 -0.08600668209288356
0.2561620601302965 0.12333775760495068 -0.19029760096592085 -0.05655181245986429 -0.19710775279449194 -0.1798292545457067 0.37617276573369396 0.25388626390668934
-0.23109187836259784 0.10623704619570754 -0.1962679818811281 0.3165752763843491 0.15278935924849246 -0.12433223258592062 0.11249226502400737 0.23073562848355486
0.2524565631380341 -0.15378138092584367 -0.29277360930750157 -0.06449404528053365 -0.04998886585094073 -0.1082824755651389 -0.12233792600067411 0.35153926708518
0.19876018845905696 0.011619667286597194 -0.06797055368281098 -0.016727899698365266 -0.18268702818191612 -0.09090019555160897 -0.10645221328635161 -0.0007657326334464566
-0.0037822478598418495 -0.20972088138470057 -0.003434866262309176 -0.02703702917096806 0.16620993428888273 -0.19028374558804287 0.1723896996398025 -0.008487621779218957
0.001064428199378441 -0.044622002433447924 0.17319725907135708 -0.1310541021357861 0.17009088104374806 0.025703919135571025 -0.13702750861069504 0.12851082106740727
-0.23055136214000654 -0.16799742188115915 -0.12107741971093064 0.15796770331433 -0.0031657352313196156 0.17999457987323914 -0.10521690127750086 -0.13694964424893957
0.17046080404678193 0.04663549271262289 0.07395326871570024 -0.006961506337280765 0.34976977151947986 -0.1804510199101823 0.3025036537009227 -0.03009129503207056
0.17073963762229594 -0.05432271251188418 0.2247595148571756 0.016127395231907777 -0.20508190995777176 -0.1754295060852017 0.14760404212502878 -0.1292543824597701
0.3369509576117064 -0.39855102577881263 -0.008694565723699083 0.1193392909691735 -0.12807530148385188 0.18721254356228673 -0.09991079885368181 -0.33370340807584137
0.2784184389886578 0.18588871150539543 0.23901573341487387 -0.30761870209330705 0.1386204112789085 -0.15475480462532665 -0.2809726252651546 -0.26028110298201335
-0.27820093448158423 -0.37050706377348014 0.19224039177784447 0.24058490958470577 0.17475953429359697 -0.1028689756437361 0.35947605877242345 -0.22418432051578463
0.34495541285568565 0.36967125654813604 0.3099525293534354 0.1237944480724278 -0.24505668577176346 0.26807051701864776 -0.32357114390422625 -0.1452076197669518
0.21851095965953954 -0.350767053499241 -0.0761423974664362 -0.29899539374630013 -0.06704284805515401 -0.2868315826134567 0.16516404079391364 -0.22335346965604924
0.18166076720861274 0.011253487202458345 0.15191193947937226 0.10292552216630743 -0.12167823327417461 -0.29063033346780076 0.19509075588339017 0.18420111602372444
-0.20603529927751113 -0.3124355176734789 0.0724391747920185 -0.19064694721481726 -0.21063641968210975 0.2896894988486693 -0.3210340150801081 0.3181677172717732
-0.24640205764534445 -0.024218027419709444 0.04687351995794235 0.19682761977314245 0.37693491477306207 0.4023184747261379 -0.21991309639304696 -0.16850917008361885
-0.18740758961074372 0.14834677152546147 -0.1182874715110949 -0.054965457458894834 0.13034672160618765 0.07172627389662355 0.06833750145065197 0.25349041542644557
-0.14271557801296508 -0.2237358140529461 0.09421343391473633 0.0874697814555742 0.08418824604596334 -0.11127231996295013 0.1908624921902444 0.07789110317293427
0.14795847989441963 0.24064889213502852 -0.12671426098865748 -0.32115900943398434 -0.12996743103481362 0.18244279547571904 -0.16780502566208705 0.18793167529451174
-0.22307664877487274 -0.2268236408428848 -0.05450524565045344 -0.007206161580502635 0.1848289634647632 -0.33400094358847476 0.30661721967955824 0.022952063916633677
0.16109107721401558 0.11610065761227409 0.16966763112225974 -0.10698624823940077 0.1686253127045193 -0.053359047416430515 -0.36428895035907555 0.06680682263072321
-0.015655327042919505 0.01034509892400879 -0.23285499145754562 0.03830657346255113 -0.03141362699860758 0.01168939825375499 -0.25773793529218586 -0.11826325318031343
0.07051656381783244 0.2212849023958103 -0.011235661684525243 0.07625506113368478 0.11763503953109057 0.26539003905582015 0.3253497598976164 -0.21766542580519282
0.26989933695904167 -0.16584923914581215 0.05606096678029504 -0.06530393709048649 -0.1378635375870249 -0.25213314947323373 0.3963630284613976 -0.018176663777093698
00000000: ea18 942f dd37 d1bf 499a a74d 8efc d93f
00000010: 7fb0 5aa6 b524 c0bf d5ba e344 10cd cebf
00000020: 32e9 80b8 bd95 bd3f 67c0 f7eb f348 ae3f
00000030: 70ce 7cfd d010 7ebf 7638 600f 42ef c33f
00000040: a005 3605 74e0 d6bf 20bc 0f0e e3ac d3bf
00000050: 241b bb15 14a1 acbf eae4 24d5 622a d03f
00000060: 2b42 084f 0950 aa3f cd84 023f f354 c13f
00000070: 636b 99f3 1eac d73f 3e48 e160 6474 cb3f
00000080: d984 ee18 413b c53f 9a44 be2b 603b cb3f
00000090: 2547 f883 3aab babf 225e 22ae c1d3 d7bf
000000a0: 8392 baad 6a3d d2bf 947b 1d82 0023 cd3f
000000b0: 51d3 4852 e557 d5bf ec67 a9db a080 b43f
000000c0: 269f dff1 a224 bdbf 8f43 d3e5 e70f d4bf
000000d0: df25 a519 4f16 b53f 43ff f43e 0f7d cbbf
000000e0: 0f1d 3dd9 1eff c63f 06e7 936d eb56 d2bf
000000f0: aaff 24ee 1303 d03f a153 a99e 4aab c93f
00000100: d0ea e93c ac81 5e3f 769a d13e d431 c43f
00000110: d7aa 98b1 b504 bf3f 903e 3cee 6cd7 6fbf
00000120: e98c bb30 eb9c b23f 69fe ef98 fc1c c33f
00000130: 1a20 dd24 0990 c6bf 30eb 021b d967 5dbf
00000140: fe1e 3082 97a0 d1bf f359 bf80 13f5 a43f
00000150: 46a8 7a9d e16a 92bf 0cb9 1963 a6ab bb3f
00000160: 4718 00f6 ec0d d13f e4f1 5e45 3ab6 c53f
00000170: 0656 c30d 5ae4 b7bf 6c02 690f bb40 7c3f
00000180: e5fe 787b cb69 ae3f 9ee5 e3ce d279 d03f
00000190: 68cf 47fa b934 9abf 2fa1 da90 e0ff c73f
000001a0: 7eea b8fa 247c b13f 24b6 95c5 4ea0 cb3f
000001b0: 6a4b 4c54 4524 c03f 328f d3ae 8804 b6bf
000001c0: 3814 af8d f564 d03f 0776 4633 1093 bf3f
000001d0: 24f4 53fa ab5b c8bf 60db 16f2 5bf4 acbf
000001e0: ae2b 05ac d33a c9bf b6a5 911f a504 c7bf
000001f0: a436 9eef 3613 d83f b680 182c ac3f d03f
00000200: fd22 f82d 6b94 cdbf aac1 08df 5932 bb3f
00000210: fe36 b729 4f1f c9bf 8abf b2f2 c442 d43f
00000220: bc14 930a 9a8e c33f df91 cbb8 3cd4 bfbf
00000230: 6bc1 5407 4bcc bc3f 97ef 2dbd be88 cd3f
00000240: 9aa8 9592 3f28 d03f 2fb5 e7b8 1baf c3bf
00000250: ede2 4685 cdbc d2bf 3442 4487 ae82 b0bf
00000260: 4ce3 fcff 2398 a9bf a63d 487b 66b8 bbbf
00000270: b4bd 3bcf 8951 bfbf 8800 d98d 9e7f d63f
00000280: 54d7 964e f970 c93f 2204 e457 0dcc 873f
00000290: 9d9f 28a9 8466 b1bf 367e 8a58 1e21 91bf
000002a0: e6ed b8dd 4962 c7bf 361b 1837 3c45 b7bf
000002b0: 9bd5 a6c6 7340 bbbf 20f7 1e4f 6e17 49bf
000002c0: 38dd a0db f2fb 6ebf 6cf4 6a43 22d8 cabf
000002d0: 3076 68c8 6f23 6cbf 3ffe 4750 98af 9bbf
000002e0: 7741 05fc 5d46 c53f 6169 21c0 375b c8bf
000002f0: 3263 0f9d dd10 c63f 1a54 b34f f561 81bf
00000300: 948d 8913 8970 513f 2e73 44f2 b1d8 a6bf
00000310: d8f1 bbe9 532b c63f 2a05 577d 61c6 c0bf
00000320: f921 b7b9 89c5 c53f c2e5 43d0 2052 9a3f
00000330: 4d51 110e 1e8a c1bf df53 d5e6 0a73 c03f
00000340: 2e44 3800 b582 cdbf c35c 6584 f080 c5bf
00000350: 8648 f105 eefe bebf 6d96 c723 4938 c43f
00000360: 5879 2929 07ef 69bf 26a4 01f9 0f0a c73f
00000370: f22b f9ad 7eef babf 72bf 9fe1 9087 c1bf
00000380: d2bd 50dd a8d1 c53f fe2e 1178 9be0 a73f
00000390: 9cf4 90f6 99ee b23f 00d3 ca20 ab83 7cbf
000003a0: 448e 73c0 a062 d63f 58a4 85de 0419 c7bf
000003b0: e438 e448 385c d33f 2866 3aa0 40d0 9ebf
000003c0: ccfc dbe3 cbda c53f 864c 56c3 2fd0 abbf
000003d0: ec60 e376 ebc4 cc3f 25e3 5c2c b383 903f
000003e0: 548a 22c0 1f40 cabf 04d7 b15b 7974 c6bf
000003f0: 959a d772 b0e4 c23f 02c3 c358 688b c0bf
00000400: 1315 d3bf 9a90 d53f d676 6029 dc81 d9bf
00000410: bd5b 7ddb 74ce 81bf 5026 d70f 058d be3f
00000420: ba34 a67f c564 c0bf aa20 00a4 94f6 c73f
00000430: 2003 980d c193 b9bf 7ff7 0f8a 655b d5bf
00000440: 6ad1 8392 9bd1 d13f 843d 4e88 33cb c73f
00000450: fe87 1f4b 1198 ce3f f53c 485a 06b0 d3bf
00000460: 2a20 804a 50be c13f f8df 6164 01cf c3bf
00000470: 5172 259b 74fb d1bf 84c5 4412 72a8 d0bf
00000480: aa29 d44a 0bce d1bf 7705 7642 63b6 d7bf
00000490: 14fa d349 559b c83f 2be9 497f 7ccb ce3f
000004a0: a643 3a3a 855e c63f a8b1 2906 9f55 babf
000004b0: 93d7 07df a701 d73f 5c15 7262 12b2 ccbf
000004c0: 36c6 32de bf13 d63f 624f 49a1 b1a8 d73f
000004d0: caab 3822 43d6 d33f 21bf e531 feb0 bf3f
000004e0: d526 8779 045e cfbf 597b e73d 1128 d13f
000004f0: 9ade 3fbe 63b5 d4bf 46b8 03cd 2996 c2bf
00000500: fe13 c7c8 2af8 cb3f 12c9 d2a7 f772 d6bf
00000510: a416 f572 117e b3bf 50e1 7293 bd22 d3bf
00000520: 86dc d357 b829 b1bf d538 b2da 725b d2bf
00000530: 57b0 d764 1824 c53f 5678 cfb3 d896 ccbf
00000540: 164a 10f7 a840 c73f 060d 017c 110c 873f
00000550: 72c9 f7b5 d971 c33f 7ec5 a0b7 5359 ba3f
00000560: 1132 8c00 4e26 bfbf da10 5ef8 af99 d2bf
00000570: c3b2 22e0 bbf8 c83f 57b3 9af4 e693 c73f
00000580: 3ef7 1b5c 5d5f cabf 0e0d a18a f1fe d3bf
00000590: 8c52 aeae 5f8b b23f 2d58 af81 1e67 c8bf
000005a0: e7ca f05a 22f6 cabf b32d e3d2 458a d23f
000005b0: 740c eb40 d28b d4bf bcd0 1421 dc5c d43f
000005c0: 867e a045 1a8a cfbf fa12 f74e 9ccc 98bf
000005d0: 9618 8956 ceff a73f 9005 f0be a531 c93f
000005e0: 30ef ea9e b31f d83f 949f e1fc 95bf d93f
000005f0: 9230 7cc2 1c26 ccbf 4be9 4a5f b591 c5bf
00000600: 223e 33ce f8fc c7bf 23a3 15ea 06fd c23f
00000610: d2ab aa75 1648 bebf f429 64b4 6e24 acbf
00000620: 043e 388d 33af c03f 3f62 a630 a75c b23f
00000630: af26 d205 917e b13f 52c9 06dd 2f39 d03f
00000640: 9403 190a 8144 c2bf 5592 260a 60a3 ccbf
00000650: 56f5 8121 5f1e b83f eb6d bd6a 6b64 b63f
00000660: 829a 7963 5c8d b53f 0de0 30bf 577c bcbf
00000670: 67bd fea0 2e6e c83f faf0 c6dc abf0 b33f
00000680: eafc 27b0 4df0 c23f 29f0 c438 95cd ce3f
00000690: 2d09 7143 2c38 c0bf 066c 9584 de8d d4bf
000006a0: fa79 ebd4 c5a2 c0bf 7fc1 fa17 495a c73f
000006b0: 7e5b a994 a27a c5bf a1de a227 250e c83f
000006c0: 3fa3 7e8f c68d ccbf 9a9e b09b 8e08 cdbf
000006d0: efeb 0e8f 1ce8 abbf 4053 1645 3584 7dbf
000006e0: 75a5 b7b8 79a8 c73f c4eb 627e 4560 d5bf
000006f0: 7081 bad4 9d9f d33f cf2f 97ef be80 973f
00000700: c3e2 27e6 a19e c43f b222 7dcf c5b8 bd3f
00000710: 1e11 6e3f abb7 c53f cb59 4f65 7363 bbbf
00000720: d4fd aba5 8395 c53f 23d5 3287 e051 abbf
00000730: 8787 059a 8250 d7bf be3f 597e 401a b13f
00000740: e24d a136 f307 90bf 7486 6bac cf2f 853f
00000750: 54a0 823e 31ce cdbf 3aa9 7c50 eb9c a33f
00000760: 9b2c 3769 7215 a0bf 26aa ad79 9cf0 873f
00000770: 252f c140 c77e d0bf 235f ba24 8046 bebf
00000780: e083 6c9f 5f0d b23f 3fbc 714d 1053 cc3f
00000790: 6c24 dffb b802 87bf 9341 b9a1 7385 b33f
000007a0: d152 a677 541d be3f 4473 9b80 26fc d03f
000007b0: c663 a1cc 87d2 d43f d6cf a6ee 75dc cbbf
000007c0: f0df 5cde 0746 d13f bf4f 1941 8c3a c5bf
000007d0: d098 cee5 05b4 ac3f d48a 1a42 c2b7 b0bf
000007e0: 3ea2 9f2c 83a5 c1bf b466 ce13 f322 d0bf
000007f0: 3e74 2509 035e d93f 7e5b e441 e79c 92bf

topology.convs.0.nn.0.bias f8 [64]
0.06714987402667785 0.09811574803438056 -0.08690778455604292 0.10596217834393168 -0.05966526881981416 -0.031235329320977445 0.07842420669078541 -0.11628559304753129
-0.07933564864931526 -0.002610273201070208 -0.11288096530654876 0.09934389875309822 0.1236330279376156 0.014724084348583754 0.08458070135848078 0.028547217953600733
0.0239962421432038 -0.11578220725012826 -0.08702830793599589 -0.07060817932939878 0.012296463372362867 -0.07414638865984491 -0.0072949365795293725 0.12338906778699948
-0.008711899358957338 0.09893211638901386 0.11553298771700826 -0.022572992978695798 0.03193772413267218 0.04250040438086414 0.013810634465266735 0.07036947265374209
-0.04502929128068727 -0.02730542794955712 0.0970338044553253 -0.11236012453100373 0.08542690417964668 0.09975208094060654 0.07182301151162761 -0.07252503892990039
-0.028198462752685078 0.06012869586719567 -0.008563280907174575 -0.12324358104811527 0.08593197954857347 -0.1115069570493307 0.0008371095553449615 0.11075706369807144
-0.031234657654094368 -0.09886391954170841 0.11541058490073271 -0.12124613026023698 -0.10694120536346499 0.015632126220796294 0.0931679124806673 0.044007301211438456
0.03501806701411808 -0.022555393820571774 -0.06198866190966498 0.08970436030284501 -0.006092683049708518 -0.10452256674004698 -0.09337333311340126 -0.013482109229408727
00000000: a206 e0f0 bb30 b13f dcbd 0719 1d1e b93f
00000010: e49e 6fac 963f b6bf 8ca0 995a 5620 bb3f
00000020: 7188 9334 728c aebf 304f a777 27fc 9fbf
00000030: 7fa0 f3da 9b13 b43f b196 2283 e4c4 bdbf
00000040: cd12 5b50 574f b4bf f6f5 07c1 2362 65bf
00000050: 2e21 5556 c4e5 bcbf 17a2 330c 9a6e b93f
00000060: 3c90 b203 6aa6 bf3f c6fa ec25 a927 8e3f
00000070: 5419 35b2 14a7 b53f 268f 025e 7b3b 9d3f
00000080: 3586 ed8c 7892 983f 3316 9919 e7a3 bdbf
00000090: 3e4c 69b8 7c47 b6bf 58c4 0cad 6013 b2bf
000000a0: 2e7a 5360 e32e 893f 1819 69fa 41fb b2bf
000000b0: e24b 91a0 4be1 7dbf 3c3f d40a 6d96 bf3f
000000c0: c480 a956 8bd7 81bf 9635 6a7c 9d53 b93f
000000d0: 688d dae3 9193 bd3f ce20 77ea 5f1d 97bf
000000e0: 8426 5131 245a a03f 64e2 c3ed 9cc2 a53f
000000f0: b332 ecfa bf48 8c3f 3341 afd7 bb03 b23f
00000100: 9741 d34a 140e a7bf 58c0 2f40 f4f5 9bbf
00000110: 0af9 bd18 35d7 b83f af32 3c14 a2c3 bcbf
00000120: 7e6d a69f 89de b53f b30c 5935 5a89 b93f
00000130: 8fec 8a2d fe62 b23f 2255 583e 0091 b2bf
00000140: 55f1 47cd 0ee0 9cbf 0afa 993c 30c9 ae3f
00000150: 26ce 8a1b a089 81bf 1728 0b2e e48c bfbf
00000160: 4977 d761 a3ff b53f 7aa8 cd4d b88b bcbf
00000170: cd7e e914 2f6e 4b3f 4d5b 622e 935a bc3f
00000180: 1a1e 8164 fafb 9fbf 8b9e 2f55 254f b9bf
00000190: edc8 c24f 8c8b bd3f 5ef9 3b84 fc09 bfbf
000001a0: ca82 a1b3 7f60 bbbf b082 8a3b de01 903f
000001b0: 441c 2431 dad9 b73f ed08 fafe 1f88 a63f
000001c0: 2886 3059 e3ed a13f 7524 3bdb c218 97bf
000001d0: 5ce7 3f57 fabc afbf 982f cf6d ddf6 b63f
000001e0: d221 1827 a4f4 78bf b6ac d7ad fdc1 babf
000001f0: f262 0a94 50e7 b7bf bc72 c511 829c 8bbf
