src/models/mentor/results/3-channels/real-world/Kaggle/model_weights/10.ckpt (torch, 201687 bytes, 112 tensors)

topology.conv_GAT.att f8 [1, 1, 32]
0.3405341257984956 0.3437162458914334 -0.05605954674143751 -0.06998403241703752 0.35636195385694147 -0.3042787616795547 -0.43923693657731966 -0.3606049263596198
-0.28516405662058114 -0.20955444706507909 0.33062682888045686 -0.26831611783179904 0.15136200622019313 -0.4142088885273938 0.3804081449489806 -0.42240364851914614
0.2981202450542991 0.06739890035299224 -0.2382545838061809 -0.2994533537154644 0.4228335077438974 -0.3083034075889026 -0.33355122266665177 0.1159270379404577
0.39027187011299114 0.4091523215995938 -0.01951316197255222 0.18992806353623146 -0.08341016344956623 -0.010598565232292826 0.368454025560506 -0.15460663090694896
00000000: ca7e 5ea5 4fcb d53f 5549 cd6c 72ff d53f
00000010: 1c20 c43f d6b3 acbf 6e2f 793a 79ea b1bf
00000020: 9eab 565e a2ce d63f fafc 91a0 4d79 d3bf
00000030: 3cde 723d 751c dcbf 746d 5faf 2614 d7bf
00000040: 9186 4bbe 2040 d2bf c41c 701c aed2 cabf
00000050: 2931 4e6e fd28 d53f d1f1 c45d 172c d1bf
00000060: 844d 4989 d45f c33f b802 7cff 6582 dabf
00000070: 8b06 6c67 9b58 d83f b273 0650 a908 dbbf
00000080: 7a28 b2ef 6614 d33f 516e cde8 0d41 b13f
00000090: e7e9 c84e 207f cebf 0bab 3866 3e2a d3bf
000000a0: a06e da45 b40f db3f 90bd 3537 3ebb d3bf
000000b0: a938 393a e758 d5bf aa29 adf4 64ad bd3f
000000c0: 96c7 abdd 36fa d83f 2093 1638 8d2f da3f
000000d0: 94fd 0d22 42fb 93bf 5f88 bd12 904f c83f
000000e0: aa7e 2b54 5e5a b5bf ef2f 7558 b3b4 85bf
000000f0: b829 7731 c094 d73f 39bb be6b 26ca c3bf

topology.conv_GAT.bias f8 [32]
0.06930373768636916 -0.03392107969717429 0.043558161423327774 0.10209423769150353 0.08679813104317097 -0.0032051504739325602 -0.04838658981048145 -0.056142612924387984
0.024715021042210114 0.14513215032972637 -0.001744871226805389 0.07231336469044033 0.11584829587545503 -0.03567091105548196 -0.1612324284915924 -0.02844555089942003
0.039748165668142384 0.08702272654766466 0.13727201318214055 -0.049802966156876724 0.08989892918142349 -0.03482017734262484 -0.16668706631856653 -0.14053535282365118
-0.20091018011351502 -0.016156135736932007 0.029137475825929966 0.1171068980862484 0.03515336340067017 -0.03021562233239112 -0.12399029542798497 -0.11652839534242192
00000000: 2c80 dac6 e3bd b13f e184 e38f 1a5e a1bf
00000010: 5cfc 925d 414d a63f 22bc fe13 d922 ba3f
00000020: 0431 2ffe 6638 b63f 188a db0e b041 6abf
00000030: aa1a 9a89 20c6 a8bf f72e d87c b9be acbf
00000040: dc8d 62fc e44e 993f 94d5 a1b7 b093 c23f
00000050: 0009 b636 8596 5cbf debe 68f0 2083 b23f
00000060: e418 15e2 3ba8 bd3f 55bb cd28 7543 a2bf
00000070: bd88 b6a3 43a3 c4bf 22a0 519b d420 9dbf
00000080: 59c7 3d1f df59 a43f b2ed 8714 1f47 b63f
00000090: f0fd a21b 2192 c13f ee70 c63d c67f a9bf
000000a0: 1796 c7c0 9d03 b73f 7ae0 da45 f3d3 a1bf
000000b0: 0b91 4075 0056 c5bf 859a 27fc 0ffd c1bf
000000c0: acb0 82be 6cb7 c9bf 89bc 7aea 3b8b 90bf
000000d0: c29b 0ae7 36d6 9d3f ef9b 6ab9 b7fa bd3f
000000e0: baf1 4c24 9fff a13f 12cf fb16 d8f0 9ebf
000000f0: 6d73 e2f7 d3bd bfbf 5312 0d0f ced4 bdbf

topology.conv_GAT.lin_l.weight f8 [32, 5]
-0.3809082277008745 0.0637853612372985 0.4165291462850521 -0.054060377910327494 -0.37360663219433027 -0.035497351922452944 0.1334669553340953 0.19457079208820663
0.07941471683077736 0.10897138957278986 -0.057470335212098836 0.23987635066074836 -0.13283126378875068 0.07393158516601978 -0.2398641882630195 -0.00562417872940337
0.2167786642067647 -0.08210722725277447 0.19899060946171726 0.04411735995713022 -0.1637950601984885 -0.2584609622605786 0.24754121209183752 -0.305721823703952
-0.15587351811013983 0.36109774962931573 -0.12226327340584932 -0.38242011941213 0.145176876723738 0.34452024030467615 0.38655189713086346 -0.26869459822648034
-0.05943999641663576 0.36138428304720593 0.020723000573157496 0.2629298362148309 0.05683117161250015 -0.20103163372327743 0.22377882962605314 0.07619940512656294
0.2342527089562908 0.00707950668300404 0.26155938435660997 -0.1638411988205577 0.30492479381741716 -0.04046730568042897 -0.15241802130457432 -0.021700214770294678
-0.3040605011214918 0.10895056544959518 -0.13973094129079403 -0.2934051079453971 -0.11049133576258624 0.20473950053726805 -0.3420839178310458 -0.29041028259196544
0.05571143431554149 -0.06868336045335416 0.047551685024428116 -0.3645331410082354 0.3641916323477752 0.05286141799344855 0.3751922559749661 0.35210907796927776
-0.10295279837745305 0.4135204463169468 0.20179734961995166 -0.3264997443998153 0.39451809512043196 0.2158076841443567 0.35631403096309533 -0.028449597772752955
0.0702246028976776 -0.042103643057233235 -0.02948193078033165 -0.19042558459517306 0.039749141317311644 -0.2752993476927687 -0.03384935265406996 -0.14961144376835242
0.23712886060336935 -0.013932016537882185 0.1598031637961994 -0.36933295900404567 -0.041539799232612584 0.15805215222729194 0.34026522220551103 0.32203852517748477
0.24634364995833472 0.37525386373716596 -0.19434635107262554 -0.3330955451033273 0.07376590493539348 -0.19975850469463594 0.008919509865117033 0.033708674966940785
-0.3647345170498193 0.3477349574109351 -0.1711473392500986 -0.2320495521013251 0.302317315147836 -0.1509773434809943 0.16376433472236857 -0.25017213948462147
0.08470820427582999 -0.0827116490844048 -0.12834070075918175 -0.0019336828568471487 -0.016480969849812382 -0.16637998189116976 -0.036418010717645395 -0.23887354245118048
-0.3111856138224539 0.04682502425397979 -0.3048582877695995 -0.28489054595387364 0.21431371446743436 -0.08731898944501106 0.06752978698891253 0.2446753870049685
-0.3630628859451377 -0.1252603211613901 -0.41677022664530083 -0.16655246512315777 0.053676272927183466 0.25117519485217354 0.1158724482039195 0.2985723801265143
0.07976246510038214 0.34202830373622617 -0.1113612594556368 0.40986715190934364 0.017838972209067418 0.0467557352273947 0.18327626204922515 0.33885692958762204
-0.022747403068628314 -0.03364584816414909 -0.24321514036170985 0.28005898674751584 -0.23706251721000982 0.1020165742733584 -0.31712688006795897 0.24933547120755412
0.3959541537923 0.03368322539498014 0.11438022050945129 -0.30041979970873744 -0.0533242986454865 -0.24563425676850065 -0.22236182429924115 0.29002225817740523
-0.06925286378390495 0.23224334890560033 -0.33426329497568297 -0.07907916416357065 -0.2181010935457358 -0.06864773427523056 -0.4145528061354296 0.3264615822243783
00000000: 3a2a 30e7 cc60 d8bf 604d 7ac8 3c54 b03f
00000010: 9e01 48dd 69a8 da3f 63bd 4446 cdad abbf
00000020: 6ff9 b5ca 2be9 d7bf cefc 337b b52c a2bf
00000030: 52d9 20f8 7115 c13f ed48 631a b2e7 c83f
00000040: 66fa 9bdb 8554 b43f d930 6a8a 8ce5 bb3f
00000050: 3ac6 7374 c06c adbf a6fb 95ac 44b4 ce3f
00000060: cdf4 ed66 9d00 c1bf 4cf3 6d2c 2eed b23f
00000070: e91e 09a6 deb3 cebf 16b6 5afb 6009 77bf
00000080: 1b8b 9e3c 67bf cb3f 3cdf d0af fa04 b5bf
00000090: 0eb2 ec37 8678 c93f b649 67f4 8c96 a63f
000000a0: 0641 668d 3cf7 c4bf 86eb 0cd9 9f8a d0bf
000000b0: c35e 2c31 6eaf cf3f 4bd8 9e44 f290 d3bf
000000c0: d039 4cd7 a9f3 c3bf 7c4b 54bc 391c d73f
000000d0: 01b0 c758 a54c bfbf e547 8d3c 9279 d8bf
000000e0: f7f9 d4e8 2795 c23f 15cb 3a9f 9e0c d63f
000000f0: 6c90 182b 44bd d83f 68a7 ffd3 4a32 d1bf
00000100: 0e1c 5e51 eb6e aebf 5a79 3e8b eb20 d73f
00000110: ab61 f206 6938 953f 88dc eba9 d7d3 d03f
00000120: 8c27 f0ae f918 ad3f 52c6 2692 67bb c9bf
00000130: 95f9 63e1 c8a4 cc3f 2545 fee0 cd81 b33f
00000140: 04bc fb25 fefb cd3f ee17 ce9a 66ff 7c3f
00000150: 9481 7192 63bd d03f 38fb 5597 bff8 c4bf
00000160: c5dc 4b48 e383 d33f 7ccb e874 21b8 a4bf
00000170: aa7e 6908 6f82 c3bf b6b3 04c3 9438 96bf
00000180: 939e 142d ba75 d3bf 9b99 7c2b 2fe4 bb3f
00000190: 25a8 8a17 b4e2 c1bf 8ab5 c637 26c7 d2bf
000001a0: 3c77 9701 2949 bcbf 6fe3 8069 e734 ca3f
000001b0: e599 e4f1 b3e4 d5bf 20e5 8902 1596 d2bf
000001c0: 9108 cc88 3586 ac3f 7431 ed92 3b95 b1bf
000001d0: b566 19c8 b158 a83f d610 bccf 8254 d7bf
000001e0: 7446 9a6b ea4e d73f 5e0c 01db a610 ab3f
000001f0: 04ff 4761 2603 d83f 412d a083 f488 d63f
00000200: 7616 1056 1d5b babf ab26 4a76 1e77 da3f
00000210: 00c2 84dc 7ed4 c93f 495f 162f 5fe5 d4bf
00000220: fd3c 0ed3 c83f d93f b410 d010 969f cb3f
00000230: 4eea 855d d9cd d63f adc4 1230 e421 9dbf
00000240: def2 d154 3dfa b13f ff50 f2d3 9b8e a5bf
00000250: 180c 19e2 8230 9ebf b237 1495 dd5f c8bf
00000260: bdfd 00dc ff59 a43f 37d6 bc27 819e d1bf
00000270: 3fae 47cd b354 a1bf 4fd4 0bc1 7726 c3bf
00000280: e456 9d0e 3d5a ce3f e626 2e9b 6388 8cbf
00000290: 30a8 2619 6e74 c43f 5b77 10b5 26a3 d7bf
000002a0: e879 5f5e b444 a5bf 0777 708c 0d3b c43f
000002b0: 9aaf 55c8 e7c6 d53f a21e 6c79 479c d43f
000002c0: 21fc 1250 3088 cf3f 9eb8 1cc8 2804 d83f
000002d0: 2018 fa5a 57e0 c8bf 945f 2afa 6f51 d5bf
000002e0: 58e2 4185 52e2 b23f 0f73 61ca af91 c9bf
000002f0: 4412 5659 6444 823f 7625 2671 4342 a13f
00000300: 90e2 9c71 cf57 d7bf fa60 701f 4a41 d63f
00000310: 1f34 70f0 27e8 c5bf 52cf a9ba ccb3 cdbf
00000320: 4cc4 64b9 2a59 d33f cb0a 58c0 3953 c3bf
00000330: 621f f1ce 3af6 c43f 343c 5d01 d202 d0bf
00000340: bd4c 11d7 6faf b53f cbd4 d033 972c b5bf
00000350: fad1 40d4 776d c0bf 2436 6228 74ae 5fbf
00000360: db93 0b2a 63e0 90bf 3040 7772 f04b c5bf
00000370: 510b 09aa 61a5 a2bf f68e 5a82 6893 cebf
00000380: 9a99 9610 77ea d3bf ba49 9c17 73f9 a73f
00000390: 9fa3 f855 cc82 d3bf 2aef 738e a53b d2bf
000003a0: a267 5cbd a16e cb3f 8170 fc8b 895a b6bf
000003b0: b78b 9fd2 a149 b13f 2047 a9e8 8551 cf3f
000003c0: cca5 611d 6c3c d7bf c9f3 6fbb 8708 c0bf
000003d0: 38d6 5807 5dac dabf 97d5 6257 9751 c5bf
000003e0: 903b 96d9 747b ab3f 8237 dd1f 4113 d03f
000003f0: ef14 8b17 d1a9 bd3f f076 0854 cf1b d33f
00000400: 93f2 0d1b 506b b43f dc9e b6ae cae3 d53f
00000410: b040 67e7 2b82 bcbf 5af0 496f 433b da3f
00000420: 2ac5 ed28 6144 923f 0b79 6723 5ef0 a73f
00000430: de38 d1b7 9875 c73f 1484 a6f9 d4af d53f
00000440: 3da8 fe60 184b 97bf 44bc 0553 073a a1bf
00000450: 9b6f df78 ac21 cfbf bc03 4287 7cec d13f
00000460: 8020 4387 1058 cebf 776e 271a c21d ba3f
00000470: f0c2 a48a ce4b d4bf 5edb 4887 39ea cf3f
00000480: c935 5017 5057 d93f a08f fd7e ed3e a13f
00000490: 80b9 65aa 0548 bd3f 3479 b4f7 133a d3bf
000004a0: c16c 878d 524d abbf 828a cc7d f170 cfbf
000004b0: f13f 9f2d 5a76 ccbf 40fa 7e84 b98f d23f
000004c0: e130 1b41 8eba b1bf 4eac 216a 26ba cd3f
000004d0: e01e 0be0 9164 d5bf 31a7 e037 883e b4bf
000004e0: 4c19 0094 bcea cbbf d317 a8dd e592 b1bf
000004f0: c944 347e 0888 dabf b376 c31e bfe4 d43f

topology.conv_GAT.lin_l.bias f8 [32]
-0.3985060351932066 0.4209122813632584 0.31074199762939536 0.4425249510703195 -0.029215336531346076 -0.14743013426991955 0.2212215149772386 -0.2550412571290043
0.209877499970178 0.29737184188937243 0.4288406382404715 0.2063640227880571 -0.14086993209495677 0.09795273867973565 -0.37525839370192837 -0.1659104229926831
0.44283627207866194 0.059600561883090014 -0.27675079406551173 0.3215903952648544 -0.16513388185304212 -0.19419317779481382 -0.5189223504178742 0.3840211598192731
-0.2358571634770836 0.4405902766042535 -0.1888636475734276 0.34503903788585477 -0.3683078140463945 0.08280420324757876 0.32719672648313103 -0.5444027917213259
00000000: ec75 1a75 1f81 d9bf 1028 bc10 3af0 da3f
00000010: 32f7 5367 32e3 d33f 98b4 202c 5452 dc3f
00000020: 756a c60b a0ea 9dbf 3f2d 919a fdde c2bf
00000030: 23d9 ff91 fc50 cc3f bafc 9f90 9852 d0bf
00000040: 47e2 4413 44dd ca3f ffa1 eae7 2308 d33f
00000050: e411 1c01 2072 db3f d40c 79e4 226a ca3f
00000060: d335 aba3 0608 c2bf 91df 2e41 6e13 b93f
00000070: 1ef4 1fc8 3b04 d8bf 48d8 6880 8d3c c5bf
00000080: c6dd 83f2 6d57 dc3f 8ce1 3800 f783 ae3f
00000090: 5ed1 69f6 48b6 d1bf 63b2 97e1 ef94 d43f
000000a0: a09a 0267 1b23 c5bf c015 de71 52db c8bf
000000b0: c0a9 860b 039b e0bf 4054 997c cd93 d83f
000000c0: bfa8 d449 9130 cebf efda 3c8f a132 dc3f
000000d0: 0a96 dd1a af2c c8bf 0809 e49d 1e15 d63f
000000e0: 6131 0cf0 5a92 d7bf a870 eb00 a832 b53f
000000f0: 8c9c e689 caf0 d43f 0a6a 4967 bf6b e1bf

topology.conv_GAT.lin_r.weight f8 [32, 5]
-0.23641304909492727 0.38189145111328815 0.30442667917833205 0.30143502277953393 0.18619126057911278 -0.30561569564247754 -0.27799943695394014 0.01374505585121244
-0.17840850460161345 -0.12175784184132636 0.029772778208697455 0.1269009199695017 0.10446027765880618 0.3797282430919863 -0.142377736988337 0.1318459858514803
0.3563133544833269 -0.37569734156722234 0.1212697198455138 0.028940617183562514 0.34322951079973146 0.01599621264127011 -0.10576089381344206 0.33239449389275033
0.08866366218958985 -0.07987500923144675 0.27771094624734954 -0.3178878610863882 0.04698969994430936 0.19723105041655986 0.24025811354311893 -0.05100741976860221
-0.34390491330229267 0.06044577687868438 -0.2485977555844517 -0.20113398644056446 0.12596796070114188 0.037455740133818964 0.1039809358389015 0.1940121569895088
0.18005013178171286 -0.39862604860343775 -0.20995765050676204 0.007948970199839837 0.37434540709585085 -0.06552264309373285 0.05876017671209539 -0.39053185593572215
-0.16039091298620375 0.15897164101637937 0.03578978900490241 -0.3299757633875481 -0.35126601370567734 -0.11930656317706986 0.08145039394105025 -0.06700767961213189
-0.006909279513560638 0.24208833390318438 -0.2695430289386139 -0.30317476502662094 -0.30145199424074887 0.31729991798745205 -0.194531740843894 0.18642665670168906
0.24519320094477887 -0.03982408749297357 -0.08228254467095328 0.0840168358758367 -0.2899743819335155 0.33064472339713 -0.24847170526790047 0.40584828207634427
-0.21847451386455513 0.21612571660051366 -0.19531160537466113 -0.3581073578209125 -0.015054492757278461 0.06310842030538583 0.29595315198468075 0.2722288446321501
-0.043260653677909995 0.07446463428603671 -0.08377682334495795 -0.19237466958780639 0.33003469354361337 -0.06288420877050756 -0.22334038735752484 0.31415241793601845
0.14205392615613205 0.12522512938720595 -0.14855308319129087 0.15772613566038543 -0.10186718025731134 0.0619649082730018 0.4022540939400036 -0.0037195180476171427
0.16077350107981492 -0.2155165471797019 -0.07774335228619339 0.30882479612724345 -0.23362921070441 -0.263298656328826 -0.1946395726229708 0.05816605392713088
0.200470303825018 0.06864726130759011 0.051924061538660506 0.2675986952535272 0.22359838416844147 -0.03570356771284654 -0.3471733549389681 -0.1106906854589798
0.3453345879633245 -0.20309137638505284 0.006063597540616875 -0.15376044963398772 -0.3959117132242808 -0.1820295308594767 -0.10380256606396737 -0.040141166298437315
0.17998840105133013 -0.1776304619469237 -0.09999318456654188 -0.021747764814720072 0.10082877734442296 0.3149417187777546 0.30680378679263587 -0.3387226062155672
0.37648579347377936 -0.17915367988882003 -0.2788924638207042 0.019002740626898884 0.10953254583370274 -0.16053444595063082 -0.051159689806733806 -0.1787140502115714
0.32185519942736485 0.05872351138383613 0.28646579004176914 -0.2850525104810178 0.1600947709529481 0.029289907154607005 0.43205715124168514 0.1267641735280385
0.22449167042063198 0.25188212541554755 0.05768624698236865 -0.3113131929987987 0.013438552499099206 -0.16520044233341993 0.008311256870335765 -0.23531762351977326
-0.19712241809130737 -0.06859041277392233 0.0851329864341803 0.10784279387209872 -0.17102537489709324 0.25482787632977366 -0.18740752144872888 -0.35190932561693294
00000000: eaec 1a65 c842 cebf dad3 49d7 e870 d83f
00000010: d773 c609 ba7b d33f 5841 2d1f b64a d33f
00000020: ba80 7e7f 1dd5 c73f 5370 7b22 358f d3bf
00000030: 7282 8126 beca d1bf 80b5 e62a 5e26 8c3f
00000040: 0ecd 4b02 17d6 c6bf 1373 bd9c 852b bfbf
00000050: 92a2 de52 c17c 9e3f 28f8 8c12 4a3e c03f
00000060: 2191 46a4 e8bd ba3f caa5 5cb0 774d d83f
00000070: 088e 0506 6f39 c2bf 73a5 ab4a 54e0 c03f
00000080: 8a92 2887 d6cd d63f 526c cedc 6c0b d8bf
00000090: c647 bb48 880b bf3f 145d 51f1 9ba2 9d3f
000000a0: 110b fae8 78f7 d53f d2d0 9da8 4f61 903f
000000b0: c4dc 1f5c 2513 bbbf 0cf3 288e f345 d53f
000000c0: 46a8 7269 a9b2 b63f e8b0 6a48 b072 b4bf
000000d0: bde8 f721 04c6 d13f d854 ca53 4658 d4bf
000000e0: 62f2 04b1 080f a83f b4bd a5f7 dd3e c93f
000000f0: c617 2222 c7c0 ce3f ecdb 84ff a41d aabf
00000100: c04a e4c0 8902 d6bf 6422 c0b5 bff2 ae3f
00000110: 730f 0c1f 0dd2 cfbf a42b f02a c2be c9bf
00000120: 5f11 c7d7 b71f c03f 272e d815 662d a33f
00000130: 04e7 d59e 7e9e ba3f 10ef a5ee 63d5 c83f
00000140: 164c d2f9 e10b c73f 5e78 85d4 1683 d9bf
00000150: 735b 3c6d e4df cabf ef8c 5cb8 8c47 803f
00000160: 6a9b 3870 46f5 d73f 142d 3c89 17c6 b0bf
00000170: 293e 925a d015 ae3f 2a91 5253 79fe d8bf
00000180: 47f8 ec7e b087 c4bf 1312 94c7 2e59 c43f
00000190: 6514 9d0a 0a53 a23f c237 0eaa 521e d5bf
000001a0: a0fa 4372 247b d6bf 262e 0bfb df8a bebf
000001b0: e01e 39da eed9 b43f ecd3 8350 6a27 b1bf
000001c0: 4b6e cb98 e74c 7cbf 2bbc 6d22 c0fc ce3f
000001d0: 02fe 8967 3140 d1bf afc1 3021 3767 d3bf
000001e0: e6fd 244e fd4a d3bf c8e4 b150 a44e d43f
000001f0: 37af 7a84 6ae6 c8bf b274 d124 d4dc c73f
00000200: 6a33 a1a5 7d62 cf3f ba2f c0a2 d263 a4bf
00000210: 16b6 6406 7810 b5bf 256e 669a 2082 b53f
00000220: c943 c5b5 f08e d2bf 1e7b 657c 4829 d53f
00000230: a2b1 0dbc ebcd cfbf b0f6 a912 6bf9 d93f
00000240: c664 070e f9f6 cbbf b6d7 4fea 01aa cb3f
00000250: ca84 ce7e f8ff c8bf fa0e 931f 3beb d6bf
00000260: 8e2d 67d0 e3d4 8ebf c458 5099 df27 b03f
00000270: 5007 3b7d e5f0 d23f cf44 2e88 326c d13f
00000280: f11a 80a9 4226 a6bf b395 f740 1d10 b33f
00000290: c8ea 6ddc 6572 b5bf f9ad 3ab1 bb9f c8bf
000002a0: 442c d4d5 491f d53f a5aa 1af4 2d19 b0bf
000002b0: 19cc c9f5 6a96 ccbf 44a6 3fbe 121b d43f
000002c0: 42f3 8db3 d22e c23f 577e ad85 6007 c03f
000002d0: 5f66 0395 c903 c3bf 6162 31b9 5e30 c43f
000002e0: e8aa bdaf f713 babf 3c7a 104d ddb9 af3f
000002f0: 23e2 89f4 87be d93f cc7c e20b 6578 6ebf
00000300: c4c1 99e0 3994 c43f cb1b f1d4 0b96 cbbf
00000310: 9cf4 8c03 fde6 b3bf 3cdd e313 c9c3 d33f
00000320: 60d0 aedd 8fe7 cdbf d4d5 809b e2d9 d0bf
00000330: 5f27 7613 f3e9 c8bf da73 b5e6 f0c7 ad3f
00000340: 89b2 5fcb 02a9 c93f 3eac 46ee dd92 b13f
00000350: 453a 5e64 ca95 aa3f 203c 2447 5620 d13f
00000360: 3090 b831 df9e cc3f 9eb9 5aef bc47 a2bf
00000370: 9759 6097 1638 d6bf e3a4 048a 3956 bcbf
00000380: 30ba 5e3e f619 d63f e932 d6f1 e5fe c9bf
00000390: d0fe 2092 24d6 783f 5851 4c23 6cae c3bf
000003a0: 17b4 1915 9e56 d9bf 6c4d f960 be4c c7bf
000003b0: 8c51 7c12 ce92 babf 6d3e f308 628d a4bf
000003c0: ae5f 1624 dc09 c73f b5ee 6a50 98bc c6bf
000003d0: b443 8941 2799 b9bf a0b0 8fca 0b45 96bf
000003e0: 5fa1 302d eacf b93f 9df9 924f 0128 d43f
000003f0: 900d a459 aca2 d33f df26 0795 a1ad d5bf
00000400: 3939 98de 5718 d83f f84e 0afe 81ee c6bf
00000410: 8c7d cdc6 5fd9 d1bf 008c 1b56 7475 933f
00000420: 5710 342e 530a bc3f f0a5 9e89 648c c4bf
00000430: 91d5 2f55 9a31 aabf 8948 7f1c 1ae0 c6bf
00000440: 44a3 e58c 4699 d43f 6fba cc11 0211 ae3f
00000450: a9bd e99b 7455 d23f a127 8ae2 4c3e d2bf
00000460: 7073 c046 fc7d c43f 22e1 5365 2cfe 9d3f
00000470: 6d80 a509 d3a6 db3f 19bf cdf5 ce39 c03f
00000480: d32b 579f 24bc cc3f f2d4 c634 d61e d03f
00000490: bbbe 6f40 0d89 ad3f 3590 af2b 8eec d3bf
000004a0: 04e7 e9fb ab85 8b3f b9aa 8dc0 4925 c5bf
000004b0: 50f0 9203 7e05 813f 8c4d 984c e31e cebf
000004c0: 785b 81b1 4e3b c9bf 12e2 ae2b 248f b1bf
000004d0: 7ead 8b80 46cb b53f 1039 cad8 959b bb3f
000004e0: 440d fcd3 28e4 c5bf 3e83 bc94 194f d03f
000004f0: 5dc7 d23b f8fc c7bf 37a8 2bb1 ae85 d6bf

topology.conv_GAT.lin_r.bias f8 [32]
-0.16350582980953693 0.22150656016458842 -0.43402507512112787 -0.052330580357276425 -0.05993573677593286 0.12788389593264216 -0.2777182369640934 -0.4241485996855101
-0.3038287758419797 -0.14477338410906068 -0.3281307759020941 0.22171832815703318 0.0018036550860573326 -0.373145454596302 0.08166934569562187 -0.2201791913734023
-0.010815774767886437 0.1706931625709319 -0.3277093135654265 -0.25905927727910355 -0.23008733193785488 0.39515811311056437 0.05944191972513577 0.21260357433149363
0.3748512852632365 -0.3895982232923127 -0.06046025343806159 -0.15739174308648246 -0.12347607098092289 -0.3096353645168794 0.3412254962384547 -0.4034718754968331
00000000: f25f de4f c2ed c4bf 86d0 e0b3 535a cc3f
00000010: 0c82 d21b 11c7 dbbf fd2e 6ee6 12cb aabf
00000020: 6ceb a09a e5af aebf 349e 5bdf 7f5e c03f
00000030: 29de 50b6 22c6 d1bf 14c8 122b 4025 dbbf
00000040: 17cd f43f ee71 d3bf 5b32 0a2b ef87 c2bf
00000050: dbe0 d339 1800 d5bf 40db 2d24 4461 cc3f
00000060: d082 e7e6 138d 5d3f 5019 0979 9de1 d7bf
00000070: ae31 d940 48e8 b43f beaf 1aed d42e ccbf
00000080: 4994 45b7 9426 86bf a34c 7207 46d9 c53f
00000090: 5feb 167c 30f9 d4bf c3e7 e85c 6d94 d0bf
000000a0: 57d0 f26e 8073 cdbf b8c5 2341 454a d93f
000000b0: 8c3a 76da 2b6f ae3f b21b 620b 9836 cb3f
000000c0: 3e6d c43e 90fd d73f 2bb1 e762 2def d8bf
000000d0: 7edd 7276 a5f4 aebf 9ac2 9ba2 6925 c4bf
000000e0: 949e b3b6 209c bfbf 073e 12d9 10d1 d3bf
000000f0: 45f4 b976 a3d6 d53f f356 87b3 7bd2 d9bf

topology.convs.0.eps f8 [1]
0.06912062789051501
00000000: a2cc 44b4 e3b1 b13f

topology.convs.0.nn.0.weight f8 [32, 32]
-0.11450466949363358 -0.009767170989580692 -0.07978058680433259 -0.00012398458461817044 0.06917689605866617 -0.13195149383220234 -0.1103771934536536 0.009271198382781662
0.07862958869652496 -0.04412369937887799 -0.05412468366909174 -0.01936864420003474 -0.14343266338492855 -0.14720783170289622 0.11809009250997245 -0.07269331735528353
-0.12641838944942918 0.004877255415680051 -0.13510698244300579 0.0401998771046488 0.07447020519554091 -0.10027863815537383 0.15449189955982426 -0.06484419497121949
0.17875320750283694 0.0617302080505122 0.006791209824328024 -0.09091816825201476 0.09220569362477643 -0.027369678830093044 0.11579005491280597 0.20705026500022178
0.05366534892466677 0.07203455036699459 -0.05776141837347834 -0.04328347279609009 -0.10524019449230645 -0.16238213293343254 0.08995854096724129 0.08857924471393247
-0.011957548149748748 -0.03217925656950269 0.0008955716578193124 0.08167947390586737 -0.05903531672616462 0.18266800421885265 -0.10272344722201726 -0.11932558230544398
0.10144623489786085 0.05371414842672637 0.06405999323688603 0.09692733271826401 -0.059662664602457914 0.04594702787194964 -0.052849296188841925 -0.06719786993419904
-0.029195781982860693 -0.057996186120872456 0.0871155279699261 -0.17032748092232142 0.06480265723131115 -0.12597561305745414 -0.09954084093600778 -0.13988470809604958
-0.10984730957804234 0.12133766548725534 0.024290952493353942 0.056993906219323 -0.13103991502718973 -0.007004828019509692 0.11269040735601892 -0.0640659421528739
0.003515792889453454 0.1912401905044356 -0.12442838718436253 -0.04175408601162296 0.05091350742584483 -0.0475970803288019 -0.006699915305810323 -0.05478954054714252
0.03498204411527342 -0.06821710870491544 -0.005976691975251602 0.09748225247067842 -0.028238423075795917 -0.03840737763222692 -0.12174427158747986 -0.08115321685107053
0.011847689230785677 0.016001679214937347 0.17205954525150208 0.14980414491686334 -0.10878146009169515 0.05676342387070975 -0.0637630157770942 0.13268313835412093
0.12282702942268275 0.04791242545310053 0.16637261162812275 -0.0695454986420365 -0.009116012036492283 0.04606730488719403 -0.06820410319311797 -0.14373338608159114
0.05903582071738115 -0.024799854735902488 0.10786313349159175 0.13598807597260948 0.010571356868068895 0.10294826158098319 0.0011555384696847384 -0.17123675869139948
0.021189326670397718 0.11717570489562716 0.026982656782061486 0.09242640886974696 0.13664445162800065 0.07189167910151589 -0.18622186033162408 -0.053745346656860794
-0.12533651917225924 0.12204543955017279 0.010719912427107 0.00162974869901086 -0.20411233235477536 -0.027742683349167484 0.08075380961383097 0.1442745558834338
-0.07702375275295976 -0.12051042217965843 -0.1085724290102982 -0.13976180813441838 -0.08463250238889324 -0.16459427098753387 -0.053085285922268514 0.09010611212172079
0.043612243407089045 -0.05406393396975054 0.1259063411328739 0.02401090770456217 0.1848654360666136 0.049112550851106156 0.11381724713983213 -0.06957550656716682
-0.09735664375231835 -0.14896157136051677 0.12023391571596623 -0.1673760010737552 0.09102606124985095 0.07791117692227736 0.018264985137134024 -0.08026009201158828
-0.18314304418141558 0.055085906594911756 0.18114280597221277 0.04471696683134629 0.08344129247327192 -0.09307167893649428 0.042167550104963744 -0.19588452406843793
0.18297019549926757 0.058065966450821405 0.11206088024175405 -0.17303836820052276 -0.12364536513105187 0.14594385394136025 -0.08054388964090595 -0.06620684678421297
0.02986432526042335 0.17499552350342418 -0.033276765640351105 -0.12229278629459084 -0.08952519317670309 -0.09058487132056976 0.07959190418293162 0.2135154044611251
-0.021457677707722327 -0.1807250265374456 0.1380727224236682 0.10216642513889333 -0.023416782851349266 0.17038603805363664 0.1821077895367416 0.025110701103265597
0.20683913130590126 -0.0019146111571439386 0.06694160084842353 -0.1127721193318962 -0.021801984020526865 -0.10021044996021103 -0.10664722400069121 0.1043528109937149
0.0361539134306413 0.010893818849040914 0.16096234426980233 0.1474847921152913 0.06488595280749296 0.006088965530593581 -0.07525840479840988 0.13940079042237014
0.0027976806114392815 0.007728477223529071 0.09344510942868219 0.13324554879219366 0.10778785734302282 -0.034288968040642145 0.0969162848000377 0.040008818084509436
-0.08013553357440217 -0.17656525797621284 0.027199764447401284 -0.12981065136318354 0.10269356418725017 0.19296330657329488 -0.12108497443099747 -0.20068520105189147
-0.16221360292186263 -0.17990943726495812 0.07566380775071019 -0.14539878714200374 -0.15882299306143777 0.08770081420610755 0.19432231945019096 0.0743277600586219
-0.06761482208355836 0.055025509306835634 0.0626636367299613 0.12845548815784166 -0.12181739632390046 0.038072519554464695 0.05610841390473619 -0.11486453479219341
0.0869091786197396 0.15650347167949374 -0.05738161431355309 -0.028678216073492465 -0.003409475764412883 -0.19110156359236222 0.10662701983694775 -0.06890634947764784
0.18704460124592695 -0.13612652839959305 0.01514733489322965 0.18037920081639475 0.021415884196337526 0.17595128488514644 -0.05909588566923091 0.07252414031538862
0.15669287187243047 -0.09758042383943331 -0.1786855928977907 0.10025767213463953 -0.03938476684600295 -0.09779861051845878 0.12385318618674676 0.15242238787045417
00000000: e0e5 b692 2d50 bdbf c329 cc7f cf00 84bf
00000010: fc27 2e23 806c b4bf 80c2 e778 3b40 20bf
00000020: 88f4 35ba 93b5 b13f b675 555b c9e3 c0bf
00000030: b892 1b04 ae41 bcbf b84a ca2e c7fc 823f
00000040: d312 f397 1121 b43f 5623 9fab 6197 a6bf
00000050: 71ba 8704 3bb6 abbf 0bc7 a0b5 5fd5 93bf
00000060: 104e 3563 005c c2bf 7183 70cb b4d7 c2bf
00000070: b5db 4ffd 263b be3f c2be ad7c 079c b2bf
00000080: 5c2e 2650 7a2e c0bf 69c7 1248 2cfa 733f
00000090: 08e8 8683 2f4b c1bf 8274 ef0a 1495 a43f
000000a0: a75c d7b7 7a10 b33f 2660 5d5f dcab b9bf
000000b0: 459d 0dfc 63c6 c33f 3ea1 bc10 a199 b0bf
000000c0: 0bd0 2396 62e1 c63f be23 8111 1a9b af3f
000000d0: 8a3e 8881 19d1 7b3f 5c2f 41bf 6946 b7bf
000000e0: d497 9fd6 ca9a b73f 4cba e80d cc06 9cbf
000000f0: a473 0dc3 6aa4 bd3f 4aec 6682 9f80 ca3f
00000100: 9da7 1e4d 067a ab3f 6120 0236 db70 b23f
00000110: 8cf2 c495 e792 adbf 8ba7 3b58 4029 a6bf
00000120: deb2 9179 05f1 babf 49b0 330f f0c8 c4bf
00000130: d63e 73df 8507 b73f a495 261f 21ad b63f
00000140: 9db8 f2f1 327d 88bf fdb5 26ad cc79 a0bf
00000150: 10b5 a37d 9958 4d3f a720 2e2d f2e8 b43f
00000160: c6b6 4b85 e039 aebf c8a1 1248 aa61 c73f
00000170: 9cd7 5976 154c babf 4ffa 9311 1f8c bebf
00000180: 1f4b 3065 61f8 b93f 0d8b a6bd 6b80 ab3f
00000190: 4735 ef57 3c66 b03f 5e0b 1dcc 3ad0 b83f
000001a0: 0b01 85d2 1a8c aebf c6e9 1d6c 5e86 a73f
000001b0: afd1 7e1d 100f abbf 5e6e ba2d e133 b1bf
000001c0: 6aac 30c3 7fe5 9dbf e41e 5d15 adb1 adbf
000001d0: 73c7 9a07 344d b63f 90f1 1578 4acd c5bf
000001e0: ee9b 802d e896 b03f c270 1609 f81f c0bf
000001f0: e7bd 6f30 827b b9bf 3cd4 3dfb bde7 c1bf
00000200: b0f7 300a f41e bcbf 916e 0a39 fc0f bf3f
00000210: cfc9 303a badf 983f 820a 9126 4e2e ad3f
00000220: 4996 c17a eac5 c0bf 425a 2034 18b1 7cbf
00000230: c3c1 2a4e 47d9 bc3f 6a82 5526 a066 b0bf
00000240: d4cc 59ef 26cd 6c3f b7dc f2fd 8e7a c83f
00000250: ee9e a6ed 89da bfbf 9ae0 c9a3 ca60 a5bf
00000260: f826 a3d2 5511 aa3f 7a69 cbfe a45e a8bf
00000270: 41a5 fdd1 5e71 7bbf f82c a0e9 5f0d acbf
00000280: 743b d89e 2ae9 a13f 5d50 ea2a ad76 b1bf
00000290: 59cb 2609 047b 78bf 7f4e 4dce 98f4 b83f
000002a0: 3a95 677e 88ea 9cbf e308 b6bd 21aa a3bf
000002b0: ac8d f1f0 a12a bfbf e52d 570c 75c6 b4bf
000002c0: e833 3cee 9943 883f 830f a383 be62 903f
000002d0: 4ef0 e813 0c06 c63f ec90 9c3f c82c c33f
000002e0: 0c45 810d 1ad9 bbbf 3e72 4472 1810 ad3f
000002f0: c8fa 74e3 c552 b0bf 7815 fbd5 c2fb c03f
00000300: b06c 6f9a 9771 bf3f 0745 c938 fa87 a83f
00000310: 6f4a f29e b24b c53f 2f66 40da bbcd b1bf
00000320: cd8d 886c 6aab 82bf 428b cf3f 2296 a73f
00000330: 0fde aaf8 d275 b1bf cc29 4808 db65 c2bf
00000340: a51e 8c6e f139 ae3f 381f 2514 2265 99bf
00000350: 2b5c ca16 eb9c bb3f 9662 79a9 0e68 c13f
00000360: ce7d 2e80 6fa6 853f c49d ab38 d15a ba3f
00000370: d8b1 f0fb adee 523f f2ee 390b 16eb c5bf
00000380: b862 4ba4 a7b2 953f 5b97 691c 3aff bd3f
00000390: 86a9 c071 57a1 9b3f 98dd 61d3 41a9 b73f
000003a0: ec07 76bd 907d c13f 2475 983a 7e67 b23f
000003b0: 7659 f62f 1ed6 c7bf 0d24 6894 8284 abbf
000003c0: 2e6f 6bed 060b c0bf a972 7eb3 5e3e bf3f
000003d0: b8c1 524a 52f4 853f 7093 3a57 a9b3 5a3f
000003e0: 0947 1658 5a20 cabf 1678 c0f6 9368 9cbf
000003f0: d29d 511b 48ac b43f e206 95b1 9677 c23f
00000400: add2 1623 d4b7 b3bf aeba 1662 c5d9 bebf
00000410: 0ab5 d817 67cb bbbf 4b65 9505 b7e3 c1bf
00000420: 435e f0c5 79aa b5bf c00d 80d1 6c11 c5bf
00000430: 17b2 de9d fe2d abbf 1e85 bbb4 3111 b73f
00000440: b3fb 460e 5854 a63f f41b 9698 44ae abbf
00000450: cc29 c3f0 b21d c03f 647d 5abd 5096 983f
00000460: aa8f 08ad aba9 c73f 0710 75bf 4725 a93f
00000470: 3ab3 2f8a 2023 bd3f 6001 4f4d b3cf b1bf
00000480: 71eb f670 5dec b8bf 1756 ad3a 2c11 c3bf
00000490: 92be de5f a6c7 be3f fd9e 5fa9 936c c5bf
000004a0: 8bdc 26e4 7b4d b73f d2c1 dfa4 fcf1 b33f
000004b0: 1cbd 4d67 0eb4 923f eb1c 5de6 ec8b b4bf
000004c0: 4ce1 9f34 3b71 c7bf 5160 974e 3834 ac3f
000004d0: bc35 c7fd af2f c73f bfe0 3b6c 24e5 a63f
000004e0: 4005 4f96 685c b53f 614f 37a9 8bd3 b7bf
000004f0: 2e78 4e31 fc96 a53f c04e 557c be12 c9bf
00000500: 42f2 e73e 916b c73f 6075 d585 d2ba ad3f
00000510: 559f cc97 05b0 bc3f 08ee 2f0a 1f26 c6bf
00000520: 6233 8aff 38a7 bfbf e17b ddc7 49ae c23f
00000530: a67b e63b 869e b4bf 51a0 b591 eef2 b0bf
00000540: 7914 3ef1 c094 9e3f b061 32d9 4066 c63f
00000550: 92af 48f8 a609 a1bf 3007 ac7d 944e bfbf
00000560: 7bad dc80 1feb b6bf 258f d5f3 9130 b7bf
00000570: 71f7 7d91 2260 b43f be26 ad07 7954 cb3f
00000580: 9ed7 0260 00f9 95bf 1806 4667 ff21 c7bf
00000590: 70c1 a3f1 5dac c13f fb84 b82e 9427 ba3f
000005a0: 18a8 18b2 91fa 97bf 2954 91ae 35cf c53f
000005b0: b11d 34dc 4e4f c73f b697 12a0 9eb6 993f
000005c0: 70f6 3e64 b479 ca3f 58c3 7c13 765e 5fbf
000005d0: 0bc8 62b2 1523 b13f cd5c 6e34 a2de bcbf
000005e0: 939f 6c61 4253 96bf c2ea 4b5d 64a7 b9bf
000005f0: acca 4a83 3b4d bbbf 64b3 76a6 ddb6 ba3f
00000600: ab31 9d07 c482 a23f 2c3f 7b9d 7f4f 863f
00000610: 9a5d 4302 6a9a c43f c871 651b c8e0 c23f
00000620: ce29 47a5 5d9c b03f 0c3d 203d bef0 783f
00000630: 8bb9 5b83 2244 b3bf d647 f395 e2d7 c13f
00000640: 3897 6257 29eb 663f e45a c44e e5a7 7f3f
00000650: 05a3 f7c8 04ec b73f a534 33ad 300e c13f
00000660: dcb6 312a fc97 bb3f 5a40 b2d8 528e a1bf
00000670: ea7d aa71 81cf b83f 55fc 722a 097c a43f
00000680: d816 f327 c383 b4bf bd0e 4fbc b099 c6bf
00000690: 6cbe 0a4b 41da 9b3f 967f 23ab a29d c0bf
000006a0: 80a4 b11b 204a ba3f adb8 8789 05b3 c83f
000006b0: 64d7 37c5 6cff bebf 3c8f a77b 0db0 c9bf
000006c0: 7103 c253 6ac3 c4bf a8ba a5be 4507 c7bf
000006d0: b4b6 c70b b45e b33f 9194 d36d 6d9c c2bf
000006e0: 709e 86d4 4f54 c4bf b109 d980 8f73 b63f
000006f0: 94f1 75c3 8ddf c83f d4ff a2e2 2407 b33f
00000700: bde0 9279 344f b1bf 1753 d6b5 4d2c ac3f
00000710: dd52 675e b90a b03f 3798 50bc 3a71 c03f
00000720: a286 4bc5 6c2f bfbf e4b9 b9c4 3d7e a33f
00000730: efa6 80f5 3dba ac3f fa18 671c c367 bdbf
00000740: 72dd e40f ae3f b63f 2875 4946 4e08 c43f
00000750: 679e bc79 1f61 adbf cfb5 9280 d25d 9dbf
00000760: 32f5 f25c 30ee 6bbf 0dfd eb1a 0476 c8bf
00000770: 86d3 118b e84b bb3f 4045 7eb5 d8a3 b1bf
00000780: 9d4f 9fd6 13f1 c73f f410 cc15 986c c1bf
00000790: 9562 e7df 9005 8f3f ba48 3168 aa16 c73f
000007a0: d8e8 f3a8 0bee 953f 4cac 225b 9285 c63f
000007b0: b814 8ee0 d041 aebf 5c3a d32a f190 b23f
000007c0: 16ad 1a14 830e c43f 6fc4 1ed9 07fb b8bf
000007d0: b395 e164 2bdf c6bf 3fca fd9e 7caa b93f
000007e0: 98da 207b 3d2a a4bf b461 c569 5409 b9bf
000007f0: 166f 2da8 d7b4 bf3f 5579 8aa9 9382 c33f

topology.convs.0.nn.0.bias f8 [32]
-0.166378984605645 -0.08293278252231334 0.15499432847145894 -0.15527981864388132 -0.1349067363380832 0.0411002005847422 -0.06919339124749577 0.12710554370519986
-0.020138012505567775 0.04220945927263537 -0.011100735006497131 0.11806815259196805 -0.055376594753797706 -0.09787136068724692 -0.08790841370278707 -0.12005188406980158
0.07520946618229388 -0.15617259530647482 0.10573584877983097 -0.10139606165689935 0.17168422227780844 0.16808825308840103 -0.1633484968023011 0.004677592351772799
-0.09517890834732395 0.12072757756052241 -0.100544595886239 -0.047619738397924376 0.049143842165692384 0.10127816119165244 -0.15416166365593148 -0.16758557337647392
00000000: 42bc cf14 e84b c5bf 0c1a b334 153b b5bf
00000010: d6d9 eca9 dad6 c33f b1f2 6687 35e0 c3bf
00000020: 4a84 4aba 9f44 c1bf 34b3 bde2 150b a53f
00000030: 2ee0 8178 a8b6 b1bf 3354 ad94 fe44 c03f
00000040: 5bae 7824 0f9f 94bf d9cc 506e 7a9c a53f
00000050: 8d07 846e fbbb 86bf 63e6 14e6 b639 be3f
00000060: 4ae1 dc2e 525a acbf 0ae3 5df5 180e b9bf
00000070: b48e e571 2a81 b6bf c629 e763 b8bb bebf
00000080: 0a42 9a75 ed40 b33f 5ab6 afae 76fd c3bf
00000090: 5e30 862c 8111 bb3f fc73 c2a0 17f5 b9bf
000000a0: 9c10 f6a3 bff9 c53f 44a0 ed76 ea83 c53f
000000b0: 2fee ce81 9ae8 c4bf 0f53 cca2 cf28 733f
000000c0: ace8 9e1a a55d b8bf f605 59a5 00e8 be3f
000000d0: 71f5 1e67 4abd b9bf 9756 2046 9d61 a8bf
000000e0: d688 cdb5 6129 a93f 6ffe 1d96 5ded b93f
000000f0: a67e d9c3 91bb c3bf 7778 77ae 7173 c5bf

topology.convs.0.nn.1.weight f8 [32]
0.9842917752907886 0.9604830368301663 1.0096000961963454 0.9826174702249372 0.9714989815738403 0.9459886440773588 0.9942722231844098 0.9646945700880275
1.017870199752873 1.012083650844442 1.030950135869973 0.9985469413505192 1.0179981853678506 1.0273443072513537 0.9692997898093592 1.0245830330879766
1.0266397845420647 1.0185508971510249 1.0263581175426602 0.9761464081119933 1.0141982049880558 1.0222007656111076 1.059009010542447 0.9685272570561535
1.009761853668168 0.9575757232507265 1.058355971236291 0.9920299179280154 1.0123241047734561 1.0111279968405313 0.9816693311450402 0.9736354457390882
00000000: 1f10 1377 517f ef3f e78b f1eb 46bc ee3f
00000010: 663a 336e 5227 f03f fd04 6331 9a71 ef3f
00000020: 579f 3e08 8516 ef3f 7463 16fa 8945 ee3f
00000030: 7dbe 3cfb 13d1 ef3f fb04 a525 c7de ee3f
00000040: 6b2f 3843 3249 f03f 3017 53a0 7e31 f03f
00000050: 85e4 d591 c57e f03f c6e1 13b7 18f4 ef3f
00000060: 1dad 1877 b849 f03f 7d05 9695 0070 f03f
00000070: 2407 28fe 8004 ef3f b863 b22d b164 f03f
00000080: 2917 b6d6 1d6d f03f a833 8906 fc4b f03f
00000090: 1047 4d7d f66b f03f 3a5d 5e64 973c ef3f
000000a0: a25e a1e5 273a f03f 14ef a330 ef5a f03f
000000b0: a22f a76e b3f1 f03f 8be7 cadf 2cfe ee3f
000000c0: c70c a40b fc27 f03f fac5 d9d7 75a4 ee3f
000000d0: 6cc7 bfab 06ef f03f c4f0 c486 b5be ef3f
000000e0: 8445 afc2 7a32 f03f 4d00 e88c 942d f03f
000000f0: ee21 18cd d569 ef3f e19f b585 0528 ef3f

topology.convs.0.nn.1.bias f8 [32]
-0.020166681570534094 -0.054379735317990965 0.023756806011194013 0.017242536571947777 -0.003504986106677124 -0.04005023701037165 -0.05785928535975376 -0.030454182003107726
-0.015649772316749525 -0.007177173761206191 0.03648703650880903 -0.006953371108398136 0.009949225204939963 0.050623289809591604 -0.03911152924856795 -0.007198572707853055
-0.024493440848685537 0.010288919814902141 0.023028963801883656 -0.02779982139439969 0.03644460701219711 0.02905701594406624 0.043960662970332715 -0.029819044625056024
0.007832708647255127 -0.042123795663602095 0.017476566260885507 0.011532510712756685 -0.019391139624155403 0.026039606724030336 -0.02228660995322718 -0.04916601454715115
00000000: 33d5 4117 93a6 94bf 4a06 8321 a9d7 abbf
00000010: a181 8043 b453 983f 8ad6 b40a 07a8 913f
00000020: b983 6f16 7db6 6cbf 3a2d 50f4 7681 a4bf
00000030: c7b7 c774 bb9f adbf 4e4b eb8e 612f 9fbf
00000040: 9140 2971 7e06 90bf 813d 50e9 cf65 7dbf
00000050: c10b 11c9 6dae a23f 9ece 1e58 237b 7cbf
00000060: 628c 0167 4260 843f 2cd7 4bbc 4beb a93f
00000070: 9ccd 0926 6d06 a4bf 71ce ba25 407c 7dbf
00000080: 5e7e a5fd ce14 99bf 19eb ed70 5b12 853f
00000090: f836 8f99 e794 973f 32f4 e46e 8e77 9cbf
000000a0: 6246 7716 dea8 a23f d2e4 cb54 1fc1 9d3f
000000b0: cc3e 8913 0382 a63f a0ae d935 e288 9ebf
000000c0: ed1b d55b 980a 803f aa61 8409 4091 a5bf
000000d0: f0c3 2582 60e5 913f a104 d162 5b9e 873f
000000e0: e258 125a 45db 93bf 5224 1f6d 20aa 9a3f
000000f0: 6120 8d13 4dd2 96bf 4afe 1bb1 492c a9bf

topology.convs.0.nn.1.running_mean f8 [32]
-0.7126142677608269 0.052395994748543846 0.5215150747658557 0.32626133041760147 -0.19327731148984487 -0.7902614112876112 -0.18176382750323988 0.23327927925861122
-0.02090173253232794 -0.21436719981927185 0.5859722753847811 0.5028889146641236 -0.4147292465232057 -0.5818920788188499 0.11005487603134846 -0.6096280625658557
0.6130161729162426 -0.5293441693438992 -0.4793963943624554 -0.29168298157582034 -0.5371576646516633 0.18440114951684392 -0.389450341226662 -0.27254625416069894
-0.010939937292951557 0.5203061249770518 0.10283390427583913 -0.2767003824729966 0.0592535800004325 -0.029258596719837052 -0.2550755643339217 -0.39972362116970944
00000000: 7e43 d66f bccd e6bf 11d4 c5d7 a5d3 aa3f
00000010: e8b0 cf61 40b0 e03f 81f4 0534 77e1 d43f
00000020: 252f f499 4fbd c8bf d0ac 984c d249 e9bf
00000030: 1271 5c7f 0944 c7bf 1b06 a06d 18dc cd3f
00000040: 79d5 9f86 4367 95bf 0b89 4768 6270 cbbf
00000050: ac7d e4ed 48c0 e23f 681b 407e aa17 e03f
00000060: cfc2 a089 ec8a dabf 5f82 0a23 dc9e e2bf
00000070: f1e9 516d 8e2c bc3f d236 eeb5 1282 e3bf
00000080: db04 d317 d49d e33f 7221 f52e 63f0 e0bf
00000090: 26da e636 6eae debf 2fbf aa18 efaa d2bf
000000a0: 2930 4f45 6530 e1bf eb83 42f5 749a c73f
000000b0: ee02 bf1f c1ec d8bf d11e 11d8 6571 d1bf
000000c0: 9dec 2587 ad67 86bf eaea d507 59a6 e03f
000000d0: a6e3 c89f 5253 ba3f 15c8 6085 75b5 d1bf
000000e0: 76a9 8b38 7c56 ae3f 717a 2730 f7f5 9dbf
000000f0: 03ab b475 2853 d0bf c334 1762 1295 d9bf

topology.convs.0.nn.1.running_var f8 [32]
0.010199064396526266 0.004371876705951405 0.010124727810397366 0.016129396931266995 0.011478818616098082 0.07697558252563205 0.01074117111167029 0.01581259706722581
0.02443597922158396 0.00363683918128121 0.006879347984728326 0.04971111576234997 0.022725850519371732 0.029264831512971882 0.016162991233272615 0.006774824242205767
0.035091980873241384 0.0127431435047009 0.012862275943427646 0.03853101116312565 0.0022729611141114547 0.03675847591024571 0.004122953701988305 0.025582047561966505
0.0742761840743845 0.03076203601511778 0.019418549661021037 0.014997066822425409 0.03374292707738558 0.01999702174266584 0.006271918349455564 0.004253458963827078
00000000: b155 4340 3fe3 843f 8058 96b7 3ee8 713f
00000010: a3ca 9cf6 45bc 843f 37c5 4b81 3984 903f
00000020: 6b40 6cf4 3482 873f 76c3 89f9 abb4 b33f
00000030: 87b4 2995 77ff 853f 7d01 136d 2d31 903f
00000040: ade5 68ce be05 993f f470 052b 01cb 6d3f
00000050: 769e cbe9 842d 7c3f 5dd8 e440 bc73 a93f
00000060: 0898 0403 7245 973f 21ac 1599 99f7 9d3f
00000070: c97f 02fb 078d 903f 7f1a e708 ebbf 7b3f
00000080: cfa4 677c 93f7 a13f ddb1 cec4 1319 8a3f
00000090: 9fb2 3b74 8957 8a3f a3a5 a731 56ba a33f
000000a0: f357 ceb4 be9e 623f 3e47 c5c7 01d2 a23f
000000b0: 56e4 01f5 3ae3 703f aacd 9226 2e32 9a3f
000000c0: c69d 7895 c303 b33f 8ebe 924a 1580 9f3f
000000d0: 745a ebce 74e2 933f c052 4e3c c8b6 8e3f
000000e0: f190 89c0 c046 a13f 65cd 9b69 197a 943f
000000f0: 4102 1b43 95b0 793f 53ef 4f32 136c 713f
