src/models/mentor/results/3-channels/real-world/Kaggle/model_weights/5.ckpt (torch, 201687 bytes, 112 tensors)

topology.conv_GAT.att f8 [1, 1, 32]
0	0x3fdaf34290edcb56	0.421097413570512
1	0xbfd323b00a7c4e11	-0.2990532019041164
2	0xbfa874917bcdc4ba	-0.047764345515028464
3	0xbfe06ba7f318eaa4	-0.513141608046983
4	0xbfc3fd8ca7ae60e0	-0.15617521464878958
5	0xbfc03e0d32a4ee03	-0.12689366314758396
6	0xbfdceeac9a098fe1	-0.4520675186415684
7	0xbfb58a26a1a569ab	-0.08413926550330213
8	0xbfc26865fbf7716a	-0.14381098559432398
9	0xbfcc0fb81a712083	-0.21922971049412263
10	0xbfa4e78c1d8c8856	-0.04082906590180417
11	0xbfcfbda3e4dbb943	-0.24797485995027033
12	0xbfcda41efb143b07	-0.23157107600896884
13	0xbfda0ef8aeb5aec0	-0.4071637827062027
14	0xbfd44a3958523dbe	-0.317030273677087
15	0x3fba3b1b9cc0ea66	0.10246441437713258
16	0xbfbdcf13e197c8fc	-0.1164410043491308
17	0x3fb276027ab8fdb2	0.07211318489225141
18	0xbfc173e6bebe56ac	-0.1363495284428401
19	0xbfd5945793b97c4c	-0.33717908312059275
20	0xbfc16e50a97fcd97	-0.13617904926614408
21	0x3fc6ac822228c25d	0.17713953655176598
22	0xbfb47881dac522b8	-0.07996379462305014
23	0xbfb28ebe97a5c219	-0.07249060823756572
24	0x3fc5213f2c3e70be	0.16507711086604177
25	0xbfc07ca65a68132f	-0.1288040105283925
26	0xbfced81fc4dd9d8d	-0.2409705840357045
27	0x3f8f7463f2c331ba	0.015358715864203332
28	0x3fb175afea74c923	0.06820201372173477
29	0xbfe074a680792945	-0.5142395505184046
30	0x3fc5283a65d39090	0.1652901646804179
31	0x3fd915a20ba2dba2	0.3919453729280865

topology.conv_GAT.bias f8 [32]
0	0x3fdbdcf6125db5de	0.43536140245018184
1	0xbfa0fcfe8e3310f3	-0.0331801937659594
2	0x3fcfaf8493d83625	0.24754388064359137
3	0xbfb27e5e2aef914e	-0.07224072025525638
4	0x3fdacbb148418934	0.41868240410089475
5	0xbfd123be09a8cb7e	-0.2678065389947547
6	0x3fc8cfafb7e1f0a1	0.19383808592454435
7	0x3fc81aa58bdd88de	0.18831319169391397
8	0xbfd5f54e77147ace	-0.34309732083231104
9	0x3fda7fe6050841c4	0.41405630580359465
10	0x3fd5d0548928b320	0.3408404673999019
11	0xbfcc565598495a72	-0.22138471542230637
12	0x3fd6b481f5df7944	0.35476731310872744
13	0x3fb38f5082df15e5	0.07640555567839831
14	0x3fc60593f6b6d18b	0.1720452265414106
15	0xbfdb32f2b8fb2ade	-0.42498462738573817
16	0x3fcafca2b40e0061	0.21083482543690749
17	0x3fc58d5022017782	0.16837503109394097
18	0xbfcf80e57348f4bd	-0.24612110261106138
19	0x3fd512ace6d0913d	0.3292648557710612
20	0xbfd49d3da84573dc	-0.32209721977943473
21	0xbfcee49e2e02ba0e	-0.24135186430562822
22	0xbfc0d938799df046	-0.1316290468056442
23	0xbfdc49514d7c2400	-0.44197495047461643
24	0x3fd545488595c3a3	0.33235371632968674
25	0xbfcef225331e55b6	-0.24176468845386773
26	0xbfd81dbdfab608ae	-0.37681531413557934
27	0x3fd5c2a598c2ef53	0.340005301648252
28	0x3fd145641319af62	0.2698602854277309
29	0x3fda64b08a671d9d	0.4123956061925698
30	0xbfd4c959cd1ef8c6	-0.3247894766935925
31	0x3fd64fd45d71531a	0.3486224091077915

topology.conv_GAT.lin_l.weight f8 [32, 5]
0	0x3fe70ab1f2b1fc7c	0.7200555553571486
1	0x3fe22c2ef107cf7d	0.5678934772135872
2	0xbfe2d343a45d546c	-0.5882890901799676
3	0x3fc30f3948e82529	0.14890209255126166
4	0x3fbde8770e6a437f	0.11682838537150352
5	0xbfdecdb9f7eca5ce	-0.48130654536597894
6	0xbfb2f46329733c22	-0.07404155504194468
7	0x3fc0154a1adfb3b0	0.12564970314215662
8	0xbfcd92084577c690	-0.23101905242906584
9	0xbfc5229e709b4dba	-0.16511898516055884
10	0x3f8e8a5ad88713e7	0.014912328465365788
11	0xbfb5ae8c90f079eb	-0.08469465769346811
12	0xbfe19145c7f06847	-0.5489834694919943
13	0x3fc1c7163513ca71	0.13888814536729258
14	0xbfdf889c9dc9d446	-0.4927131215002344
15	0xbfed92dda476986b	-0.9241779529736623
16	0xbfe4bd80749d5c0d	-0.6481325414305289
17	0x3fd519a4d0b9934c	0.32969017394343747
18	0xbfea10083118882c	-0.8144570311453712
19	0xbfee87c4a51995c8	-0.9540732597931134
20	0xbfc7c3e8115c7539	-0.1856660923739726
21	0xbfc13736db30d520	-0.1344975061671585
22	0x3fc72145b5d44fb7	0.18070289018998917
23	0x3fd9383a6ce01e5c	0.39405689842576463
24	0xbfb44b2d93e48021	-0.07927212582262701
25	0xbfc89696c17f56d7	-0.19209560821643976
26	0x3fd438c0da96431a	0.31596394869215916
27	0x3fca9780bd3cf8ad	0.2077485012068271
28	0x3fcaeb53f9a901cb	0.2103066414874902
29	0x3fe0b8acf051158b	0.5225434011160116
30	0xbfdbc45df9b02091	-0.4338602960929246
31	0xbfe1fe968386ab6e	-0.5623276299350957
32	0xbfad398708dedbb0	-0.05707952483447032
33	0xbfd6dfaa70fcb8e1	-0.35740147622972357
34	0xbfbd3ce2f0caaa3a	-0.11421030405714641
35	0xbfd753950d987962	-0.36447645499892734
36	0xbfd653e919e71de5	-0.34887149362154296
37	0xbfca118d5c2c27cf	-0.20366065025910848
38	0xbfda088b18414e70	-0.4067714440218202
39	0xbfca73787373a828	-0.20664888036054774
40	0xbfec719d02624215	-0.8888688131865502
41	0xbfeefd1dca450ab3	-0.9683979940967532
42	0xbfddb81063645118	-0.4643593760131508
43	0xbfd6ce6bd127de5f	-0.3563489477669232
44	0xbfde54213c25736a	-0.4738848769537102
45	0x3fc52d6b52b1529e	0.16544858491638065
46	0xbfc313107778ff72	-0.14901929696679478
47	0xbfc80fe6a28d7a9d	-0.18798525750294895
48	0x3f93d8a4fe972015	0.019381120718918583
49	0x3fbd1c88ffcf122b	0.11371666188558353
50	0x3f5520cf39c3e399	0.0012895606697027383
51	0xbfc0c7491363f7df	-0.13108170935441785
52	0x3fbca71508394364	0.11192447138570355
53	0x3fc0145121890b42	0.12562002313105763
54	0xbfc76c5fb002fbd4	-0.18299480528182122
55	0xbfecc54d10a37ce0	-0.8990845990155343
56	0xbfdc6b0c0c361f32	-0.4440336341144643
57	0x3fbeb3e6a74f2bea	0.11993257126520943
58	0xbfd1c9006b067c1a	-0.27789316608135695
59	0xbfcfdb4d95d5c1c0	-0.24888009849702364
60	0xbfeb39716b11128f	-0.8507620898386267
61	0xbfeeeaebd0d6ac11	-0.9661768988493141
62	0xbfd5f6aa11352aac	-0.3431801956218503
63	0xbfa7e96ff4b4441b	-0.04670286047088031
64	0xbfd089c6eb1552be	-0.25840924222329054
65	0xbfdd3476cc4475eb	-0.4563271517561975
66	0xbff28d28b2a17b7d	-1.1594626405492072
67	0xbfcc95586677c183	-0.2233076572733915
68	0x3fc9399abc1553bd	0.1970704477668316
69	0xbfe09aa8d1abd6a1	-0.5188793273107032
70	0x3fe8a81eaf6ec18f	0.7705224443835038
71	0x3fe7be96f58c0f5b	0.7420153423158625
72	0xbfd38ae8bafe6bab	-0.3053533388244271
73	0xbfb3e2ae1ce35366	-0.07767761426232553
74	0x3fdb7d28b66445ab	0.42951410113991056
75	0x3fe9b890d64a5115	0.8037800011975685
76	0x3feaa7f2c470d9bd	0.8330015026793302
77	0xbfd63c03532faab3	-0.3474129021039218
78	0xbf5be173e9bf8b53	-0.0017017013515150017
79	0xbfe2b8c43d75a4ec	-0.5850545120603363
80	0xbf888508cc831440	-0.01197249292489222
81	0xbfdc9fdd22df482e	-0.447257312826994
82	0x3fcd50239b39ac7d	0.2290081508575418
83	0x3fe1df0209bfaff9	0.5584726515203321
84	0x3fd9c21625fa9778	0.4024711008918227
85	0x3fe2c7df531dd511	0.5868984816903852
86	0x3fd64b9b3c951760	0.34836464802025624
87	0x3fc1fc096d95db66	0.14050405360077461
88	0xbfd167636ab55c23	-0.27193532391305747
89	0x3fd2611427119df5	0.2871752149135028
90	0x3fd7f3e7d86192bc	0.37426181918116774
91	0x3fd11f18d40e9606	0.2675230093830979
92	0x3fc490b0a996e05c	0.16066559105616107
93	0x3fe463849fc57d70	0.6371482010398903
94	0x3fd02b4b50af493f	0.25264246825567577
95	0xbfd646539ae7817b	-0.34804239394545505
96	0xbfdafc48a51f5506	-0.4216481792949057
97	0x3fcc54f074bde971	0.2213421411541492
98	0xbfdb14c2f8112b54	-0.4231421873598056
99	0xbfd29a377999769f	-0.2906626403326786
100	0x3fe4d0c3c1638d43	0.6504839684606981
101	0x3fb8632405ec397d	0.09526276726339762
102	0x3fd13baeaa69db1e	0.269267717761453
103	0x3f74b7b77b936029	0.00505801842628987
104	0x3fe363f1413895f5	0.6059500001762773
105	0x3fc1cf911906ad19	0.13914693567253592
106	0x3fd86a1b9c392b0f	0.3814763093584341
107	0xbfd871a80d1e54c9	-0.38193703919507677
108	0xbf7cd0f777eaabd3	-0.007035223649533645
109	0xbfdc70201c1110ef	-0.4443435930336496
110	0xbfe48b47883ed36d	-0.6420018826525912
111	0xbfd843d43fa41786	-0.37913995947780454
112	0xbfb7faef3b3067d0	-0.09367270655675886
113	0xbfc33da1af13a82b	-0.15031834648772366
114	0x3f92162aa109713a	0.017662683562194227
115	0x3fd19f2e0f8d3d78	0.2753405715820558
116	0x3fc1f9a48dbafd35	0.140430993274984
117	0xbfc8b1bbbf3abd64	-0.19292399251342396
118	0x3f7c11d41e9eebfa	0.0068529401705132945
119	0xbfd3ef9f041b526d	-0.3115003147225142
120	0x3fd9c18db99472bd	0.402438575010631
121	0x3fe05996ef185cd1	0.5109362287356821
122	0x3fc8b6b5fd57be76	0.19307589407206976
123	0x3fe3b696f63ec859	0.6160387811162408
124	0x3fc552dea7a8b573	0.16659148394084475
125	0xbff864488e512da5	-1.5244832572233034
126	0xbffa47a46185e615	-1.642490750264533
127	0xbfe1449457f958e4	-0.5396215170137819
128	0xbfe70d4fbd41566a	-0.7203749367133245
129	0xbfebe94bbbdae56b	-0.8722284955066874
130	0x3fd155137f1b5ab4	0.2708176366117343
131	0x3fddff18dc835920	0.4686948922584566
132	0x3fc5b2a10995c19f	0.16951382606522444
133	0xbfca3475e3b5f01b	-0.2047259675854328
134	0xbfca98db60d53ea9	-0.20778982380078517
135	0x3fd613b705e71df9	0.3449533040661375
136	0x3fe4b8f42ec09202	0.6475773728494121
137	0x3fbbee469831fdfd	0.1091045495577347
138	0xbfd6bdab09bf3461	-0.35532642318577784
139	0x3fca6c3dbfe476a6	0.2064282595610411
140	0x3f89cb891c5e22f7	0.012595244577612059
141	0x3fd7d4ae66c09475	0.3723560336532679
142	0x3faa686ac84befff	0.05157788939501983
143	0xbfce8d0b9cf8cb09	-0.2386793629135229
144	0xbfb76e781e257e30	-0.09152937637326697
145	0xbfe5657c2604d7a7	-0.6686383001858659
146	0xbfe04bb35b87972a	-0.5092407977760776
147	0x3fe48fdbe887d4ba	0.6425609151471214
148	0x3fcc3b1663003d68	0.22055320581464888
149	0xbfce07682e321f0d	-0.2346010423245776
150	0x3fd2baba326e1437	0.29264693188480656
151	0x3fe24b0ff7b17871	0.5716628873594926
152	0x3fe043ceeb495a27	0.5082773776474071
153	0x3fe61c25f19d6b06	0.6909360617677016
154	0x3fe50159db064bb6	0.6564149167846753
155	0xbfb7bb452684b8ec	-0.09270126524345174
156	0x3fbba4f191677b7a	0.10798558998020083
157	0x3fd64031c6165d22	0.3476681169936048
158	0x3fca43ea4c6f611a	0.2051976083009855
159	0x3fdba40dbb34553b	0.43188803941423587

topology.conv_GAT.lin_l.bias f8 [32]
0	0x3fd95e62fcae967e	0.3963859050366877
1	0x3fb0f9d505eccd64	0.06631213564542332
2	0xbfacd06472a4cf33	-0.05627740764103208
3	0x3fd4cf62e88dbf1d	0.32515785894701016
4	0x3fd783fc0c777fa6	0.36743069856128796
5	0x3fbc7e9fb285ce78	0.11130712612594518
6	0xbfcf2365b30e9336	-0.2432677387525019
7	0x3fc0cb1a7c9d9966	0.13119822582957424
8	0xbfade8d52503bccf	-0.05841699673498512
9	0xbfd1dcb92495d892	-0.27909687588488297
10	0xbfc7c1c80912237e	-0.18560123865998074
11	0xbfba19eac2197aa7	-0.10195796240575793
12	0x3fd9c1d233c20341	0.40245490126112676
13	0xbfd25015ccccb955	-0.28613801002474776
14	0xbfe05e0947627b50	-0.511479033873778
15	0xbfdf14aa7f0f86d5	-0.4856363526179
16	0x3fa3d87c13c37559	0.038761022007501374
17	0x3fcd27d2e6b7ccb1	0.22777782693410623
18	0xbfe2e9542a160acc	-0.5909825155252633
19	0x3fd1c93cdc08199a	0.27790757644143016
20	0xbfe354dd87888716	-0.6041095397124276
21	0xbfe18e263b467f7a	-0.5486022145960157
22	0xbfcae1b616c6670d	-0.21001316177426368
23	0xbfe0d0d0ac7bca11	-0.5254901284045578
24	0x3fe4cab101d1e799	0.6497426066919046
25	0xbfa4a5d395c096a0	-0.04032765582114206
26	0xbfe0c81bd1037007	-0.5244273264211196
27	0x3fc87a0c2b033e36	0.19122459507205897
28	0x3fe43cf30756f31f	0.6324401038506017
29	0x3fd20b7071cc80fc	0.28194819558304096
30	0xbfd8c8c6bbed4bd2	-0.387254413149262
31	0xbf9e7efdac01c143	-0.029781306861367495

topology.conv_GAT.lin_r.weight f8 [32, 5]
0	0x3fe24bb89c74ee0d	0.5717433028980295
1	0x3fe472b17e91bcbf	0.6390006515556691
2	0x3fca069dbde9f30a	0.2033269097627442
3	0x3fd362d7fe66c764	0.30290794223684814
4	0xbfc8dc2b9823987d	-0.19421906403221448
5	0x3fdda08f247fe294	0.4629247528496674
6	0x3fe7b7021fdfa2d3	0.7410898802309823
7	0x3fd129828eceb0f2	0.268158568821277
8	0xbfa54998ddb54afc	-0.04157712656401277
9	0xbfc97dafda90d0a1	-0.1991481606688739
10	0xbfa98451465c4f82	-0.04983762725728892
11	0xbfd064ead80f561a	-0.25615950679397914
12	0x3fcc49ec00453ade	0.22100591672138753
13	0xbfd56bf343542b9e	-0.33471376013829424
14	0x3fd4ca43f0f87fd9	0.3248453000287533
15	0xbfd4882de420c78f	-0.3208117225468578
16	0x3fd60905ea399408	0.3443007266380964
17	0xbfcaab85608be4d9	-0.20835940565283442
18	0x3fa9f3948017569d	0.05068649352658137
19	0x3f6b7561123d505d	0.0033518691942991245
20	0x3fd46cf0e5e1772a	0.3191492314270926
21	0x3fcb30a8ffdc60b0	0.21242249005513747
22	0x3fc1d64c5cc2aef3	0.13935236481972132
23	0x3fe66f5b67baefaf	0.7010933900814872
24	0x3fd2ac74a56ef30a	0.29177585750203205
25	0x3fd137e42fb00dd0	0.2690363374424267
26	0x3fc952d12cba0c35	0.19783987697528152
27	0x3fd510fa56e0f5c2	0.3291612480569165
28	0x3fd6facb876b3f9b	0.3590573141527728
29	0xbfb08dda85af852a	-0.06466451419648381
30	0x3f7fde48ffda10db	0.007780347017277668
31	0xbf67eb53b9e2f13a	-0.002919829871727367
32	0xbfe11c687023a8f3	-0.5347177686901702
33	0xbf8ced358d74f5a3	-0.014124315623685052
34	0xbfe4d9ba7e8ec887	-0.6515781852560999
35	0xbfd7e39788675aba	-0.3732661087100656
36	0xbfc764a839213e7e	-0.1827593115763086
37	0x3fa92ab5bb335db0	0.04915397558368839
38	0x3fe29ff44bb011dd	0.582025668933564
39	0x3fd268a88bfc13ed	0.28763784094218076
40	0xbfb92dcefbf04639	-0.098355232723656
41	0xbfe2dd3121408a62	-0.5895009660201362
42	0xbfc039b831deca2b	-0.12676145968505756
43	0x3fc2debb0981d52e	0.14742219890801195
44	0xbfdb8cd737a8773c	-0.4304712337051233
45	0x3f99fdeba4f56ce5	0.025382692282943337
46	0xbfc676ec29643ec5	-0.1755042268855417
47	0xbfce0119ab813d79	-0.23440857767353032
48	0xbfd6b6bd66adf57e	-0.3549035551767118
49	0xbfba0d888292c67c	-0.10176900089097701
50	0xbfe5cb34cdd4f587	-0.6810554523614635
51	0xbfdf36326e75621e	-0.48768292223897614
52	0xbfc47c5b7d414153	-0.1600450860592085
53	0xbfd675814bc679ad	-0.3509219398491961
54	0x3fb7feafff99303d	0.09372997274584889
55	0x3fc22e0ff3dc51ad	0.1420307102895441
56	0xbfb528134d32c7cf	-0.08264275202489489
57	0x3fb4ca2898c4ba6b	0.0812096951455971
58	0x3fb878a4076713eb	0.09559083157280639
59	0xbfcb639c4d400429	-0.21397737285590893
60	0xbfd6393d78af579c	-0.34724365983617544
61	0xbf7024a2cff4233d	-0.003941188798543047
62	0xbfbe544b23d4c9f6	-0.11847371697221107
63	0xbfde04a80176afbf	-0.46903419630939064
64	0x3fb2fe42f916d883	0.07419222432403853
65	0x3fc2946e4ad82d61	0.14515474943651
66	0xbf97b77104c857b3	-0.02316071120920755
67	0xbfc93bd0b44246b8	-0.19713791658118907
68	0xbfdca3fc06257af6	-0.44750881767497164
69	0xbfe9302e9b9a74f5	-0.7871315993430971
70	0xbfbf83b422206d40	-0.12310338814898092
71	0xbfdfad970800d042	-0.49497009069023445
72	0x3fe257747ac63321	0.5731756589826525
73	0xbf93e8d1ab4e6899	-0.01944282157965258
74	0x3fc66f629079991d	0.175274200958662
75	0x3fd7a732d50c1091	0.36957999043830464
76	0x3fc6ec890ec359b2	0.17909348698476674
77	0xbfe0cfa84ca826b1	-0.52534880611457
78	0xbfda15fe6730ac31	-0.40759239270363695
79	0x3fc2e102178e2104	0.1474917044654448
80	0x3fe8083b9b46f167	0.7510049851185102
81	0x3fe2153df8d351aa	0.5650930271026955
82	0x3fe433f7308fbaa1	0.6313434551683096
83	0x3fddc93903c4af71	0.46540665977476353
84	0x3fd4250027a29af5	0.31475833769438505
85	0x3fcd9870e97f8a1f	0.2312146320465027
86	0x3fd67f31f48318cd	0.35151337507376185
87	0x3fbbb98c6ce304fc	0.10829999597901357
88	0x3fe3b732f9ad55df	0.6161131741052336
89	0x3fe2ba8cf297b988	0.5852722871912173
90	0x3fd8cc12e73cd621	0.38745567876626025
91	0xbfafbcb9e2ac0991	-0.061986740989612994
92	0xbfdb74a881bae520	-0.4289952532668213
93	0xbfebd60c7ca00c34	-0.869879001053397
94	0xbfa71999cc17b033	-0.0451171933781044
95	0xbfa0dbe12e8ff86e	-0.032927548345455956
96	0xbfc3c00123076b08	-0.15429701052092804
97	0xbfc45033419a33a4	-0.15869751647224206
98	0x3fd041da6541276e	0.25401935470710313
99	0xbfe0041a711f4c20	-0.5005008897227334
100	0xbfbfa1abbca86084	-0.1235606513586181
101	0xbfb71cbf8a0f2e02	-0.0902824127253368
102	0xbfe48d72e153291b	-0.6422666931987665
103	0xbfc5f9b34ac142d2	-0.1716827502264296
104	0xbfd6837f68469942	-0.3517759817426801
105	0xbfd9617043a305b9	-0.39657217602879374
106	0xbfdb80b9bf267260	-0.4297317854596141
107	0x3fe8629c44f72bc5	0.7620374056799554
108	0x3fd44d3fd2aafb7e	0.3172149236015044
109	0x3fe8cae12dd47492	0.7747655768504436
110	0xbfd462c98729051f	-0.3185294933246769
111	0xbfda3cae366ebfb4	-0.40995364490208464
112	0xbfaab4ac64927210	-0.052159678723203595
113	0x3fc114ed58c3240d	0.1334511454972759
114	0xbfd758ba12897028	-0.36479045686951617
115	0xbfd1fe1db2ea27de	-0.2811350104535658
116	0xbfd05768e207f711	-0.2553350646338553
117	0xbfacaa3893fd06ad	-0.05598618322848146
118	0xbfd0227e08fa9070	-0.2521052444155947
119	0x3fdbb3b892ec1004	0.4328442988191912
120	0x3f872c1ca2992e5b	0.01131460543833567
121	0x3fc6ba33d9f9c732	0.17755745070786016
122	0xbfdf748c999b4058	-0.49148859978322923
123	0xbfdf13c6a4a8750b	-0.48558202819715807
124	0x3fca984025689dc7	0.20777131868929485
125	0x3fc4384f2e37b626	0.1579684234306324
126	0x3f82855fbb48f342	0.009043453124030546
127	0x3fd6ae59e39689e7	0.354391548398921
128	0xbfa9ff810953c578	-0.050777466190889464
129	0x3fd1cb70722f7df3	0.27804194594315773
130	0x3fd722003e51e221	0.3614502533523894
131	0x3fe0f0358f193f85	0.5293224139113454
132	0xbf66ae0c511bc2d4	-0.0027685394824107177
133	0x3fc60a6ed2b02dcc	0.17219338691243846
134	0x3fc96da6449a4ee5	0.19865873670334291
135	0x3fe913a16c78353c	0.7836463087602747
136	0x3fceb0af8163ab55	0.2397670156272748
137	0xbfaa191cb6d8bdf8	-0.05097284061445956
138	0x3fc9b1ba568ee938	0.20073632456280577
139	0x3fe3a22d2c4c48c9	0.6135469308085472
140	0xbfcd9673dc8ca944	-0.23115394848839277
141	0x3fd723bf4d2d73de	0.36155684029455226
142	0xbfccbab42b048a92	-0.22444774723506505
143	0xbfe3a6c4d81ff729	-0.6141075345219394
144	0xbfd5ca9c623bd8bc	-0.3404913863481729
145	0xbfdbbcfd7717eb81	-0.4334100401899193
146	0xbfe08cd0595e6a5d	-0.5171891923412876
147	0xbfcfc63c7539749b	-0.2482371876130046
148	0xbfcea8e3e270b878	-0.2395291190782165
149	0xbfe123c762c6be4c	-0.5356175355172552
150	0xbfd8f484edeea2c4	-0.3899242709690436
151	0xbfd4ce7a61e5d2d6	-0.32510242042853343
152	0xbfd84e78acc74e9f	-0.3797895133295501
153	0xbfe1271dccd25893	-0.5360249519751669
154	0x3fd2b513798caffe	0.2923020064361025
155	0x3fdf05fc0e38262c	0.4847402705059689
156	0xbfaf9b493da1da67	-0.06173161389681497
157	0x3fe65047fb66155e	0.6972999487049198
158	0x3fd9455c85396a18	0.39485848436530224
159	0x3fe42fbc0c4f02f3	0.6308269729998685

topology.conv_GAT.lin_r.bias f8 [32]
0	0x3f960c6102ae6f5e	0.02153159693590056
1	0x3fe4ada40c9ecdc2	0.6461963888636364
2	0xbfd5387eecbd51cd	-0.33157322997183486
3	0x3fd732d3ab757db3	0.3624772238162805
4	0x3fd6f809972f7226	0.35888900531952783
5	0x3fcbd171419ac8da	0.21732917502737942
6	0xbfe08d142cf52959	-0.5172215345458354
7	0x3fd25500c0dcd100	0.28643816789850973
8	0xbfd2bee5f686a14e	-0.29290150713724905
9	0xbfd75535fec4dbd5	-0.3645758617380442
10	0xbfe2e6f582d62c9f	-0.5906932406809523
11	0xbfd890ec077c6ead	-0.38384533625660816
12	0x3fd45e069877e848	0.31823887719622634
13	0xbfcc78cfd77c7cac	-0.22243688604155432
14	0xbf83bf6023e45411	-0.00964236363919649
15	0x3fe2415db36e439b	0.5704792503839714
16	0x3fccb689bbe89551	0.22432061839314568
17	0xbf7845df4b0fffc6	-0.005926010359871675
18	0x3fb58bce50b84b1f	0.08416451903057663
19	0x3fc1e736fe6c95dc	0.1398686163239934
20	0xbfd524200a49697a	-0.33032990459982836
21	0x3fb98e1007e0b85b	0.09982395355538769
22	0xbfdd111247f944c9	-0.45416695622141084
23	0x3fd76683fd6234f5	0.36563205475324817
24	0x3fc61231edd9feeb	0.17243026841969508
25	0xbfddcfa2208a5d54	-0.4657979314592542
26	0xbfc5b4ccfd19ba1f	-0.16958010061667125
27	0xbfc5cf980327c3cb	-0.17039775995320236
28	0x3fc8f73ed6632e50	0.19504533260475165
29	0x3fcaa19413203fe5	0.20805598195920463
30	0x3fe8c424e94e7598	0.773943381954882
31	0x3fe37a66ae0fd89d	0.6086915397306886

topology.convs.0.eps f8 [1]
0	0xbfe0a45673218cd4	-0.5200607536939068

topology.convs.0.nn.0.weight f8 [32, 32]
0	0x3fd27a34406242c1	0.2887087467907286
1	0xbfae96c9e903a559	-0.05974417657291537
2	0xbfcc39fde82ad466	-0.22051977001470674
3	0x3fdccfc173bdd86a	0.4501803999222661
4	0x3fe580bf3303c885	0.6719661709196464
5	0x3fe124a8e77fb98a	0.5357250710929276
6	0xbfacb6cf3e42feaa	-0.056082226133637406
7	0x3fb5e50c9ef682fa	0.08552626496249252
8	0x3fdd9aaf9d6bbc61	0.46256628392342775
9	0xbfce2843495b1950	-0.23560372430638177
10	0xbfc19691f3c0b46a	-0.13740753557195556
11	0x3fd3538f6babb5d6	0.3019751121017554
12	0x3fd3d72397b7b2e3	0.3100060445420196
13	0x3fe04a20ca174c3c	0.5090488383378964
14	0xbfe1379cf88616d2	-0.5380387166958036
15	0xbfab14b5a28023b9	-0.052892376028530426
16	0xbfbdf0eee76d202b	-0.11695759916358443
17	0x3fde3061d6199298	0.4717030134982365
18	0xbfc67a81598e1614	-0.17561356423191
19	0x3fb944128505be3b	0.09869495151155487
20	0xbfd8f0286079339f	-0.38965806409106024
21	0xbfe396f7b803c3f4	-0.6121786684071808
22	0x3fd4a87e6b8c4093	0.32278404715271697
23	0xbfac2ff2dbf20391	-0.055053319309997246
24	0x3fdef9553b8635cc	0.4839680749217592
25	0x3fe4965739b718c0	0.6433521392107409
26	0xbfe381ebe071e65c	-0.6096095451059216
27	0x3fc3222d3e440925	0.14948049106903585
28	0x3fe39b49e7530f46	0.6127061384254169
29	0x3fe6cc6c4c7e9511	0.7124539846451247
30	0xbfcc8e96e522a8fb	-0.22310148418666373
31	0xbf74374e97329373	-0.0049355573602597345
32	0x3fe78eff6e306859	0.7362057830935199
33	0xbfae8eb52e88975c	-0.059682523661008985
34	0x3fc711227491d170	0.18021040622592066
35	0x3fcc3ef08ab6ec23	0.22067076466723376
36	0x3f9f2faf388ce213	0.03045533926635542
37	0x3fda75b7e01e8a88	0.4134349526085903
38	0xbfc036afca8fb083	-0.1266689051693711
39	0xbfd88f37ef134983	-0.3837413630218622
40	0x3fd4c6550455b9ea	0.3246052305538841
41	0x3fc043ed1145d797	0.12707293837928255
42	0x3fab75338a7ab464	0.05362855019971205
43	0x3fceeb3ee2d1ca3f	0.2415541274563839
44	0xbfdf44931291dbf5	-0.488560455450567
45	0xbfc90ec94373cc4c	-0.19576373857089135
46	0x3fe33b9dc9e9593f	0.6010273879608475
47	0x3fe3be5e22b9f3f6	0.6169882467507921
48	0xbfc4482bd8c9fe72	-0.15845249257471355
49	0x3fdb36b4d5416f46	0.4252140123914966
50	0x3f622b96b579d060	0.0022180503399856083
51	0xbfd159f533c7f5f5	-0.27111558968303423
52	0xbfaf0d81d6f14bf9	-0.0606499266511022
53	0x3faf610c6a742e83	0.06128729629025733
54	0xbfc3df87f9f5bee3	-0.15525912957263363
55	0x3fe1b82fe04c5383	0.5537337666342953
56	0x3fe0d3a7e5716730	0.5258368951137751
57	0x3fc127433630f7a1	0.13401069780405542
58	0x3fc25e22e423ee99	0.1434978116957282
59	0x3fd6c113a3f13916	0.3555344677923967
60	0x3fb020ec8df91b21	0.06300238100184831
61	0x3fd2453b39348584	0.285475545753876
62	0x3fd75a52e2ebe182	0.36488792572301787
63	0x3f585b7c23beb60a	0.0014866554547369203
64	0xbfdafec6601decd6	-0.4218002260819963
65	0x3f9213ab3b88d1a0	0.01765315581197202
66	0x3fcfc43ec90e3acc	0.24817642991225453
67	0xbfdd23311134e396	-0.45527292900401883
68	0xbfc45fc1e49fe2aa	-0.15917228377636167
69	0x3fb3305807943f92	0.0749564188483858
70	0x3fc26d3b9da9522a	0.14395852278052362
71	0x3fd55670cadccba0	0.33340091524876847
72	0xbfd1cdf5eff80237	-0.27819584307147543
73	0x3fd67aad38998a2e	0.35123758818932316
74	0x3fc9349605d9f4af	0.19691729818069834
75	0xbfb60590d75b7f2e	-0.08602242715596439
76	0x3fcea61f6eb25e63	0.23944466500391845
77	0xbfd2f3cf6d25692e	-0.29613099726488457
78	0x3fd8489b0f72897a	0.3794315005162826
79	0xbfcdcdbe6540bdf0	-0.23284130043019458
80	0x3fd20a14adbd5b30	0.2818652817417613
81	0xbf7ce6479d308fc1	-0.007055549375795723
82	0x3fdde1f90ce5316c	0.46691728839211666
83	0x3fcc1aee699b3927	0.2195718780189477
84	0x3fe16f16abc2d4a9	0.5448106150348809
85	0x3fe0f1ca264ad691	0.5295153377434919
86	0x3fd3c2a9fe3a8111	0.30875634982113903
87	0xbfc078a2e13f93e9	-0.12868152616934417
88	0xbfc7a1d2126d424d	-0.18462587260957478
89	0xbf5145d8121a6d7f	-0.0010542497697433038
90	0x3fe1c9b3c475949b	0.5558718525977783
91	0xbfd4af545704fce5	-0.3232012605476043
92	0xbfc2a0d56f93f7da	-0.14553325603622974
93	0x3f57d4b79ff1bda2	0.001454524346424659
94	0x3fce6d6d31159047	0.23771443268481304
95	0x3fd220af3cf0423b	0.28324490500475336
96	0xbfcdb7e3b8525f52	-0.23217436313711431
97	0xbf992b4ace7d63d6	-0.02457920918763875
98	0x3fb92d421f3da663	0.09834683668818793
99	0xbfdb60a446cea26e	-0.4277735415912848
100	0xbfea2be7a6f2cbbd	-0.817859483786712
101	0xbfca767772f30ddb	-0.20674031365170617
102	0xbfa4863c7d11d4b9	-0.040086641566554566
103	0xbfd4f0dad69db5e6	-0.3272006126270227
104	0xbfc773c5809eb9d7	-0.18322056560778208
105	0x3fd2cd7dbea47cd6	0.2937921869033294
106	0x3fcdcc7d2816f01a	0.23280300576686913
107	0xbfcda18c1a80fe79	-0.23149253172049436
108	0xbfe49cfde073e94f	-0.644164026626905
109	0xbfd31f4fd8471168	-0.298786126335719
110	0x3fcff1f2c35488f7	0.24957117593391562
111	0x3fc6958537e5040b	0.17643800000408336
112	0x3fb100b11c5590da	0.06641680661920493
113	0xbfe0f650fd9a8f91	-0.5300679162214569
114	0x3fda99eb8c26bc38	0.41564453779841726
115	0xbfcc5786e7b5fc4f	-0.22142111124046202
116	0x3fe3cb41a8595dbf	0.6185615814273929
117	0x3fd689d1caf875b0	0.3521618349203335
118	0x3fc1fdf3f47e6cb5	0.14056252897430502
119	0x3fe1377fc758ccbf	0.53802479681908
120	0xbfe52f0c281b5cd9	-0.6619931014382942
121	0xbfbc8e48b08ac8b0	-0.11154608068571537
122	0x3fd9fe20e8b5b1f9	0.40613577580987187
123	0xbfcfb507ce6afded	-0.24771211222649417
124	0xbfe1971eead3bccb	-0.5496973597018039
125	0xbfeba00febde171a	-0.8632888418949023
126	0x3fcfdeecd4438176	0.24899063457906906
127	0x3fc3be87c04f80ab	0.15425202264942092
128	0x3fd2aa6a4054848c	0.29165130884400337
129	0x3fdd6a8e708bea94	0.4596286868178734
130	0x3fd31037550e9720	0.29786475473734875
131	0xbfcb01fa8b3879fe	-0.21099788473016184
132	0x3fe7ccfa303c460d	0.7437716428850664
133	0x3f9127247184f48e	0.01675087874285857
134	0x3fcc4940397dda01	0.2209854393692723
135	0x3fe08ea44b3d6f6e	0.5174123258143319
136	0xbfc30eb52f3fde77	-0.14888634497741624
137	0x3fd946ede3a8588c	0.3949541781634103
138	0x3fb9cd76f35ff0b7	0.10079139177099959
139	0xbfe230cb5764035a	-0.5684563357209342
140	0x3fe408547ff5a591	0.6260168551645383
141	0xbfc771742424a3d2	-0.18314983143616687
142	0x3fb30a7257e740d9	0.07437815328671905
143	0xbfd631bddb5932f0	-0.346785988051848
144	0x3fe1423992b5b295	0.5393340936112333
145	0x3fb359cd24ceca96	0.07558900974872027
146	0xbfb2db93c07b923a	-0.07366298150334041
147	0x3fdc8389a1f54d9a	0.445528419649429
148	0x3fa479fba8d7baa4	0.03999315677707685
149	0x3fb189604ad35483	0.0685024435691322
150	0x3fd337bc535f7226	0.3002768339336249
151	0xbfdf7c83d3212177	-0.4919747888384544
152	0x3fabcdd031d86cb3	0.05430460556473218
153	0xbfc1f6608d049ad6	-0.14033133397716452
154	0x3f6239c958bb7c88	0.002224820380305529
155	0x3fcba908173cfbcf	0.2160959351985796
156	0x3f7a39062e8540d3	0.006402038714739616
157	0x3fe02a1c9316b118	0.505140578539371
158	0xbfc3ee4441298644	-0.1557088201689557
159	0x3fe090cda94c0cb6	0.5176761919577959
160	0xbfd7aff1c1caf8dc	-0.3701137917049786
161	0x3fd8001482a6850b	0.37500489004931187
162	0x3fc60b006de2464c	0.1722107445280464
163	0xbfcd7381b2a61721	-0.23008748267255277
164	0xbfcb5ba791e04831	-0.21373457548958322
165	0xbfdca39c98c87bb0	-0.44748606605747465
166	0x3fc5ed861f65ebab	0.17131115468131716
167	0xbfd97b2e2739b0f4	-0.39814332800484853
168	0xbfd61e9413d55a0c	-0.3456163591085051
169	0x3fbd4dcc681a0afa	0.11446836034341948
170	0x3fc6be6f2f6718c2	0.17768659414850246
171	0xbfd0d6e6cb061b01	-0.2631165487913876
172	0xbfd923704d785987	-0.39278800549927734
173	0xbfd9e58c495a2ced	-0.4046354976969287
174	0x3fbc390534df9d1d	0.11024506131035534
175	0xbfbf939e58370294	-0.12334623006519002
176	0xbfe3a8c3561c23db	-0.6143509561380783
177	0xbfd09b7d67091eef	-0.2594903475005443
178	0x3fa7536d31486d8b	0.045558368936521175
179	0x3fcffddeea1565eb	0.24993502073156945
180	0x3fc629f2d85fdc8d	0.17315517010840545
181	0x3fb4c689bc705592	0.08115444994503765
182	0xbfc98cda690cbac1	-0.19961099748021208
183	0xbfd81baf5f52297f	-0.3766897612446413
184	0xbfe0551ab21c0417	-0.5103887060832929
185	0x3fc7e7c84bf370d6	0.18676093777219788
186	0x3fc1a783066398e3	0.13792455493894015
187	0xbfda106da77a194f	-0.4072527061001851
188	0xbfd47751ed374c26	-0.3197827164232784
189	0xbfe1c9e0dcf31a8d	-0.5558933558866826
190	0xbfbedd35f9115ff5	-0.12056290941961818
191	0xbfe0bb201a4f634f	-0.5228424562329596
192	0xbfd82268b6ab7b31	-0.3771001609692802
193	0x3fc5fcc87cff41e4	0.17177682975172026
194	0x3fc590ec536d320c	0.16848520349084628
195	0xbfb7ad4913c3fa7b	-0.09248787624890469
196	0x3f928159c3d15cf6	0.01807155854870942
197	0xbf9aaf8b929d929a	-0.02606027681703669
198	0x3fc16ac5fe38dcbe	0.13607096589269035
199	0x3fbe53818598e0d6	0.1184616995968811
200	0xbfa6f46cd86e53fc	-0.04483356611232378
201	0x3fb1beeeb54d83d7	0.06931964804017753
202	0x3fba7eb16f7c7155	0.10349568340138167
203	0x3fb5ffbec399c450	0.08593361163527047
204	0xbfc6b8b5c11641f8	-0.17751190116952364
205	0xbfb0d458e77fe4f2	-0.06574016239018812
206	0xbfc22d9a1f17fcbe	-0.14201666372534832
207	0xbfc923836929e767	-0.1963962806219641
208	0x3fd4ece6e8df313c	0.3269593500269996
209	0xbfe20dd9184996c2	-0.5641904329647434
210	0x3fcf146e19849158	0.2428109764670221
211	0xbfa21cf7d54ea081	-0.035377259052723715
212	0x3fc81eff909abaf8	0.18844599304926368
213	0x3fd57122d4250779	0.3350302764630367
214	0x3fc892222169fa6d	0.19195963508169048
215	0x3f921959f035fbca	0.017674832617099935
216	0xbfe31774efabdb28	-0.5966133767204598
217	0x3fc1ee900ed4a8c2	0.14009285663752818
218	0x3fd90b597bce31d7	0.3913177212750986
219	0xbfe85b58be27b745	-0.7611507142989714
220	0xbfd68b0aa840e43c	-0.3522364276028076
221	0xbfe030193a6fe918	-0.50587140477663
222	0xbfccee315f0ef524	-0.22601906911396796
223	0xbfc33c7635e83aa2	-0.15028264648613737
224	0xbfa2cf303f4a5489	-0.0367369725474101
225	0xbfd67a1760918043	-0.35120186262611613
226	0x3fd0003ccab941b2	0.25001449391586583
227	0xbfdf5517978144a3	-0.48956861300855276
228	0x3fb9aa2956de0d06	0.10025270815645024
229	0x3fd34355bcd80958	0.30098479692255387
230	0xbfd216b7a80139e2	-0.28263656050412866
231	0xbfb0e1b61fdcb231	-0.06594408300288347
232	0xbfda172955c4b487	-0.4076636636335213
233	0x3fd11b22adbfaceb	0.2672812172665561
234	0x3fc6f0238c5b3bcc	0.17920345643366742
235	0xbfdad48be6e8c6b7	-0.41922280835852227
236	0xbfcc2d21010e3474	-0.22012722541368002
237	0xbfec242936b28b43	-0.8794141834554029
238	0x3fe5e9ace721bfbd	0.6847748293202965
239	0x3fe92bb1adf87205	0.7865837476597909
240	0x3fc50903347eb7d2	0.16433754027587938
241	0x3fb8ea5c1b5ed6ad	0.0973260466406269
242	0x3fddeca65406d61b	0.4675689526150976
243	0xbfdb1687b13ff886	-0.4232501250224988
244	0x3fe11a6db30a0352	0.5344761368615798
245	0x3fe14960b39726b3	0.5402072436929387
246	0x3fc1793473016e09	0.13651137938983052
247	0x3fe9a56a5a952780	0.8014423150245733
248	0x3fad4724a9e49d40	0.057183404673475824
249	0xbfe9188fe41b8179	-0.7842483000968478
250	0x3fe0d118166a0616	0.5255241811539146
251	0x3fac10d1b556aa0a	0.0548158201084626
252	0xbfe0869de6660652	-0.5164327144595495
253	0xbf9e7854cd4c221f	-0.029755902319296475
254	0x3feef4b083166f96	0.9673693237596008
255	0x3fd750e3cb58d507	0.36431212289910814

topology.convs.0.nn.0.bias f8 [32]
0	0x3fa00c51a3ca86d8	0.03134398579028436
1	0x3fb738eba3b4086c	0.0907122873941561
2	0xbfc39e8a62b51a54	-0.15327577418993832
3	0x3f9839b5d14fdf05	0.023657647037878444
4	0xbfc256e07ad0d04c	-0.14327627179011626
5	0xbfc1bfbf87c9dfa3	-0.1386641896276589
6	0xbfc592e71544f945	-0.1685456136564857
7	0x3f98867f5b1d328b	0.02395056718460124
8	0x3faa086044f4c5dd	0.05084515420675093
9	0xbef4026ea6f23383	-1.908254710918405e-05
10	0xbf93f17d6872c179	-0.019475898265854028
11	0xbfc1952fe62db27d	-0.13736532916245273
12	0xbfc266ea5e7ea8a4	-0.14376573194505682
13	0xbfc132a1aa1c61d1	-0.13435765081591325
14	0xbfbb24bca9931f98	-0.10602931156165452
15	0xbfc4bbf8f4543bff	-0.1619864647877591
16	0xbf95c2cc120ab217	-0.021250904656584604
17	0x3fbee718ba46eefc	0.1207137541559255
18	0xbfbc11c26cc95569	-0.10964598804397031
19	0xbfc504bdb0a06623	-0.1642071831163757
20	0x3fc56a7a81981e0b	0.16731196716158112
21	0x3f9916bda9914b4c	0.02450081202944014
22	0xbfc1be6d885c2cf7	-0.13862389715391263
23	0x3fbca89ca73d1826	0.11194781382536742
24	0xbfa9d45e53dcadb9	-0.050448367821754166
25	0xbf91b96eb9a8125e	-0.017308931428504308
26	0x3fb18ccc9f3a473f	0.06855467688936033
27	0x3fb37370786dee59	0.07598021450206129
28	0xbfa194e9836d45fb	-0.034339234631840264
29	0x3fc046e94de28e34	0.12716404250123647
30	0xbfc1692ff1b146fe	-0.13602256108656968
31	0xbf916e2fcd8f6cb1	-0.01702189151897632

topology.convs.0.nn.1.weight f8 [32]
0	0x3ff20ea71d452b2f	1.1285773414007954
1	0x3fe27d0d54203aa5	0.5777651446422466
2	0x3fe82f19b70a92b5	0.7557495665574466
3	0x3fee430403c11b47	0.9456806252791033
4	0x3fe79ee68d621cec	0.7381470452682186
5	0x3febe80f51e09e04	0.8720776175659357
6	0x3ff83f51749f5810	1.5154585414470638
7	0x3ffb3a0fc8b08943	1.7016752089917453
8	0x3fe36908f467a6f5	0.6065716527493509
9	0x3fdab9d2c6e41c17	0.41759175703958945
10	0x3fedf7c686b04507	0.9364960318218046
11	0x3fc5cd1a493e39ba	0.1703217370636148
12	0x3ff45f1319e64f09	1.2732115756707023
13	0x3ffdc3b7bcea8860	1.8602826480423786
14	0x3ff33df84f03e459	1.2026293837100381
15	0x3fef0a8c2dec1291	0.9700375458638338
16	0x3fe5bca4b8866ef7	0.6792777637487849
17	0x3fede0e84a44eaa7	0.9337045145578785
18	0x3ff7f003f6412607	1.4960975283923987
19	0x3ff25c1f96ecac24	1.1474910636413904
20	0x3ff55c3e7eadf638	1.335020537225672
21	0x3fe6126faad5879e	0.6897505127528694
22	0x3fefb0d3b5849184	0.9903353257437151
23	0x3ff6816d3e1a58a1	1.4065983224768746
24	0x3fe58afbf9739e98	0.6732158538915938
25	0x3ff814d773bdfd54	1.5050882836511237
26	0x3ff8f7e33d1de042	1.5605194461222855
27	0x3fe9f6cf7bff40dc	0.811378233129314
28	0x3ff6823c219addfe	1.406795626897178
29	0x3ff3192ad1151654	1.1936443488388209
30	0x3fec402ef9ea276a	0.8828349000116138
31	0x3ff3346b13d4902e	1.2002974295255728

topology.convs.0.nn.1.bias f8 [32]
0	0x3fd4a50df1b0ae95	0.32257412531428403
1	0xbfd406d0d303cec1	-0.31291599852486846
2	0xbfc6551a3a5cdb1a	-0.17447212075941182
3	0xbfd11e61c6824e53	-0.2674793661655929
4	0xbfd04d538ff81cc1	-0.25471962985507096
5	0xbfd140de8303e897	-0.26958430094203706
6	0xbfb6b9092ce55973	-0.08876092287150587
7	0x3fd007fb0c6a3534	0.2504871007193572
8	0xbfe2fdacfc675cc6	-0.593466275192349
9	0xbfe42e07d90aa900	-0.6306189765066677
10	0xbfdfd86d53e42d14	-0.49758465950499553
11	0xbfe72e13fa4bb7d1	-0.7243747604932144
12	0xbf7d9d20307a089b	-0.007229924907394071
13	0x3fd893426958974a	0.3839880017061331
14	0xbfd79556174a1ab0	-0.36848976396906163
15	0xbfdfdc49894ca539	-0.4978202668013015
16	0xbfd6eb878dcd9b48	-0.35812558029140407
17	0xbfc70fd72e46c757	-0.1801709152182933
18	0x3fdc10642adceef3	0.4385004442772093
19	0x3fc90dca067f2276	0.1957333118173385
20	0x3fb23839e325b4db	0.07117044253910214
21	0xbfdb4bd553c4893e	-0.4265034978908665
22	0xbfa8f9e9211cb966	-0.04878166703416546
23	0xbfcb49545cdc1be1	-0.21317534002466146
24	0xbfd4d8eed5efc0bf	-0.3257405366157506
25	0xbfd9c3a3070e1c5d	-0.40256572426773635
26	0x3fd6851658212d10	0.3518730030670705
27	0xbfd87c8105c58e3f	-0.38259912074702024
28	0xbfce9cbc8bd58313	-0.23915821864923056
29	0xbfd97e6e5cc19379	-0.39834174211710366
30	0xbfd3b51c0eccffaa	-0.30792905278576177
31	0x3fca8b8596c06e15	0.2073828683941065

topology.convs.0.nn.1.running_mean f8 [32]
0	0x3fe5084b6d2bf33f	0.6572625286349661
1	0x3f3bc80d3d9a4695	0.00042391131646821986
2	0xbfd6f4b047ecb226	-0.3586846067799193
3	0xbff016c1cc7c5c94	-1.0055559146619872
4	0x3fe955dc145bf1f5	0.7917309186591966
5	0xbfe14e5911005d44	-0.5408139545496984
6	0xbfe7bcd5886c0d0d	-0.7418010391706119
7	0xbfe225a596a8bd33	-0.5670955603181141
8	0xbfcd79577e473555	-0.2302655569641653
9	0x3fc10aa63d5010ad	0.1331374930742916
10	0x3fde2817411ffdad	0.471196950529669
11	0x3fe03df393821aca	0.5075624352474162
12	0xbfe5528ac1d97fd8	-0.6663259302258622
13	0xbfa8a159f1e90557	-0.04810601308828193
14	0xbfa7e7bf8e724bc1	-0.04668997396324626
15	0xbfed530b9310f3a4	-0.9163873550784172
16	0x3fd87168066258e4	0.38192177413419715
17	0xbfe32386a1e3c184	-0.5980866586597107
18	0xbfd59ecb62f307c7	-0.3378170458128093
19	0xbfc38a12e5d23c39	-0.1526511785673124
20	0xbfd293ef60cf005e	-0.29027924016918927
21	0x3fdab7db6eaa39df	0.41747175032733524
22	0x3f902e52b1a93d09	0.01580170831067299
23	0xbfc952dc433ccb79	-0.19784119875984255
24	0xbfec4c219ca58728	-0.8842933711532384
25	0xbfdc8ecae4399fc1	-0.44621536529166056
26	0xbfeb0f969849dee9	-0.8456528639207735
27	0xbfd3183f19fbccf5	-0.29835488831959306
28	0xbfe466333f3a2b88	-0.6374756083399555
29	0xbfd5464cccab450d	-0.3324157713623926
30	0xbfe0131e3f5516f5	-0.5023337590179994
31	0xbfd378b588a64ad9	-0.30424249977765566

topology.convs.0.nn.1.running_var f8 [32]
0	0x3f91fcbfb352c767	0.017565722770718575
1	0x3f98643702d04b18	0.023819789454203905
2	0x3f6297aaefa095c3	0.0022695864290820113
3	0x3fa137710ae95b95	0.03362611063192059
4	0x3f9716daf443bc5d	0.022548123511054608
5	0x3f943f0928c736d3	0.01977171241178761
6	0x3f962a57606d93c9	0.021645894299030553
7	0x3f926495a66e000b	0.017961824687063237
8	0x3f8e39d15f5f0975	0.014758716319083412
9	0x3f8058df1be1616f	0.007982008970586844
10	0x3f92443e1bc2458e	0.017838449901835633
11	0x3f964961dd5143ba	0.02176430619539691
12	0x3f816c2fc49aa9d9	0.008507130801565775
13	0x3f98761b2e142bd6	0.023888039290834794
14	0x3f8332cadf8c0cee	0.009374222704997295
15	0x3f9997ba629692ae	0.02499285914167853
16	0x3f803773b1e56fff	0.007918266169035347
17	0x3fa7931a85eb1bfd	0.04604418644662898
18	0x3f7976c3167246b8	0.006216775952582125
19	0x3f92142ce12f4f6d	0.017655087703885842
20	0x3f9dc1c57c252007	0.029059491827212038
21	0x3f85aa491257fe0a	0.01057869994383422
22	0x3f90010cdb7b7fa7	0.01562900628675803
23	0x3f92519f2b104bf9	0.017889487269780322
24	0x3f914a37f75cbdd7	0.016884684059901147
25	0x3f97734973eeb4f5	0.022900722218470688
26	0x3fa338569f797f59	0.03753920265876216
27	0x3f7368b34f45f601	0.0047385219844477975
28	0x3f863fca6a914c32	0.010863858582672224
29	0x3f7d7ba5ddc893c6	0.0071979979661919765
30	0x3f80669e3f38848c	0.008008228592247833
31	0x3f4e537a46fc4ab0	0.0009254786545816653

topology.convs.0.nn.4.weight f8 [32, 32]
0	0x3fd65b209121fce1	0.3493119637787015
1	0xbfce7cd27d434b66	-0.2381842719683746
2	0xbfe0fd9f534876bc	-0.5309597612974453
3	0xbfdd567e5502b98d	-0.45840414335079843
4	0xbfc2e22dd9aaa256	-0.1475274384331608
5	0xbfe1c923aeda70a2	-0.555803147802653
6	0xbfcf073808695411	-0.24240780268397136
7	0xbfe173c77b6db4a8	-0.5453832064355497
8	0xbfc9825d2bf5d5d8	-0.19929089209078543
9	0xbfa9061126bf8008	-0.04887441251753449
10	0xbfc2ee8c88cea040	-0.14790493660007265
11	0xbfc9e24b4741895f	-0.2022184465341281
12	0xbfe6bf3e6d4456c7	-0.7108451971168613
13	0xbfab6d3f4b206b43	-0.05356786529610826
14	0x3fd7d58e89ba349c	0.3724094719880868
15	0xbfd39e7edfe59133	-0.3065488039485615
16	0xbfce8929cc787e56	-0.2385608909980756
17	0xbfd9654b45a759e0	-0.3968074970447599
18	0x3fe1d411d589bd1e	0.5571374102272875
19	0xbfcba5c3955fb25c	-0.21599621575969052
20	0xbfc9a2f63c98e523	-0.20028570135927123
21	0xbfd456d1756243ae	-0.31779896224275717
22	0x3fda07be7c462557	0.4067226613629677
23	0xbfd3a8f949eb1056	-0.3071883413179014
24	0xbfc0eaf12aa283c4	-0.13216986257341834
25	0xbfdeee8ea9176fd8	-0.48331038010451044
26	0x3f99c40212049b23	0.025161774015170068
27	0xbfb078339831563f	-0.06433412995951303
28	0xbfdbaab28e37e661	-0.4322935475207484
29	0xbfbbdc8e0f13a187	-0.10883415096362202
30	0xbfd4232ff442fe46	-0.314647663628396
31	0x3fd825d13d33ef56	0.37730818726389737
32	0xbfb815fb95c8026a	-0.09408543020982454
33	0x3fc8cf186211212c	0.1938200453607889
34	0x3fd1bfb2c931649d	0.27732534072635834
35	0x3fd5010bf0e471f7	0.32818888210911673
36	0x3fd1e621cc971205	0.27967114429000645
37	0x3fc304edf9279c93	0.1485879389358372
38	0x3fe037b680b1e164	0.5068008912631226
39	0x3fd535e2958a0cc6	0.33141388514941317
40	0xbfd2855021699afc	-0.2893867803854133
41	0x3fcdfcfc7e3891b0	0.23428302920468758
42	0x3faf6c16d4edf6df	0.06137153004872941
43	0x3fd1c239ef215dd5	0.27747963287899086
44	0x3fde1a33bc4babd6	0.47034924877396855
45	0x3fd6c5b693c4a994	0.35581745558251865
46	0xbfd5460aaab6b2c6	-0.33240000411278137
47	0x3fd590d5ad46fe32	0.3369650070344249
48	0xbf549d522321f489	-0.0012582113381818547
49	0x3fd41fedfbc047de	0.3144488295084765
50	0xbfcbf1e5e3e1e940	-0.2183196413714743
51	0xbfc8d3f93850aa9f	-0.19396891832123672
52	0xbfc716824418853e	-0.18037441563596163
53	0xbfde26a65e01b219	-0.47110900097212177
54	0xbfc7aa4a9ade47eb	-0.18488438188484166
55	0x3fce27e58d24289b	0.23559255019819578
56	0x3fd5673dbf85d549	0.3344263429965691
57	0x3fd992119ec728bc	0.39954033380184817
58	0x3fd7187c51d4d12a	0.36086948386516104
59	0x3fd3aae559052df0	0.3073056573236661
60	0x3fe15007c8b054c7	0.5410193366721153
61	0x3fc2da4b5e01106c	0.147286816502063
62	0x3f8d0b4e93c258c4	0.014181722530605241
63	0xbfdb2bee1505edb6	-0.4245562749199182
64	0x3fd6491e81abe8e0	0.3482128397296389
65	0xbfd6eb665eb12079	-0.3581176686025241
66	0xbfc2f79a02f88f8e	-0.14818120141091778
67	0xbfca5b966a407f92	-0.20592003048022584
68	0x3fab6ddde034245e	0.05357259141789748
69	0xbfd74733ae0f032e	-0.36372081754602703
70	0xbfdb753cbf36c084	-0.4290305964777945
71	0xbfd81fcf6b54b444	-0.37694154244929146
72	0xbfd43e2013e64cc2	-0.3162918276149861
73	0xbfd06402b2d30ad6	-0.256104159005344
74	0xbfd97d338beebd64	-0.3982666842011524
75	0xbfd4e925fc4fa3f7	-0.32673024787669597
76	0xbfc4a4fd600a3915	-0.16128508748483542
77	0x3f971cdc76b1f0ac	0.022571034187863034
78	0xbfdd2babf369ed15	-0.4557905079925189
79	0xbfd5f03cbd541f3d	-0.34278791894074684
80	0xbfd28a76d0f4dd88	-0.2897011795607445
81	0xbfd6487fd2068619	-0.3481750060110201
82	0x3fe11e4125cf6b92	0.5349431742173343
83	0xbfc845004f2677fe	-0.1896057497478409
84	0xbfe0be21ae2dd2e8	-0.5232094194348891
85	0xbfe33e4f16a64fd7	-0.6013560716987695
86	0x3fb9b691f91e4fb9	0.10044205028526577
87	0xbfdbda42f8b41d41	-0.4351966313119711
88	0xbfd8eac21fb83237	-0.3893285093079472
89	0xbfd88b0b1f04b338	-0.3834865382112187
90	0xbfd3b20a323f988a	-0.3077416887957801
91	0xbfdd076ec59f80fa	-0.45357865618826987
92	0xbfbd4134ec5721f1	-0.11427622575786935
93	0xbfd38e056f796430	-0.3055432880988205
94	0x3fd3b38ea11b1078	0.3078342984483764
95	0x3fc9e146944a5989	0.20218736878150548
96	0xbfd0ac7947bea1d0	-0.26052696234048955
97	0xbfcb6a7267d6bca8	-0.2141860014939756
98	0x3fd12035ffc9db90	0.2675909994063028
99	0x3fd90011e8da42b7	0.3906292699767095
100	0xbfd4cc1b019190c6	-0.3249576106375226
101	0x3fe21c369286389a	0.5659439908793218
102	0x3fd99d948940ddef	0.40024293330813426
103	0x3fbc75952946506b	0.11116916902239075
104	0x3fb6c99d8d28d923	0.0890139073970642
105	0x3fd7dba79872944b	0.37278165709932826
106	0x3fd903656740c10e	0.39083228190703856
107	0xbfc21a744ac948c7	-0.14143232013390714
108	0xbfdf86193e0e5a14	-0.49255972919618896
109	0xbfdfcf4fa5c6e951	-0.49702826680335926
110	0xbfd12c7f8fa4776e	-0.2683409598119998
111	0x3fcfd3d93a269db3	0.2486526044788043
112	0x3fd3a48abd3ce81d	0.3069178436304599
113	0x3fdff2973bd4ea50	0.4991815647405575
114	0x3fc9b3b4664fd8a9	0.20079665179918507
115	0xbfd8bc5baa8e5b18	-0.38649646430842344
116	0x3fa5dd1712a38b7b	0.042702408814668545
117	0x3fda55566dee84fb	0.4114585946609421
118	0xbfd072e3548b47a9	-0.25701220756774973
119	0x3fe743c0b959573d	0.7270206089112673
120	0x3fd18791e6816c05	0.2738995314627462
121	0x3fe67a23c534dd52	0.7024096347512716
122	0x3fe236a6862c8ebb	0.5691712017619105
123	0x3fddbe6fbe84712e	0.46474832158289103
124	0xbfdcb113baf0e3ad	-0.4483079267116022
125	0xbfc27bdc44ea3200	-0.1444049202440425
126	0xbfc2078e80279e1e	-0.14085561044270006
127	0xbfcdc10180e095c9	-0.23245257180057724
128	0xbfdcf186479badb0	-0.45224148743610737
129	0x3fd5ec546c81c70a	0.34254942509061037
130	0xbfd2ba651f288187	-0.2926266483573489
131	0x3faa13087bf528be	0.05092646134524291
132	0xbfb5e67427faa02c	-0.08554769493150677
133	0x3f95e29254ecadd0	0.021372114594823632
134	0x3fc435ca577a5122	0.15789155265213944
135	0x3fd780685e0f57b9	0.3672123831323649
136	0xbfdd50b85a646d59	-0.4580517657029382
137	0x3f8408b54cffba53	0.009782234585114546
138	0x3fd69beb90672608	0.3532666120705419
139	0xbfcca47e326e5661	-0.22376992666675036
140	0x3fdcfa1744536de1	0.4527643363232681
141	0x3fd68213e823d2ba	0.3516893164626641
142	0xbfe0b4fdee6680d9	-0.5220937401063807
143	0xbf8ca286ebcc87db	-0.013981870718968217
144	0xbfc2d879572e420f	-0.14723126179571053
145	0x3fd9f55a190baa32	0.4056000942788699
146	0xbfd296b66ae8a5c6	-0.29044876518545626
147	0xbfc9bb6234d6f00f	-0.20103099422510737
148	0xbfdef932fb914730	-0.48395990912568987
149	0xbfcf4fe39a3629da	-0.24462552099096407
150	0x3fc3b88156550cf4	0.1540681525749289
151	0x3fd07728ec139921	0.25727294020033936
152	0xbfdbafd2663112f4	-0.43260631541879424
153	0x3fcad76f83f0b0ee	0.2096995729674584
154	0x3fd201ef86c65ef1	0.2813681427155493
155	0x3fd53a64d18fd0ce	0.3316890760900265
156	0x3fe141018f04af7e	0.5391853135420062
157	0x3fe01d8f589b1f7e	0.5036083918175647
158	0x3fd2c81e79e6e7da	0.2934642973374345
159	0x3fa8d6b1445a02db	0.04851297339792434
160	0xbf74f96972d98457	-0.005120670231549238
161	0x3fc428bf9f821e76	0.15749354637613394
162	0xbf93bf20998330ab	-0.019283780450493875
163	0xbfd2eea81f6453f0	-0.2958164507447796
164	0x3fd8082408176f4e	0.3754968718546835
165	0xbfdde95cbfed2371	-0.4673683046608437
166	0xbfd549eed57e1b6e	-0.3326375088585597
167	0xbfdfd91b4fad033c	-0.49762614041178543
168	0xbfdf7bd4f66f0d0d	-0.491933098466874
169	0xbfe2e10ba90ef1d3	-0.5899713804170069
170	0x3fbb8ba8ca433c51	0.10759978235295022
171	0x3fdc7d0551acd043	0.445130662689966
172	0xbfd0462eb81f0652	-0.25428359966835956
173	0xbfbb9e4d00283c8c	-0.1078842282661176
174	0x3fcdea003666c9be	0.2337036386139299
175	0xbfd5bf6bacdf6006	-0.33980838663183055
176	0x3f91ae3e32f19c24	0.01726624666153155
177	0xbfd2ae1ebb407f1c	-0.2918774441368315
178	0x3fb413dc7d681832	0.07842805921254195
179	0x3fcdfd857c266322	0.23429935991296086
180	0x3fbeb8c3c7d4321a	0.12000678661952016
181	0x3fd009874004a242	0.2505815625359312
182	0x3fa8ac79560227c2	0.04819087195308171
183	0xbfdc3ac16f8d37f3	-0.4410861577388225
184	0x3fc13560f99c67f1	0.1344414919665833
185	0xbfc678faff418365	-0.17556703056018388
186	0xbfe04ed00eb34061	-0.5096206938851645
187	0xbf835a330392f456	-0.009449385210581845
188	0xbf921ff909a151b4	-0.01770009156492032
189	0xbfdbe1689834f0f6	-0.43563284744210706
190	0x3fd670429bc9c69f	0.3506018182152761
191	0x3fd43938051ea79b	0.31599236011481374
192	0xbfdec8d25a69e968	-0.4810071833559477
193	0x3fba06da5beea80f	0.10166706795158141
194	0xbfc6636a9f50980d	-0.1749089506058116
195	0x3fd477ec7e3e290f	0.31981956795120053
196	0xbfd668dce185eaf8	-0.3501503183721719
197	0x3fd5cf55eaff8ce0	0.34077976178214264
198	0x3fdcb15f3b611ded	0.44832592772260577
199	0x3fe1bc0b936a2994	0.5542047385400104
200	0xbfd01fbaf1d06fde	-0.2519366609064927
201	0xbfdada840de64c70	-0.41958714825995624
202	0x3fd0add4c1da797c	0.2606098073100822
203	0xbfe1af42cfc0824c	-0.5526441629081744
204	0x3fddd89c39a7730b	0.4663458407429039
205	0xbfbf4bd54a71773f	-0.12225087230168884
206	0xbfdd9dad405fe018	-0.4627488258988719
207	0x3fd8533be3d88815	0.3800801968628787
208	0x3fcc69ee59243a5b	0.22198275902379092
209	0x3fd61dd86989e4f7	0.34557161623486315
210	0xbfd40438ef255f92	-0.3127577147874884
211	0xbfacabdf5d7b9332	-0.05599878326555653
212	0xbfda68ff49e475ea	-0.4126585218053537
213	0xbfcfb7c66acb848c	-0.24779586996649916
214	0xbfd587fe9c55b534	-0.3364254500109667
215	0x3fd95cb63e015999	0.39628368430330735
216	0xbfe2c808733bc186	-0.5869180918362396
217	0x3fd772cf882ce2fa	0.36638248728154077
218	0x3fe758b8abd93abe	0.7295802456299822
219	0x3fa42b13c3a4f853	0.03939115298497655
220	0x3fb8210c6913cb88	0.09425427976002088
221	0x3fdb4c2f489cd53f	0.42652494517399825
222	0x3fd1764832cb9540	0.2728443618819547
223	0xbfc250f896e886e0	-0.14309604042596558
224	0x3fdb35bc119a2094	0.42515470236731656
225	0xbfd098c88a2e9cad	-0.25932515615790913
226	0xbfd578acd951485f	-0.3354904291383089
227	0xbfe2cd8865fc9848	-0.5875894538810451
228	0xbf9786e2b3306e1c	-0.022975485026206596
229	0xbfdf19da608c0eee	-0.4859529440729905
230	0xbfd8b9f95f80689a	-0.38635095907523864
231	0xbfdeb6f1bf280827	-0.47991603534331023
232	0x3fb110de64fb2008	0.06666364636760147
233	0x3fd3fd2761d494c7	0.31232628396749046
234	0xbfc99e87711cc555	-0.20015042326989865
235	0xbfcb0c3cd379ed1a	-0.2113109619711871
236	0xbfddbe6041d349aa	-0.46474462917572146
237	0x3fb897737bba6bdf	0.09606096049030509
238	0x3fcce064f50184bd	0.22559797251873262
239	0xbfe076182d0d9a51	-0.514415824884802
240	0xbfc4770b54560d26	-0.1598829423711347
241	0xbfd3ee1a645f0ca3	-0.31140765954860167
242	0x3fdf70eea887b6d9	0.49126783807774427
243	0xbfb615161162082e	-0.08625924991977804
244	0xbfcd5f54de2fa1ce	-0.22947178696564524
245	0xbf98338b12b89708	-0.023634121911661615
246	0xbfc702535c8b80a2	-0.17975847262187467
247	0xbfd573edc0fb1fcd	-0.335200727899516
248	0xbfcd8619d3247340	-0.2306549340218229
249	0xbfe1570818cb9962	-0.541873978069628
250	0xbfda8344681cc0d5	-0.4142619148942804
251	0xbfb06acedb796322	-0.06412976129776074
252	0xbfdba92f6f1dcf67	-0.4322012505647223
253	0xbfd7b1b25c383e55	-0.37022074704961955
254	0xbfda7d23ef64991a	-0.4138879621335875
255	0x3fdc57751aa58e32	0.44283797838417904

topology.convs.0.nn.4.bias f8 [32]
0	0x3fa4afc41d7ac1c7	0.040403488730024466
1	0xbfb2d7565cbcc805	-0.07359828724000302
2	0xbf951f02e8e611fc	-0.020626111474046013
3	0xbfb21bf080a57771	-0.07073882237224695
4	0x3f977fc96ad59181	0.02294840540470622
5	0x3fc50171a486e1eb	0.16410656484164518
6	0xbf9569ff1549ce3f	-0.020912156748137397
7	0xbfc5be9adb50ec7e	-0.16987930020136227
8	0x3fc42ee9d92d1f5f	0.1576816854887921
9	0xbfc3933ba257299f	-0.15293069292813485
10	0x3fb116be40070d38	0.06675328314945694
11	0x3f9399cff794a0c1	0.01914143513309408
12	0x3fbeb0d47b385427	0.11988571174909222
13	0xbf900b2ed746f7b2	-0.015667659654120043
14	0x3fc3608395e81f20	0.15138287372268966
15	0x3fc0303f661ee15d	0.126472401488864
16	0xbfa28a09d20bf1d4	-0.03620939911886337
17	0xbfbe6ab0d1efc523	-0.1188154709377796
18	0x3fab96caeb05c694	0.053884831609036926
19	0x3fc3ef9ba5fc5797	0.15574975590487547
20	0xbf99d0db2ad65220	-0.02521078537900412
21	0xbfb5d6495ef815c5	-0.08530100411015613
22	0x3fc63aae375c81de	0.17366578772727242
23	0xbfc63c7a66dde9de	-0.17372064612193489
24	0x3fc397d29160a689	0.1530707559443736
25	0xbfc1f63bca175972	-0.14032695167288584
26	0xbf950d158d09e9df	-0.020557724698372467
27	0x3f9054401ad9695e	0.015946389807461762
28	0xbfb7fb4ab16cc24b	-0.0936781581083405
29	0xbfbb5954daf16dc4	-0.10683183999338214
30	0xbfa8b69c5bb17a35	-0.04826820964148163
31	0x3fc4d6c278c05987	0.16280394455015942
