src/models/mentor/results/3-channels/real-world/Kaggle/model_weights/9.ckpt (torch, 93655 bytes, 112 tensors)

topology.conv_GAT.att f8 [1, 1, 16]
0	0xbfcf85ef23d5d9ae	-0.24627484559796414
1	0xbfdee67ddf6ce1a8	-0.4828180963409303
2	0xbfc92c4575c65ae2	-0.19666355372165528
3	0x3feb9a001748e897	0.862548871496318
4	0xbfda031c6843bbc3	-0.40643987829292544
5	0x3ff13930127af313	1.0764618608365637
6	0x3fd4633b0aab1247	0.31855655710049685
7	0x3fdbde64b8d8b340	0.4354488186971146
8	0xbfc045f24df28f4b	-0.127134597835829
9	0xbff0037ee5f68879	-1.0008534415178743
10	0xbfbc361a72664be3	-0.1102005509658706
11	0xbfdea09f4ea71c06	-0.47855360680517867
12	0xbfcfae86365db87a	-0.24751355795473612
13	0xbfb5ed76a84b04f9	-0.0856546555396739
14	0x3fd3c71e21ff9372	0.30902818031454793
15	0x3fde4a488f604a8d	0.4732839012296289

topology.conv_GAT.bias f8 [16]
0	0x3fc6de25e5541455	0.17865441987683775
1	0xbfcadad0ba2c5098	-0.2098027142570842
2	0x3f77d7d079639aba	0.005821050979853021
3	0x3fdd4bb7493f3ea8	0.4577463355353566
4	0x3fb7478af069ac20	0.09093540543987944
5	0x3fc4aed49a01d06c	0.16158540267827293
6	0x3fd96cfd257d571d	0.39727715169043326
7	0xbfc0de32a6b29ba9	-0.13178094043288738
8	0x3fe1c7020b294809	0.5555429666512747
9	0xbfc476499486734b	-0.15985984565932151
10	0x3fdadcfe330a0c39	0.4197383402280966
11	0xbfd2a5dbf65e76f7	-0.2913732438990872
12	0xbfd16b33d7f200de	-0.2721681221810409
13	0x3fe5c2aced168f86	0.6800140982272616
14	0xbfcbca871559d81e	-0.21711815397765205
15	0x3fd433fd848d4304	0.3156732363177499

topology.conv_GAT.lin_l.weight f8 [16, 5]
0	0xbfc21cc4e6d08543	-0.1415029646896447
1	0x3fc4b2a2bd96654c	0.1617015290947087
2	0x3fca5e5f8a4149ee	0.20600504160627459
3	0x3fd30ccb51f47e82	0.2976558971731508
4	0x3fe82065c090da51	0.75395476923479
5	0xbfdee5964934803d	-0.48276288174566045
6	0xbfdf2df07c9e2bd0	-0.4871789185496569
7	0xbfe57913acddf80b	-0.671029889708508
8	0xbfcbb075374ed4e2	-0.21632256699164204
9	0xbfd6199cbbef3879	-0.34531324723219076
10	0xbfe29beaa47a9b84	-0.5815327846984109
11	0xbff100809b01152e	-1.062622647748252
12	0xbfe07637c40a673e	-0.5144308880728443
13	0xbfe407e401643c68	-0.6259632136515281
14	0xbff2fadcbea7c493	-1.1862456748461099
15	0x3fec5445f0d9d489	0.8852872566336752
16	0x3fefc96677af4318	0.993334993132609
17	0x3fdd1822b2b52211	0.454598116416066
18	0x3ff0f52429b17156	1.0598489407194243
19	0x3fcbfb4badb44a43	0.21860643369343977
20	0xbfea3caba042ff01	-0.8199060564147375
21	0xbfcceb49479d62ba	-0.22593036648574644
22	0x3fd3ce275aab2449	0.3094576249537267
23	0xbfe7a19f9eb3fe9d	-0.7384794330282208
24	0x3fcf17910b416974	0.24290669488511762
25	0x3fd1292fa9d29bdc	0.26813880523917333
26	0xbfd00bbb2766bc15	-0.25071600768836905
27	0x3fe102e3fc3f6191	0.531602852507648
28	0xbfd1dae12572a4a9	-0.27898434311880266
29	0x3ff7366dcac6df0b	1.4507882996530863
30	0x3fe8ac2f9d9b7e97	0.7710187986630953
31	0x3fef26090b3f9619	0.9733929843611718
32	0x3fdcafdf868ff865	0.4482344450078755
33	0x3fb6b305f205cc86	0.08866917761570123
34	0x3fb038e4fd3720db	0.06336814100280057
35	0x3fd9e2fe857f3b80	0.4044796279603631
36	0x3fce2f8ab8cb0179	0.23582586310477519
37	0xbfd536293d904816	-0.33143073093481357
38	0x3fbdc35456173219	0.11626174070188035
39	0xbfceed160f3e50b9	-0.24161029571826534
40	0xbfc94ba6c1dc8e18	-0.19762119737525619
41	0xbfe2dce698ebf636	-0.5894654261352972
42	0x3fd4061188bf39f9	0.31287039140889267
43	0xbfd2f41bbdfc8a3c	-0.29614919236533743
44	0xbfd1d4a24aac8517	-0.27860314648030865
45	0xbfe0d9c1fc6dc473	-0.5265817575692736
46	0x3fb10754a971b83e	0.06651810776540487
47	0x3fe868846d344f6b	0.7627584584138111
48	0xbfca5aa468a04580	-0.20589118107504234
49	0xbfe08d3808587754	-0.5172386324881963
50	0x3fcd328bde889cf3	0.2281050526228011
51	0xbfd6fcc22d1fee08	-0.35917715460502153
52	0x3fc54c4a11b9d63d	0.16639066567920394
53	0xbfd4f1dfec71e369	-0.32726286020584056
54	0x3fb8a2aeb6ceb63d	0.09623233759949641
55	0xbfea43685b22b2b6	-0.8207284717551235
56	0xbfe3d19c8abd712b	-0.6193373403325827
57	0xbff058ae9b22ee6a	-1.0216508922593683
58	0xbfd2959c12ccd954	-0.2903814490886323
59	0xbfd98deab0d0b21f	-0.39928691165076374
60	0x3fb429f4dd77c0b9	0.0787652054493745
61	0xbff1f4583a9064f4	-1.1221544540078954
62	0xbfe21e5d448a65d3	-0.5662065828975592
63	0xbfe2941c20c2e8b9	-0.5805798187132246
64	0xbff09a53ad1691b7	-1.0376774560219084
65	0x3fe68f2541e4beb9	0.7049738203986272
66	0xbfbab12b9e10d5c7	-0.10426590546634094
67	0x3fe18cc35df40ece	0.5484330019976029
68	0xbfe28393609ec253	-0.5785614859688145
69	0x3ff323e7b927a687	1.1962659103977857
70	0x3f8bfe45564a0d10	0.013668576904143609
71	0xbfe59e6978f2d990	-0.6755874025609945
72	0xbfc20fb2ba0558fe	-0.14110406954814175
73	0xbfe927482cc65e87	-0.7860451578626034
74	0xbfe6094ffaf4f6ab	-0.6886367703916297
75	0x3feb4c45ce09017b	0.8530606292843425
76	0x3fd55eab6577d879	0.33390316876410214
77	0xbfd5682881ac3959	-0.3344823137603235
78	0x3fc279f3a51785de	0.14434667168738619
79	0xbfc59a5b73679f0e	-0.16877310881613322

topology.conv_GAT.lin_l.bias f8 [16]
0	0xbfc7e81c50688aeb	-0.18677095342817238
1	0xbfe143b4adbd68bd	-0.5395148652417202
2	0xbf7bca91519e7d41	-0.006784980441721545
3	0x3fd8935cf7de5ed2	0.38399433332368205
4	0x3fc361ff136f8ab9	0.15142811249741842
5	0xbfe30a148c026593	-0.5949805006559238
6	0x3fdf774948311c92	0.49165565538391676
7	0x3fc6ad126db43980	0.17715673786774389
8	0xbfe3f3d85b3818da	-0.6235162526725404
9	0x3fd2f401a3144585	0.29614296842290627
10	0x3fd1cd8d573cb7c6	0.2781709052968576
11	0x3fb04f67e18efbe1	0.06371163613128729
12	0xbfe574781dc03e35	-0.6704674321244456
13	0x3fd523632b68447c	0.3302848743342748
14	0x3fc1804fe9356a24	0.13672827613011507
15	0x3fe794d4e41cae72	0.7369179206193179

topology.conv_GAT.lin_r.weight f8 [16, 5]
0	0xbff186ee7c7580eb	-1.095442281883204
1	0xbffa4fc2791f28f4	-1.6444725734059462
2	0xbf85fe8d1e15d319	-0.010739424210194625
3	0xbfe4f5aac7e4a6ac	-0.6549886612094347
4	0x3fe8483aef0b3e7e	0.7588171643091781
5	0xbfcb430f9bcf8224	-0.2129840384286733
6	0xbfc3d225129d6dbf	-0.15485061081822768
7	0xbfc1092cf6c0237d	-0.13309251831404004
8	0xbfda64964c790571	-0.41238934963265367
9	0xbfdc60efe417d664	-0.4434165694686725
10	0xbfed0aab56fb8f33	-0.9075524042968709
11	0xbfec977c670f4761	-0.8934919369587356
12	0x3f9bb290ddd08927	0.027048362291801766
13	0xbfa74516c84501c9	-0.04544898218819388
14	0xbfc325b32c57f6df	-0.14958800950255743
15	0x3feeb99c1f8ce2a7	0.9601574531762552
16	0x3fdaceaba42dbe01	0.41886416466783777
17	0x3fc4fb9f89c6fa0f	0.1639289305439466
18	0x3fe724619e7a103b	0.7231910796404074
19	0x3fd6063da9b40d90	0.3441309125193692
20	0x3feb979b520caba3	0.8622566797761134
21	0x3fdef4247982f59f	0.4836512743603069
22	0x3faa8f51c2b82de7	0.05187469007440964
23	0x3fe5cd0ae1c92178	0.6812796029926593
24	0x3fc6b89265960901	0.17750768623597682
25	0xbfe080cef8c98430	-0.5157236918568113
26	0xbfd491d64ef48acc	-0.3214011927649778
27	0xbff1959caa1e2aba	-1.0990263600566963
28	0xbff0c7bb69290528	-1.048762713224571
29	0xbfed7ac667c47630	-0.9212371851642214
30	0x3fe8953f55d3a7ac	0.7682186771682971
31	0x3fce7a06486e397a	0.23809889351509722
32	0x3fdecdad0023ca5a	0.4813034535756394
33	0x3fbc08075fac246b	0.10949750982048705
34	0x3fe0b877d32d5397	0.5225180744697465
35	0xbfacb5eb398438b4	-0.05607543065171808
36	0x3fe40a8f0f25839e	0.6262889190512515
37	0x3fda99526d6e8cb1	0.415608031146074
38	0x3fcbcf80da709b16	0.2172699991799269
39	0x3fddc9cc05eb2562	0.46544170930845585
40	0xbfc52954821295d7	-0.1653237948532211
41	0xbfc7d65daa6a3ddd	-0.1862294275383495
42	0xbfee542c09332e05	-0.9477749042211491
43	0xbfe4223a3d8153d1	-0.6291781617425106
44	0xbfe4e196a96e5810	-0.6525376614761189
45	0xbfdcb620f1f9176f	-0.44861625318696147
46	0xbfd2e13169fa040a	-0.2949946913650484
47	0x3ff24b77c369f298	1.1434247620920015
48	0xbff0ce9105d55677	-1.0504312732568033
49	0xbfe5cd4efc179753	-0.6813120769190654
50	0x3fe755c316b70537	0.7292190021181914
51	0x3fe9249ba6121787	0.7857187503402522
52	0x3fe6268923c702fe	0.6922040652062547
53	0xbfbbf455c6541ba6	-0.10919700710301913
54	0x3fe08d2c1919d86a	0.5172329416516395
55	0xbff432f19641c193	-1.2624374265106766
56	0xbfeb15d21f2440ed	-0.8464136703715021
57	0xbfcab2ce1e8a1384	-0.20858170024089528
58	0xbfe00cec586d9494	-0.5015775420294113
59	0xbfadbe7d2480d58a	-0.05809393950077453
60	0xbfdbd158dbc69488	-0.43465253317328534
61	0xbfda1ea2a637fd8d	-0.40811983330055385
62	0xbfc057e44592cc2b	-0.12768224141254456
63	0x3fa1768f5bdafc71	0.034107665980166575
64	0x3fcd6f3012ee78ac	0.2299556820334535
65	0xbfe77e9846e4836f	-0.7342034706708612
66	0xbfec874ed4a6a2f7	-0.8915170815790522
67	0xbfdd894bba3b8284	-0.461504871242177
68	0x3fe11f83e4029eb3	0.535097070057381
69	0xbfe349331710f8e2	-0.6026854944718958
70	0xbfe5ddb1e3f85140	-0.6833123638666976
71	0x3fc37fcc9b128530	0.15233762332813106
72	0xbfbaefb3d6088097	-0.10522006965084284
73	0xbfdcdf9ce3501fc2	-0.4511482448438039
74	0xbfeb1a51cb202d18	-0.846962830285892
75	0x3fdcdc10b6198fdf	0.4509317186659682
76	0x3fc59caa133fada0	0.1688435167301181
77	0x3fdd6c97639db7ce	0.4597528908551539
78	0xbfe87defde20a681	-0.7653731668880966
79	0xbfc67c5973637c7b	-0.1756698430462825

topology.conv_GAT.lin_r.bias f8 [16]
0	0xbff0b17e5de8347e	-1.0433334034198931
1	0xbfca3073ca0cd388	-0.20460364690520927
2	0xbfe49defe469abfb	-0.6442794285952681
3	0x3fe2f0a55986c21e	0.5918757198870173
4	0x3ff3bdff651e1cc3	1.233886141768196
5	0xbfdbdcab5f685d93	-0.4353435928073505
6	0x3fe0580fb8eb7b03	0.5107496844974267
7	0x3fe43c4de8d450a7	0.6323613688896516
8	0xbfca7542de76239b	-0.20670352804543488
9	0x3fd3134640d42e99	0.2980514176458456
10	0x3fe2a81bbf97151a	0.5830210439677643
11	0x3fd8b3af09254d97	0.3859670247377038
12	0xbfd36dbc1ad5becd	-0.30357267971610896
13	0xbff45f3cdbadf4a4	-1.2732513982039473
14	0x3fe5b8439cd75f17	0.6787431777292764
15	0x3fba6a3d3daf309a	0.1031835818859598

topology.convs.0.eps f8 [1]
0	0xbfe970318c688ed5	-0.794945501551832

topology.convs.0.nn.0.weight f8 [16, 16]
0	0x3fd0780e3873577c	0.2573276091837824
1	0x3fe046d198fe4c8a	0.5086448658133957
2	0x3fe38148d28ec941	0.6095317947822779
3	0xbfe1f576e6eb854b	-0.5612139234691907
4	0xbfdae7ca5da2e0ec	-0.42039736885227685
5	0x3fcee04b0aae0e8c	0.2412198831699367
6	0xbfd93d4dd22a67b6	-0.3943666984938504
7	0xbfe1aebc33dde683	-0.552579976370183
8	0x3fdf109c26731529	0.48538879160726595
9	0xbfd811afc03b63e7	-0.37607949993758755
10	0xbfc951e46f198890	-0.19781165528099054
11	0x3fd5cec3507597ed	0.3407448087440333
12	0x3fe0e40539e16d3e	0.5278345232467598
13	0x3fdaf07c5987803a	0.4209280847844671
14	0xbfc2ceffd90688de	-0.14694212052297123
15	0x3fccda46c34ebec4	0.22541126762870622
16	0x3fbc81d22b08f27b	0.11135591078432043
17	0x3fe0bc807d3e55e1	0.5230104871904439
18	0x3fd2bc9dfab0d27b	0.292762274565838
19	0xbfca2307c0e737a4	-0.20419403952695092
20	0xbfe9aa4461de34f6	-0.8020345603451051
21	0xbfdfee2e96a80a28	-0.49891247475184963
22	0xbfdda82a298d4fa9	-0.4633889585286349
23	0xbfce563fbe90d5c3	-0.23700711064308963
24	0xbfe1655af8dbeaab	-0.5436224804428397
25	0xbfd71afaabdf96d2	-0.3610216787768482
26	0xbfe2d65fedef81f0	-0.5886687895945766
27	0x3fe492586fbaff10	0.6428644354091109
28	0xbfbecdb8f987a3b5	-0.12032657711064483
29	0xbff2fc8051941240	-1.186645811715735
30	0xbfd4cfc90f0a351d	-0.3251822134851226
31	0xbfc4ec0f1a9ec727	-0.16345394897285212
32	0xbfc0e7a8c1d52b6f	-0.13206967796790134
33	0x3fe2aec53bd2aeb9	0.5838342827241468
34	0x3fdb7a953e8e37a9	0.42935687169016973
35	0xbfcd0ee5de1554f8	-0.22701714843666543
36	0x3fbf8257ba003352	0.1230826214889025
37	0xbfef5582dce86d8d	-0.979188376866135
38	0xbfdfd780556226de	-0.4975281556913681
39	0x3fd845316aa8c838	0.3792232076258446
40	0x3fac73c3c3524490	0.05557071456235818
41	0xbfc1546b69a58f38	-0.13538878115206798
42	0x3fc8c28a0c3f621f	0.19343686674143698
43	0x3fd3eb9c3f73e292	0.31125551411199937
44	0x3fda460d6df45ab2	0.41052566278214464
45	0xbfe2aa26de0dd64e	-0.5832704865449132
46	0x3fe16d6167c48d66	0.5446021105494026
47	0x3fd22f9002fa454a	0.28415298739226513
48	0x3fe157fa43653a96	0.5419894520108126
49	0x3fe0e4be5c7dc08a	0.5279228025883793
50	0x3fd314c992c80ba1	0.2981437619602563
51	0xbfddf3ad43837387	-0.46799785225976404
52	0xbfd4de4a3842dd6e	-0.326067500059671
53	0xbfdaa3f4206f9eb3	-0.41625693481044407
54	0xbfe50fe5299c3fb2	-0.6581903279020394
55	0xbfd47d5e5248eca2	-0.3201518825114339
56	0xbfce87fb903eccc3	-0.23852486174800988
57	0xbfd96211c5fddc13	-0.396610682822428
58	0xbfe0f3c80311d757	-0.5297584590868877
59	0x3fdcf854b67826de	0.4526569158484629
60	0xbfa2c04e57468678	-0.03662342849135042
61	0xbfe2192a1d493f9f	-0.565571839522807
62	0xbfe1f1e318bec3c6	-0.5607772334388919
63	0xbfe2a5ac145d6694	-0.5827236554861934
64	0xbf8042706b23cc26	-0.007939222592972039
65	0xbff1af4f1405950c	-1.105300024233034
66	0x3f961466f3d1ea53	0.021562203055945094
67	0x3fea1e4769c81760	0.816196161846829
68	0x3fd5209d496ea643	0.3301156251060073
69	0x3fece16ad5198d3d	0.9025167619805995
70	0x3feba558599bea1a	0.8639337301422672
71	0x3fd9dae784c4adc6	0.4039858624043656
72	0x3fe1a24c071e3508	0.5510616435073254
73	0x3fd03ab07cb154c8	0.2535821168615482
74	0xbfd91e3b9d6c9ef5	-0.39247026799647183
75	0xbfc654df751b2193	-0.1744651147657917
76	0x3fa252ba08b1c974	0.03578740459569732
77	0x3fd17c190d2a8ff6	0.2731993321015119
78	0x3fc30de9ad06cb03	0.14886208485184946
79	0x3fd086d051a1fc1f	0.2582283780283791
80	0x3fd55e5e96e3828d	0.33388485655999817
81	0xbfdc75d97e47c9e9	-0.44469296772072525
82	0xbfe109aa8c114295	-0.5324299560252991
83	0x3fc4a16130821642	0.16117491596758
84	0x3fc8ce5c0192b70b	0.193797589080923
85	0x3fec8fae9cd85386	0.8925393164996513
86	0x3fc51d028697a4b2	0.16494781085865423
87	0xbfccfd2d977d601c	-0.22647638222656574
88	0x3fa2a3f01c0ba127	0.03640699713088429
89	0xbfa44e7dc2ddac52	-0.03966134074911366
90	0x3fceca215eec7ccd	0.24054352889013444
91	0xbfd7b2d75304cce1	-0.37029059512424395
92	0xbfe333ea3b437399	-0.600087276219358
93	0x3ff30b600fc5a518	1.1902771583648413
94	0xbfdcfde98717cda5	-0.45299757187532413
95	0xbfb3af6e599816d9	-0.07689561545711444
96	0x3fb41acc3be0d486	0.078533901804649
97	0x3fdece14d003638d	0.4813282042865062
98	0x3fd6d0d644bb22a9	0.3564963980866574
99	0xbfdaad9ea89602ce	-0.41684690917467726
100	0x3fe2ca9588a1654c	0.5872295063556208
101	0x3fc156e6e97e952e	0.13546453858467927
102	0xbfe7cfcf50104222	-0.7441174091091549
103	0xbfd7aeb9a2f9dd5a	-0.3700393764078932
104	0x3fb88813559b02e7	0.09582634773233743
105	0x3fd4229b8cf7d037	0.31461228147896086
106	0x3fa616c12196ab7a	0.04314235243813065
107	0x3fc94d637ea0f55f	0.1976742142013945
108	0x3fe64c1c689703d3	0.6967908900043035
109	0xbfb47e329effe4fb	-0.08005062467409012
110	0x3fde10980aec5f3e	0.46976281229716566
111	0xbfe3874e8cbbd20d	-0.6102669476227348
112	0xbfb51e24f91ede69	-0.08249121744199218
113	0x3fd9e6d052a7f764	0.40471275398146234
114	0x3fe14a33d92d6b21	0.5403079263445286
115	0xbfe5691e94d9b1e6	-0.6690819651826672
116	0xbf24e71579f01b9c	-0.00015947472726926266
117	0xbfe4062ad65a3be8	-0.6257528482982453
118	0xbfe2d5570b3c0843	-0.5885424823211526
119	0xbfdd942f15432dd9	-0.46216942860038795
120	0xbfd00efdd631f9c8	-0.25091501157285423
121	0x3fcf71eff2e3e77f	0.24566459045291464
122	0x3fe15561cc1704ad	0.5416726099139361
123	0x3fe7a5af5c6d32d0	0.7389752202230628
124	0xbfd032bee6bf707b	-0.25309727224317385
125	0x3fb75936bc09c177	0.09120504465841416
126	0xbfd01464ec14528e	-0.2512447648489705
127	0xbfd1984c252f6d83	-0.27492049819348824
128	0xbfdcf8479c1ba2d0	-0.452653791855977
129	0x3fc50b03bd747594	0.16439863920906517
130	0x3fe1fdc101727cbd	0.5622258213296828
131	0xbfc3ef818b8784bf	-0.15574664414365277
132	0xbfcc05861178ce54	-0.21891857007141147
133	0xbfe03adf33881331	-0.5071865087962576
134	0xbfa86960abdd26b9	-0.04767896745631845
135	0x3fe30bf42011fe57	0.5952091814396664
136	0x3fa58b19a61c16be	0.04207687523562019
137	0x3fb0fa46a2c92b43	0.06631890749228568
138	0x3fddc4c488dab480	0.4651347481220185
139	0x3fb447d807fa27f8	0.07922125048403916
140	0x3fe5a0c5f95e07a0	0.6758756514029649
141	0xbfda4ba8855fbb42	-0.41086781525421057
142	0x3fe7c9efd05de5da	0.7434004850066984
143	0x3fdf51733c271b6a	0.4893463218144719
144	0x3fc571c900001be5	0.1675349473955229
145	0x3fccb55207e4e50e	0.2242834604783543
146	0x3fe0c501d5d6e700	0.5240487267066953
147	0xbfdb298ea1f97df0	-0.42441144769506334
148	0xbfe2e2886a1a4704	-0.5901529381100947
149	0xbfdd48494e7cd16d	-0.4575370089035207
150	0xbfda5179639fbd44	-0.41122278908638443
151	0xbfbc36100be65406	-0.11019993105431078
152	0xbfdccc4d97e0de96	-0.44996967155337
153	0xbfdea21313640e46	-0.47864224332463257
154	0xbfd08d96c3646951	-0.2586419017913118
155	0x3fdf50da8c102c83	0.4893099181942448
156	0x3fe1e17961b566e4	0.5587736996050947
157	0xbfe6236df9d9bf1f	-0.6918249015707011
158	0xbfe3dad97d373ba5	-0.6204650350208466
159	0x3fce0884e395e071	0.2346349822289571
160	0xbfe1a58118453ec2	-0.5514531587632165
161	0x3fcf5cd8a8edfe98	0.24502094505804872
162	0x3fe2978412f4830c	0.5809955949990537
163	0xbfbe9275e8381218	-0.11942231101426903
164	0xbfd2788fa4cd4d3e	-0.2886084660905971
165	0xbfe379fe81f7dacd	-0.6086418665352881
166	0xbfb44afa0a367e64	-0.07926905392968703
167	0xbfa59b073b0e049a	-0.04219839664347909
168	0x3fb1ddd3a92f0f87	0.0697910583540403
169	0xbfe18aa2d6dddee9	-0.548173350965013
170	0xbfc185aa51112607	-0.13689164121960593
171	0x3fe77f98d8002126	0.7343258112678412
172	0x3fddbdc53927a8fb	0.4647076662210023
173	0xbfc76d51f69b9719	-0.18302368680377226
174	0x3fa4bc662da47660	0.04049987132223687
175	0x3fdf781e65705391	0.49170646577959426
176	0x3ff16e45e8cc6030	1.0894221395192396
177	0xbfe35c5d5deba16a	-0.6050249895461495
178	0xbfe7b8f756999a11	-0.7413288775831594
179	0x3fd59ee53b322216	0.3378232076725295
180	0xbfd79db183174b49	-0.36899984170775163
181	0x3fda1428b0100879	0.40748040383926526
182	0x3fd54605aa6f5576	0.3323988117602633
183	0xbfd1095a12d0f0e1	-0.26619579160229817
184	0xbfe17831bd86b930	-0.5459221555409268
185	0xbfd0e6c376250aad	-0.26408468759124554
186	0xbf9a1aef64c99417	-0.02549337437303131
187	0xbfe879039c4919f2	-0.7647722294285002
188	0xbff032497a4cec9a	-1.0122771050799089
189	0x3fec2a38a34261a9	0.8801539601000076
190	0xbfe7fa3fd8e25946	-0.7492980228442228
191	0x3fc703fd1f5a75b2	0.17980922728467658
192	0x3fe3ac2ae56d87b6	0.6147665482533202
193	0x3fb44fcca26ee20f	0.07934264150288349
194	0x3fe07a10712f6ca4	0.5149004183434909
195	0xbfe76439253ff906	-0.7309842803513511
196	0x3fbb2653f047e842	0.1060535871146451
197	0x3faac373c261fdcd	0.0522724318298021
198	0xbfe7102efd9be083	-0.7207255318926545
199	0xbfe328d4553ae858	-0.5987340607309859
200	0xbfd68e6f46ea66d0	-0.3524435226951086
201	0x3fb37ac4efa17c80	0.07609206056939577
202	0x3fdf3e26a6895328	0.48816839469263806
203	0x3fb4d9a1a35f1db1	0.08144579161227374
204	0xbfbd4a1981a2741b	-0.11441192068964805
205	0x3fb9bde9fcd3d424	0.10055410788102442
206	0x3fbf2cd841380985	0.12177802650697885
207	0xbfd073adaa4aee05	-0.25706044798036515
208	0x3fdf156f2ead198a	0.48568324621410197
209	0xbfd1518abb312f89	-0.27060192375642395
210	0xbfeccdf847f5ed7c	-0.9001428037148993
211	0x3fda72f676fe56b8	0.41326676960430175
212	0xbfd437dd566e048c	-0.31590970459371515
213	0x3fdce936919d26c2	0.45173420162300826
214	0x3fda94329664807c	0.415295264117965
215	0xbf91a3524151af8b	-0.01722458385158591
216	0xbfdc8f90f58c7d3c	-0.4462625883042681
217	0x3fb2bd8c5e86b109	0.0732047777916628
218	0xbfb14c2f3d067441	-0.06756873359559369
219	0xbfed8eb4a82002a6	-0.9236701282207676
220	0xbfe74f181390ab95	-0.7284050352221693
221	0x3fdda109a7e3d839	0.4629539622832258
222	0xbfe30ed4d619d96c	-0.5955604726466794
223	0x3f954e05c1656928	0.020805444649661414
224	0x3fd69cd7279f59d2	0.3533227812708023
225	0xbfe6f924b6246d63	-0.7179130132166559
226	0xbfd7652727eebc74	-0.3655488862959324
227	0x3fe9201f376c3282	0.7851711351846264
228	0x3fe0803a6c905513	0.5156528587710077
229	0x3feb12938de3fc8d	0.8460176249790422
230	0x3fe91a81d3562b06	0.7844857337634898
231	0x3fb8963d1c81b287	0.0960424608799234
232	0x3fe5e0790c1abdcc	0.6836514698424536
233	0x3fd4da3ef18eb621	0.325820670982326
234	0xbfd8e2717fbaceee	-0.38882100556951016
235	0xbfd35256a6db0505	-0.3019005422066388
236	0xbfe7fcb59691538b	-0.7495983067297954
237	0x3ff50bbea73d4070	1.3153673680099267
238	0xbfd239b4aff99cd1	-0.28477208314002406
239	0x3f94a23ab88974ff	0.020150105965844208
240	0x3fc4d0a21020cfcb	0.16261697566517194
241	0xbfe70bb48ffc7334	-0.7201788723210485
242	0xbfd55a11f76c12bf	-0.33362244760818877
243	0x3fe89fcaf6d25088	0.7695059605344037
244	0x3fe6710410873f4a	0.7012958834475083
245	0x3fe055421f1b6523	0.5104075057562664
246	0x3fdeaa8d0fa25c95	0.4791596081426602
247	0xbfbf27a586259817	-0.12169870877332332
248	0x3fd6542218098c7d	0.3488850817431695
249	0x3fc321b73f1f4941	0.14946642477168307
250	0xbfdf70fd44cae3be	-0.4912713214685559
251	0xbfeadc26d7a47c96	-0.8393739902275168
252	0xbfd493006fc12b4a	-0.32147227204830087
253	0x3fe7b7f4cb312c14	0.7412055939288416
254	0x3fc825d19ca24851	0.18865413807049206
255	0xbfc3894cf6253c67	-0.15262758272953933

topology.convs.0.nn.0.bias f8 [16]
0	0xbfcc364cb059e8bc	-0.22040709124468616
1	0xbfb55527a8e5501b	-0.08333061097556575
2	0x3fc6e359fea7811f	0.1788132184438007
3	0xbfc4a2d376852743	-0.16121905600658168
4	0xbf81510e65abae0e	-0.00845538375639079
5	0xbfc1c77f50fdc574	-0.13890067534115824
6	0x3faed6a5f29117e4	0.060231386051370156
7	0xbfcfd947968e4004	-0.24881834842062756
8	0x3fc087f37360ce86	0.1291488946313743
9	0xbf88032ff5aedea2	-0.011724829373505333
10	0x3fcbce1eef735ba5	0.21722780887531914
11	0x3fb6cd108b6530f0	0.0890665378876212
12	0xbfcdb6cca06f76e4	-0.23214109262237692
13	0x3fbb65816782484a	0.10701760079453596
14	0xbfab9e39c3f9dc18	-0.05394154088292441
15	0x3fcea89256971b8b	0.23951939800300823

topology.convs.0.nn.1.weight f8 [16]
0	0xbfb8ca98ade8fa9b	-0.09684137578822531
1	0x3ff4626e808cf23b	1.2740311643130002
2	0x3ff44b6ca43878c5	1.268414155470553
3	0x3ff13db07134c04f	1.0775608465301223
4	0x3fe6f4045a33d560	0.7172872316138346
5	0x3fea964f9431dc3e	0.8308484930447617
6	0x3ff37edbfa2ed8a4	1.2184715054295703
7	0x3ff873d2dbc3269f	1.5282772621598395
8	0x3ff87fdb5803b579	1.5312150419298105
9	0x3ff4fb636c2b8e82	1.3113741135975094
10	0x3fe80ef7121f5481	0.7518267969086453
11	0x3ff50e6cc5930a5b	1.3160217015980809
12	0x3ff5d815cfb67417	1.3652551759507838
13	0x3ff0a5eb273a8496	1.0405074627272248
14	0x3feec1c8f2834d49	0.9611553894596138
15	0x3ff2e62c06ee74ef	1.1811943312416664

topology.convs.0.nn.1.bias f8 [16]
0	0xbfd5710d11cee611	-0.33502508868295516
1	0x3fe906676fbc71a0	0.7820317442270159
2	0x3f9e657ef3e800ad	0.029684051167351445
3	0xbfa03a5f0e0e7ed7	-0.03169533773984561
4	0x3fd73758a8137bc8	0.3627530709617841
5	0xbfa35761d8d5dd05	-0.037776048392453666
6	0x3f94831d6ca1d0f0	0.02003141379869161
7	0x3f9c03a841a1ccde	0.02735770130716452
8	0x3fe1291ca402da8d	0.5362685397474977
9	0x3fdd6b1ef44e9898	0.4596631418047621
10	0xbfd1451b297b2d89	-0.2698429017152298
11	0x3fb16ca619053a17	0.06806409941530266
12	0x3f9dd5f25aa0c759	0.029136454373833363
13	0xbfd6321abb47c38a	-0.34680813111395337
14	0xbfb0a568ed85c211	-0.06502395438088394
15	0xbfbf7a37857df2d0	-0.12295863160211273

topology.convs.0.nn.1.running_mean f8 [16]
0	0xc00b6f926c3845b0	-3.429478497950832
1	0xc00f5ec91c3be2be	-3.9212820249343556
2	0xc00afd2ea8b8715b	-3.3736241513526415
3	0xc011c3b963e1f7ec	-4.441136894862193
4	0x40108366256f9c41	4.128319344460636
5	0x40110f324a73783b	4.264840281770428
6	0xc014da14f5236d99	-5.212970571791993
7	0xc00af0fcfe4382b7	-3.3676700462677576
8	0xbffe19bc76f3c5ba	-1.8812832495280944
9	0xc00b6e83e765bd8d	-3.4289625242160526
10	0xc000404482924eca	-2.0313806725406254
11	0x401b7e810d7c470b	6.873539171896264
12	0xc0078e61a3bf7c7a	-2.944522170335003
13	0x4016d42071f5b6ca	5.707155018446153
14	0x4018f3aeb2786fdc	6.237971104241264
15	0x4012f762b7b0fddc	4.741587515046799

topology.convs.0.nn.1.running_var f8 [16]
0	0x400f8c324cec97c7	3.943455315561525
1	0x400ce14f4d9b6520	3.6100145400092885
2	0x4021ae2631853b4c	8.840135142816187
3	0x400f6b42183f2108	3.9273721594109965
4	0x40183609eb6e5e08	6.052772215472494
5	0x40244628e61690b1	10.137030782942334
6	0x402303e9fed1da63	9.50764461814578
7	0x40181619c761daea	6.021582713458637
8	0x401506ea3f08f9a6	5.256752953455736
9	0x4010b0014e828f67	4.171879984587441
10	0x4013edf406c3511d	4.982376199408717
11	0x4038135b7fe2972f	24.0756149223518
12	0x40078d7b76c90c17	2.9440831451515908
13	0x40328d33a38536d0	18.551569194815613
14	0x402fdf5f9ad9d847	15.936276282398593
15	0x4022759f8d26e5ef	9.22973290538627

topology.convs.0.nn.4.weight f8 [16, 16]
0	0xbfc4c0ef227c26fb	-0.16213788207851806
1	0xbfea378420cdaac4	-0.8192768707934523
2	0xbfe4590462816b9c	-0.6358663486420144
3	0xbfc1b030c7ae63d6	-0.13818940877970814
4	0x3fe5660343783933	0.6687027280584402
5	0xbfdbb158c5171551	-0.4326993870457346
6	0xbfd35c0f61200a80	-0.3024939011085408
7	0xbfdcf3363e92f91f	-0.45234447584870624
8	0xbfb56a966b9d05dd	-0.08365764739303168
9	0xbfd7e3e0c0ba1d91	-0.3732835657214873
10	0xbfe237bd063d5306	-0.5693040010324644
11	0xbfa563bfb4b9c25f	-0.04177664834140126
12	0x3faffbb5d44df36a	0.062467271963192086
13	0x3fd2b5321e3793c7	0.2923093123520712
14	0x3fe90690fcc5c33c	0.7820515572512714
15	0x3fe5e14e2ae58407	0.6837530935118828
16	0x3fcf54ade6fdd2fb	0.2447717073333918
17	0x3fda16cf64f6d94a	0.40764222011366213
18	0x3fd239342a47cd87	0.28474144104912863
19	0x3fe7cd9abc931ff4	0.7438481982326253
20	0xbfd2cea51a4cab83	-0.2938626057463624
21	0xbfdc3a1ffb1e52ef	-0.4410476639107363
22	0x3fd58a5cca7d1887	0.3365699746540333
23	0x3fc352aeb4b9f3fb	0.15096076797991018
24	0xbfea3846af73b3e6	-0.8193696429058235
25	0x3fd5defd0f2b8f7a	0.34173513871632333
26	0xbfe31b0b58d0e0c2	-0.5970513090788006
27	0xbfe2375f8fa0cae0	-0.5692594342457049
28	0x3fe96bb268d8c898	0.7943965957440637
29	0xbfd7257c03244d3a	-0.361662867611091
30	0xbfd5fa99ca39a283	-0.34342045544193683
31	0xbfe24bcf5875bb6b	-0.571754143498635
32	0xbfccca194cf315ab	-0.224917566845915
33	0x3fde30bf85410bfc	0.47172534955114975
34	0x3fc871c0e097157d	0.1909714790946672
35	0xbfda989aaaea8b6e	-0.4155642193892878
36	0xbfd607387ee79b25	-0.34419071572340193
37	0x3fdcad3af77b3e07	0.4480731407938667
38	0xbfe5d2abcd4babc0	-0.6819666871718866
39	0x3fc595326e5c24cd	0.16861563099545265
40	0xbfe86452e40ea3b6	-0.762246556686583
41	0x3fe19e92bb497f7f	0.5506070764495091
42	0xbfdb33dc46bdcf25	-0.42504031093925426
43	0xbfe2f401fc44d19e	-0.5922861029744586
44	0x3fc47ef4ace5ab99	0.16012438242190966
45	0xbfdc99234c9fea9c	-0.44684679491880686
46	0xbfd46a8919b67a3f	-0.31900241385475064
47	0xbfe8383b5f1c9be1	-0.7568642480517803
48	0xbfd728a35dfbc9c2	-0.3618553560073928
49	0xbfd706354bda030c	-0.35975391776450816
50	0x3faf909775c5b3aa	0.06165002167367757
51	0x3fe6debbc866ad45	0.7146891511996861
52	0xbfd7de8fd8eb2ac6	-0.3729591005655205
53	0x3fc4a72c15c7190e	0.16135169089665918
54	0xbfe7890c62d2b0bf	-0.7354795389305976
55	0xbfe1e7eb0070fddb	-0.5595602997418
56	0xbfebb7c70e6783e9	-0.8661837846121873
57	0x3fe237ceaabc1e0e	0.5693124136604995
58	0xbfe19ffcc46207d2	-0.5507797084430825
59	0xbfe217771aa38f5e	-0.5653644104281559
60	0xbf922e345f96e203	-0.017754381498635407
61	0xbfe90c709e8c8b8e	-0.7827685448322528
62	0xbfd8e0a502f31949	-0.3887112168125851
63	0xbfd9267989f1f6d0	-0.3929733130570243
64	0x3fc1346a9bceff85	0.1344121228012193
65	0x3fe247e03047f428	0.571273893641437
66	0xbfe72dce08dbc7a6	-0.7243414090173601
67	0xbfa928b1e2607006	-0.049138602146030094
68	0xbfb446a5f4db309c	-0.07920300701079203
69	0xbfe5000e29770d50	-0.6562567529548833
70	0x3fea3997400f6522	0.819530129544692
71	0x3fb16eb92c336d0a	0.06809575394747838
72	0xbfe79be88c3c2312	-0.7377817858660782
73	0xbfdab27c1a4088fd	-0.4171438461654729
74	0xbfe16c1133299c0d	-0.5444417952793416
75	0xbfcbca5df481a7ce	-0.21711325110237428
76	0x3fc8612cf7982012	0.19046556558191746
77	0xbfcf759267eea436	-0.24577550959409827
78	0xbfe039791d0622dd	-0.5070157591699985
79	0xbfe23958350f38a3	-0.5695000683133639
80	0xbfc87ba05747afbd	-0.19127277623863206
81	0xbfb778e005c10d9e	-0.09168815746766376
82	0xbfc8b2f42e1c7437	-0.19296123744507707
83	0xbfa3a3e153afbeb6	-0.03835968157352225
84	0xbfe407628a20afea	-0.6259014795118649
85	0x3fdadf7c6a95e8c8	0.41989050301311837
86	0xbfd4a2ff3a031515	-0.32244854607809376
87	0x3fce24b2fb3f5f93	0.23549496906229858
88	0xbfe8f1ef3c4d7436	-0.7795330217155712
89	0xbfe11db6c2efb14a	-0.5348771865224446
90	0xbfdd2e8eacda35a0	-0.4559666336070567
91	0x3fd37332cc229a60	0.3039061540133954
92	0x3fe2745f4bc9042b	0.5767055969410014
93	0x3fc6b3e91bd0925e	0.1773654352010849
94	0xbfe1dd8deefca338	-0.5582952182495324
95	0xbfe5e251670d0a1a	-0.6838767063821394
96	0xbfc6f0b2d17a31b4	-0.17922053554901896
97	0xbfe9ab9f37f8d8be	-0.8021999448017352
98	0xbfdb950ed40c98ea	-0.430972773627572
99	0xbfd98be5fa0399aa	-0.39916371741710555
100	0x3fe25e0252b859c7	0.5739757171275465
101	0x3fd3ebb667a6a35e	0.31126175043259774
102	0xbfdb5d4b16836e49	-0.42756917189192173
103	0x3fe239e791f7b85c	0.5695684290819929
104	0xbfcbe77395331c89	-0.21800083909167636
105	0xbfd1f5fd6b05d821	-0.28063903285453945
106	0xbfd512beb8c07f6f	-0.3292691044061859
107	0x3fd97df37cd994c4	0.3983124465215264
108	0x3fd4238296ad0cfd	0.3146673652119743
109	0x3febf66fb4e629cc	0.8738325627503456
110	0x3fdcba94cbbfb4f5	0.4488880147681152
111	0x3fe10e5e0b7652d6	0.5330038284178851
112	0xbfe0f76ec025f381	-0.5302041771789022
113	0xbfca0437e6bcfc61	-0.20325373426928464
114	0xbfddc97194481e99	-0.4654201458037988
115	0xbff3fe695659aca4	-1.2496121762331223
116	0x3fbf37d9009c5352	0.12194591774853095
117	0x3fde8c5497b318a9	0.47731509031690195
118	0xbfaca4da00b39c35	-0.05594521769108277
119	0xbfddfa704fd2de5c	-0.46841056628497824
120	0xbfb68d629d7bdab6	-0.08809486718005641
121	0xbfed744919b9ff80	-0.9204450132819915
122	0x3fe1f0337df7a2b5	0.560571428327498
123	0xbfee3e1c3418c522	-0.9450818078532033
124	0x3fc31450f9ebc0b4	0.14905750468415635
125	0xbfdbf30b119c3962	-0.43670918197394404
126	0xbfac3fedef05c0b0	-0.05517524283175257
127	0xbf9a087bfca5b1ca	-0.02542299012695696
128	0xbfc6033ce93a4b29	-0.17197381389686342
129	0x3fec0936f7fd7c57	0.8761248439367461
130	0x3fdbd041000bcc5c	0.4345858097505635
131	0x3fd426a8cec684a4	0.3148595828334442
132	0xbfe09d8c55a301b1	-0.5192319557755153
133	0xbfd2d8777bad4835	-0.2944620807439862
134	0x3feed571e15bf4e9	0.9635552789256084
135	0x3fd9829ca75b1ddf	0.39859691947319037
136	0xbfe97bd151b13fdd	-0.7963644595674811
137	0xbfc5e33392874efb	-0.1709961381408148
138	0xbfe00aa2c19372a3	-0.5012983113079666
139	0x3f8e1c2a0ca20c46	0.014702156553772504
140	0xbfe23a5cc797a555	-0.569624318913308
141	0xbfd7c5420c9df9ac	-0.3714146731580523
142	0xbfd0878a07625ead	-0.2582726547347914
143	0xbfd9efd3a529ad39	-0.405262862483784
144	0x3fcc958372f47dd2	0.22331278908767033
145	0xbfe62d2211754bc9	-0.6930094090442874
146	0xbfc7a58b377c6255	-0.18473949631949674
147	0x3f73eef00563d544	0.0048665405104107474
148	0x3fd7eb454f532bd9	0.37373478647776676
149	0x3fe29a24365322b1	0.5813160954504238
150	0xbfe66d7554b37b9d	-0.700861611778112
151	0xbfd2107278b58de7	-0.28225385463721725
152	0xbfe195ed66476c6b	-0.5495516774784738
153	0xbfea005f02e40ce7	-0.8125453049146046
154	0xbfe6a3ff28fac440	-0.7075191307432149
155	0x3fd9184ab86947f2	0.3921076584712174
156	0xbfeaf8b180a5aaa5	-0.8428580773009641
157	0x3fd6f721f11878a4	0.35883377594462673
158	0x3fe6ce5fc42599c4	0.7126921492570593
159	0x3fe06a826d513a68	0.5130016455749002
160	0xbfdbd913b730888f	-0.4351243294678477
161	0x3fc99999d9c2b9f6	0.2000000298771309
162	0x3f80ebf12b686869	0.008262523781969304
163	0x3fe41cc1ce2ea23a	0.6285103823657388
164	0xbfdd5d23b4392002	-0.45880978202740164
165	0xbfe8f13d3aedddbe	-0.7794481421432733
166	0xbfdc22f29b86dcab	-0.4396330374542667
167	0x3fd2934cb28ceb7f	0.29024045406884363
168	0x3f6b6cdf7361317f	0.0033478130599517426
169	0x3fe07e56013eb175	0.5154218696894036
170	0x3fdaa3b94df706e7	0.4162429105164009
171	0xbfe747650c1dfa1c	-0.7274651753103316
172	0x3fd2636ff931a4cb	0.28731917701095416
173	0xbfe0bc13798228dd	-0.5229585049831048
174	0xbfcdc2ae63b7632d	-0.23250369900667903
175	0xbfe67d35c776f312	-0.7027844329637409
176	0xbfde221480c7d433	-0.4708300836203449
177	0x3fe601978c588f20	0.6876943341380617
178	0xbfe9c2607164a582	-0.8049776282033891
179	0xbfe375d2d99fdb18	-0.6081327677228243
180	0xbfd94e732ca3a4df	-0.39541320189762347
181	0x3f801b973b7bada3	0.007865125181942661
182	0x3fe34061b0aaef5d	0.6016090822736079
183	0xbfdfd0816c221071	-0.4971011692034671
184	0x3fc6dfe289d0fbfb	0.17870742539705006
185	0xbfe472f47623d1d5	-0.6390325839443515
186	0xbfc5f10c85727996	-0.17141872898077953
187	0xbfe1fcb9d6c21618	-0.5621003336424932
188	0xbfe4a8cbd324f7bb	-0.6456050037302171
189	0xbfc1c396becc9a6c	-0.13878139797562328
190	0xbfd4a755ee4f8d6b	-0.3227133586171564
191	0xbfdac4a2c60b7506	-0.418251698878365
192	0x3fc64e4665861abd	0.17426376301974314
193	0x3fc31d0d2cc838d7	0.14932408033968755
194	0x3fe7d82fae28545c	0.7451399232401275
195	0x3fcef7bfbe908fb6	0.2419356995097794
196	0x3f89b7090948513d	0.012556143375186063
197	0xbfcc58055c16b6f4	-0.2214361858036039
198	0xbfcefbc17e0d75ea	-0.2420579782000652
199	0x3febc8dbf5378993	0.8682689465897958
200	0x3fc9d18bd42ade05	0.20170734271754057
201	0xbfcea7b69825fafe	-0.23949320248717493
202	0xbfca5b7cca8091d6	-0.2059169758587262
203	0xbfc19f8346b1a78d	-0.1376804442582479
204	0x3fef56c285228a6a	0.9793408012668128
205	0xbfd8b215fae5a8f4	-0.3858694982688029
206	0xbfd4a007cf3cecec	-0.32226748693547225
207	0xbfaa5fe7942ca328	-0.051512944066706645
208	0x3fd20b9eaabbac54	0.2819592158618367
209	0x3fd198e5fb5cdb6d	0.27495717570439276
210	0x3fb4bf9c147e547d	0.08104873180703183
211	0x3feded2b5898020a	0.9352013330790794
212	0x3fd57e663694e106	0.335839799215606
213	0xbfbc619cb4db7c4e	-0.11086444297278428
214	0xbfa943a15903f818	-0.04934410297026676
215	0xbfe5bad2b0ee965c	-0.6790555434897203
216	0x3fc09e316abd2809	0.1298276683031079
217	0x3fea7831591348c1	0.8271719684364812
218	0xbfe008f7854bcbd4	-0.501094589561371
219	0x3fb37a7024c62cac	0.07608700654798167
220	0x3fde9894f93d70de	0.47806286182254876
221	0x3fdbc48dd079d77e	0.4338717018030066
222	0x3fcfec266e505759	0.24939422975938433
223	0x3fe032305b292324	0.5061265736086153
224	0xbfd2dc002383cfc0	-0.29467776745081764
225	0xbfce19c2c121b370	-0.23516115598922793
226	0xbfddf5a74bad6da1	-0.4681184996640813
227	0xbfd4a9563d3a746e	-0.3228355024273871
228	0xbff1b929952406eb	-1.1077056718644893
229	0x3fae9568712e2130	0.05973364240259327
230	0xbfb4a10e271913eb	-0.08058250860729259
231	0xbfb8b45864e174e7	-0.09650185072810623
232	0xbfd32522785ed200	-0.2991415191166027
233	0xbfdbc10416113c4d	-0.4336557593823656
234	0xbfb26db6ff87bba0	-0.07198661554842412
235	0x3fc3ace3a13bdcc4	0.1537136590265843
236	0xbfdb507b62cad9c6	-0.42678722999280827
237	0x3fdef96f86417e62	0.4839743434040199
238	0x3fe04a4a9c9138a8	0.5090687807039744
239	0x3fdd2629aadb4332	0.4554542702217531
240	0x3fcd9704490e5c5d	0.2311711651534293
241	0xbfe6d6c01723055d	-0.7137146427050244
242	0xbfa0853ffac47963	-0.03226661621214324
243	0x3fcb6ef6f4c4cf4f	0.21432387305832853
244	0xbf94d603d9a7e011	-0.020347652587560165
245	0xbfe258022020bb96	-0.5732432010171233
246	0xbfc11289326ea93f	-0.13337817156327422
247	0xbfee8af4513fb69f	-0.9544622027294344
248	0x3fe19061f58610bc	0.5488748355278612
249	0xbfd4008da4db1241	-0.3125337705535323
250	0x3fd33fc9b1fe8f67	0.3007683027483296
251	0xbfe2d2eaa9497e6d	-0.5882466608417879
252	0xbfd7c6c8d2240e22	-0.37150784036222906
253	0xbfe60c242fc09e4f	-0.6889820988335006
254	0xbfeb4e9ec86f2bab	-0.8533471979838984
255	0xbfd35f9fdf654e12	-0.3027114564513066

topology.convs.0.nn.4.bias f8 [16]
0	0xbf9e69e5e6ea5c7f	-0.02970084401985362
1	0x3fa2cb5fea79a472	0.03670787560697243
2	0x3fcc68046b0dcdc1	0.22192435481302478
3	0x3fb0896e513f0bce	0.06459702952911003
4	0xbfcac58231cca8f1	-0.20915248328794392
5	0x3faeef393b2b223c	0.060418880913463785
6	0xbfbac0b1c81f0c5e	-0.10450278411649225
7	0x3fbbdc96ad20906c	0.10883466459978458
8	0x3fa30f6003fbfc82	0.03722667740475406
9	0x3fcbcd090aab0caf	0.21719468136698114
10	0xbfbf171320d7805b	-0.1214458422832662
11	0xbfb0a507810b9fd8	-0.06501814747355128
12	0x3fbcd23edfd4bdbf	0.1125830933058216
13	0xbfc4b3deb63bd1fd	-0.161739195805822
14	0x3fcc595461cea3c2	0.22147612357846752
15	0x3fc6f16457c527bd	0.17924169812823534

topology.convs.0.nn.5.weight f8 [16]
0	0x3ff638a7901dbdae	1.3888316754854304
1	0x3fe122bf2f832a64	0.5354915550208941
2	0x3feacd49635f9175	0.8375594082722687
3	0x3fe55e0af7d9d0dc	0.6677298394047528
4	0x3ffae2f4a28a89a5	1.68040908329622
5	0x3fe6ea60a3e28035	0.7161105347513571
6	0x3ff3c1116d481bf0	1.2346357601943474
7	0x3fe6c0cc1a93f1fa	0.7110348242854905
8	0x3ff486e768b6d15f	1.2829355326076308
9	0x3ffbfef2c8023117	1.7497432530245243
10	0x3ff7f92583ca2bec	1.4983267925297197
11	0x3fdee325f78abf2b	0.4826140324976104
12	0x3ff4de1d14d0fc8a	1.3042269528521353
13	0x3fd6e95241a0eef8	0.35799080285117624
14	0x3ff08fced9037847	1.0351093747226672
15	0x3ff40b1044b923a7	1.2527010616779337

topology.convs.0.nn.5.bias f8 [16]
0	0x3feaf91b5e3e2632	0.8429085579566105
1	0xbfbe9559a43b6fee	-0.11946640262198091
2	0x3fcc6e26522c6019	0.22211150181169684
3	0x3fdc4a7d4b2288a7	0.442046473859714
4	0x3fe4fb6f04aef4ff	0.655692586085621
5	0xbfbfa09c68994273	-0.12354447892836067
6	0xbfe601263a0e381e	-0.6876402982613887
7	0x3fdbc24cd94c4cb1	0.43373414249908665
8	0xbfbaa8e4964f937d	-0.1041396014184794
9	0x3fe245011a42dd0f	0.5709233773149281
10	0x3ff6c605bbd461d9	1.4233453118414359
11	0xbfd7a410830acde2	-0.36938870236482846
12	0x3f7d9ae7131a9c41	0.007227804789784521
13	0xbfe33354b1345a84	-0.6000159703279029
14	0xbf965d680c58b369	-0.021840692285127448
15	0x3feb03d6488ac449	0.8442183892094671

topology.convs.0.nn.5.running_mean f8 [16]
0	0xbff5eeea819fbf5e	-1.37082911142712
1	0x3fb2970c5f8395f6	0.07261731464276253
2	0xbfe952633d13a570	-0.7913070862679614
3	0xc001330e975e1a64	-2.14993017440729
4	0xbff5a322ee6dba56	-1.3523282350175996
5	0xbff8f88f8afdf044	-1.5606837682125994
6	0xbfd5f5ea0f280215	-0.3431344173441471
7	0xc003465629946f77	-2.4093440292762653
8	0x3fb93816432641b4	0.0985120691241324
9	0xbffdf5eadf170b01	-1.8725384439900952
10	0xbfd8d55cd1447a17	-0.388022617686063
11	0xbff93b0569e1dd16	-1.5769094596888116
12	0x3ff59bad1db3ccda	1.3505068931815942
13	0x3ffc9d517f31132e	1.788407799570631
14	0xbff6627c1f201404	-1.3990441528160327
15	0xc001b59f927a0aca	-2.2136832660192782

topology.convs.0.nn.5.running_var f8 [16]
0	0x40273771b958c178	11.6082895203442
1	0x4026435d94b20909	11.131573340161156
2	0x40171c20bf933fb1	5.777468675005296
3	0x4015b6fc76cb54b7	5.4286974488833755
4	0x40146ba0fe9079f3	5.1051063323670745
5	0x4006490aa33f3f0b	2.785664821021674
6	0x4028d74872da3282	12.42047461427251
7	0x401731288f6b7b26	5.798006287512896
8	0x401c838bd91768bd	7.128463165334492
9	0x40375fa7a91902d6	23.37365204678175
10	0x4029c6af89f152f8	12.888058005054958
11	0x401516b582e711e4	5.272176785806071
12	0x401be37eedec010d	6.972163884667919
13	0x4009a0db56e4b6fb	3.203543356756993
14	0x4013ac479445a1b7	4.918241802930814
15	0x401e30b541fa3fd4	7.547566443346984

topology.convs.1.eps f8 [1]
0	0x3fd890e993d72524	0.3838447517160424

topology.convs.1.nn.0.weight f8 [16, 16]
0	0x3fbabca11e197729	0.10444075569963886
1	0xbfd0df7e45f55ebe	-0.2636409457386256
2	0xbfe4cf5cf68665bc	-0.6503128828946312
3	0x3fca1ebcb239a953	0.2040630216827802
4	0xbfe3cdbc81717c6f	-0.6188643005551863
5	0xbfb9405e96d9fa43	-0.0986384504594549
6	0x3fc089c190726dcf	0.1292039828593787
7	0x3fd0a54101c8bbcc	0.2600862996504787
8	0xbfea838aa11e37e6	-0.8285573145710685
9	0x3fe298797d841e6a	0.5811126185880771
10	0xbff00918a61384de	-1.0022207724908223
11	0xbfe464f56b08f491	-0.6373240557219494
12	0xbfe7a9d34fd69bd6	-0.7394806441633317
13	0xbfcf577b37b78546	-0.24485721798468257
14	0x3fca1354d1a5e736	0.20371494518968242
15	0xbfbcf04796809df9	-0.11304137634635215
16	0xbf40820f141332c3	-0.0005037854790771113
17	0x3fe471c75f3b2b0f	0.6388890132887769
18	0x3fe546ff4463f4cb	0.6649166427374892
19	0x3fdd58fa5d14b480	0.45855578508309947
20	0x3fdb5bd0fc300162	0.42747902515113456
21	0x3fe24a11fc31906c	0.5715417791038937
22	0xbfb88028271d3b38	-0.09570551829277185
23	0xbfeb91f524e8b389	-0.86156708916461
24	0xbfc9165f15143523	-0.1959952214169017
25	0xbf6f3260616bb8ac	-0.0038082010681739966
26	0x3fe5fa20e1fb08f4	0.6867832578357409
27	0xbfd79faa4bc069d6	-0.3691201915513863
28	0x3fe713cd78906dd7	0.7211673121232093
29	0x3fdced8e13fdc0ca	0.4519992060877597
30	0xbf616038106a581d	-0.0021210761072536625
31	0xbfab50cfec7c9ca7	-0.053350923173917146
32	0xbfe6b1f755b8924d	-0.7092243837583482
33	0xbfc0a2cfc0ead7eb	-0.12996861381333188
34	0xbfd85d7d559289d0	-0.3807061515491599
35	0xbfe18c51cd4b063f	-0.5483788499479444
36	0x3fe92fdbed52c28d	0.7870921740742048
37	0xbfd4f263f314f65b	-0.3272943376394772
38	0xbfd38b3c53c42254	-0.30537326984680147
39	0xbfd7fd8562e638ac	-0.3748486963094233
40	0x3fe95c791ac1f83b	0.7925382158862314
41	0xbfd97225fa41b144	-0.39759206236955813
42	0xbfd1f8b85a0fbf83	-0.28080567164487763
43	0xbfc330771662f70c	-0.1499165400800212
44	0xbfd0344caf4170fd	-0.25319211115653656
45	0xbfe379e211993b9e	-0.6086283057901374
46	0x3fcd65b323dd892e	0.22966613055457102
47	0xbfe9c8887019ca45	-0.8057291211574201
48	0x3fe19119c2bd3d74	0.5489624789715166
49	0xbfce066bb13d5598	-0.23457094339634632
50	0xbfd1a8f85175d559	-0.2759381099234211
51	0xbfd8684f9a69ad87	-0.38136663512587926
52	0xbfd5f5fd70cca053	-0.3431390382343171
53	0x3fc9488972b4e850	0.19752615071212398
54	0x3fbc99595cec81d7	0.11171492117546876
55	0xbfc36d43c73c31fb	-0.15177199581411557
56	0x3fe8d53ce6c4f060	0.7760300166332961
57	0x3fe87ff573f1df5c	0.765619970755306
58	0xbfe2a0400ed2a649	-0.5820617951878343
59	0x3fd12c1f77a0c351	0.26831804926319075
60	0xbfdea0fe3631583a	-0.47857623379002556
61	0x3fec78e3b31ac7f7	0.8897570131432521
62	0x3fe84df97fc0ddaa	0.7595183844741105
63	0xbfe4fc421de015ba	-0.6557932456495827
64	0x3fb60030003eef3f	0.08594036108018786
65	0x3fc5a2b4499a3954	0.16902783960217482
66	0x3fd6b6a25f5aa7c2	0.3548971110527611
67	0x3fde58d70e5300fd	0.47417236708498917
68	0xbfc24b7f50a894e3	-0.14292899549869906
69	0x3fd56e4e36841f52	0.33485751460874724
70	0x3fe5b648c86bd367	0.6785015024639564
71	0xbfc7b98e8d8f29f4	-0.1853502455908963
72	0xbfbe15c2aa93f7bc	-0.1175195375871842
73	0x3fe79ad96357586e	0.7376524868257215
74	0xbfe38569d57097d9	-0.6100358170267511
75	0x3fde12a32e014163	0.46988753788629917
76	0xbfd2fa3bace22973	-0.29652301676892207
77	0xbfe0866b0a63fb31	-0.5164084628048383
78	0x3fe714c16f713bc4	0.7212836433990266
79	0xbfe1426fdbc88efb	-0.5393599789281035
80	0x3fc13e09eb7af6ab	0.13470577238142786
81	0xbfc3f25d71608a7e	-0.15583389316551072
82	0xbfd47a91ef91ddc6	-0.3199810828732236
83	0xbfbba4dc2e3ccc9b	-0.10798431519360678
84	0xbfe033f27ea1ea54	-0.5063412164011631
85	0x3fc312a5f893b436	0.14900660169169705
86	0x3fe1de6268a3c185	0.5583965343230807
87	0x3fcf24e041fe2f4f	0.2433128664237025
88	0xbfb51178e414e1c4	-0.08229785507581427
89	0x3fe853950cf96724	0.7602029088404589
90	0xbfd7d929be0c2360	-0.3726295810634408
91	0xbfd0ccc7eee68014	-0.2624988396655692
92	0xbfe0c517946f5c65	-0.5240590952988781
93	0xbfe8dd78bc3dee7f	-0.7770351101493843
94	0x3fd186959849e8a0	0.2738393771356957
95	0xbff07126a74deeae	-1.0276247535065681
96	0xbfdd08b8c16d98e6	-0.4536573304125241
97	0xbfd5288001d1c4d4	-0.33059692552258224
98	0xbfe1384c410485d4	-0.5381222982288656
99	0xbfe7cc077da42b9d	-0.7436559156352477
100	0xbfe9948579739436	-0.7993800518130516
101	0xbfe68148c0e4097f	-0.7032817618749475
102	0xbfdb88087f041e29	-0.4301778068915803
103	0xbfc42de28d12154f	-0.1576502980061982
104	0xbfd7716853766da9	-0.3662968459190901
105	0xbfe11a3b52de1ae2	-0.5344521158702629
106	0xbf8ae7f97a7a2be3	-0.013137768793304921
107	0xbfc451552ab93d7d	-0.15873207651246082
108	0xbfc035e912ce376d	-0.12664521616209914
109	0xbfe91ca8d135f8e1	-0.7847484670781136
110	0xbfd5faaf7c292618	-0.3434256279475405
111	0x3fec84b14cac677d	0.8911978242424393
112	0xbfe38556aff83678	-0.6100266873269922
113	0xbfa220b59f7093af	-0.035405803406582385
114	0xbfb1a800dfd80a14	-0.0689697786802202
115	0x3fc84169273cbe92	0.18949617782481148
116	0x3ff66a4d73dac685	1.4009527707643497
117	0x3fd6e794cd62c4db	0.35788459832390423
118	0xbfcfe37de7c236a1	-0.24912999931659832
119	0xbfcf76275613bd75	-0.24579326346382016
120	0x3fe2f4f0b0478d8b	0.5923999255141309
121	0xbfde66fab33694be	-0.47503535748758086
122	0xbfb48bc3f71db79f	-0.08025765212161538
123	0xbfd17bec76e18c10	-0.2731887017200174
124	0xbfbf5bd9badbc7ca	-0.12249527751899261
125	0xbfd89bccc6d610df	-0.3845092717895237
126	0x3fd50e07ed970664	0.3289813823904295
127	0xbfe03df32be55a9c	-0.5075622422544543
128	0x3fd4e3ab50f56060	0.3263958254442567
129	0xbfe9f002177714d2	-0.8105478723815855
130	0xbfc04b96a2b79733	-0.12730677552388556
131	0x3fcf59f27197f6d6	0.24493246599734303
132	0xbfdea20183bdd031	-0.47863805642487295
133	0x3fdccee317e87fc5	0.45012738547120207
134	0x3fe0599f5e5922e9	0.5109402506578508
135	0x3fe1cbc2d136cc0f	0.556123169537729
136	0xbfd3bb1f42b7b9fe	-0.3082960273303853
137	0x3fddf1492e622f27	0.46785192041055484
138	0xbfe60e3e4becc88d	-0.6892386897000208
139	0x3fd60bbf8132be85	0.3444670449925769
140	0xbfead06a679754e2	-0.837941362692302
141	0x3fbb68cb47d2f439	0.10706778052822664
142	0x3fd669705ffa28d2	0.35018548367282876
143	0xbfc557acd6d1ca90	-0.1667381333278013
144	0x3fd8182400e307b0	0.3764734276447781
145	0xbf9e81c354970184	-0.029791881597476713
146	0xbfe0954fe1663c43	-0.518226566537017
147	0x3fddd2a47ea1885e	0.46598160139376954
148	0xbff167671e740ac5	-1.0877448262769331
149	0x3fb21fdb4810ecf8	0.07079859265734345
150	0xbfc5b3ef2173091f	-0.1695536530806487
151	0xbfd25f9486cc0f11	-0.2870837513330438
152	0xbfe5f03be375bb9d	-0.6855754320694022
153	0x3fd7bad69723e539	0.3707787013987232
154	0xbfd1e730d4df0bde	-0.2797357634373706
155	0xbfd226c236407dbc	-0.28361563966788217
156	0x3fd19965ef206dac	0.27498768188680844
157	0xbfd63670474a3044	-0.3470726677121585
158	0x3fc640bf6819575c	0.17385094244917354
159	0xbff13e7e9053e11c	-1.0777574193762751
160	0x3fe5206ad8f43321	0.6602071988469086
161	0x3fd93b9e020bc279	0.3942637462596746
162	0xbfafbbe0c2188060	-0.061980270093273004
163	0xbfbadcff9361213f	-0.10493466709261144
164	0x3fdb06fd6e7ed7e0	0.422301633744949
165	0x3fe1033b2a4236ed	0.5316444230427045
166	0x3ff159a68efa8d23	1.0843873581987473
167	0x3fd974ccdac40135	0.397753919256519
168	0xbfcc16de886d9216	-0.2194479147102732
169	0x3fe1e156a9ced1d8	0.5587571445999471
170	0x3f956c653fda74a6	0.020921308538721782
171	0xbfcca8352a73bec0	-0.2238832909856594
172	0x3fe44930668f2415	0.6339342120273864
173	0xbfc389a273d03c79	-0.15263777403785975
174	0x3fe5297980f026b2	0.6613128202745513
175	0x3fcb59f2c848e91a	0.21368250636607727
176	0xbff21491d46d5ea9	-1.1300218866289617
177	0xbfe43d53ac796953	-0.6324861878049809
178	0xbfd56498396945f2	-0.33426480871739195
179	0xbfd4f496e86796f3	-0.3274285573555595
180	0xbfcd05aea897cf23	-0.2267359088142423
181	0xbfe0138919606ff8	-0.5023847098959768
182	0xbfe523ae68d8c574	-0.6606056258953417
183	0x3fdc5c422ca06a10	0.44313101156299783
184	0x3fdbabfacabbca42	0.43237180517386176
185	0xbfec1d56d3f1ac17	-0.8785814418346288
186	0xbfc52661253eb39a	-0.16523374861335755
187	0x3fd5ea5266ed4d42	0.3424268727441878
188	0xbfdd04c9efa264af	-0.4534172859362781
189	0xbfd37dedd2235fe6	-0.3045610954409298
190	0xbfba2264f733f742	-0.10208731684903419
191	0x3f87e8cf6ada1f4f	0.011674519012799726
192	0xbfd1b42fa62f0c7b	-0.2766226885689275
193	0xbfbb337dc23a1f35	-0.10625444404479086
194	0xbfd1133f7747dd7c	-0.26679979942806376
195	0xbfcb414471389e61	-0.21292930153252868
196	0xbfdfca2fd88efe62	-0.4967155089216019
197	0xbfd3dca92a46ba38	-0.31034306648772114
198	0x3fe066a5f6084396	0.5125303082769388
199	0xbfe052821ab7bdb5	-0.5100718042212323
200	0xbfe2258f4c7190a1	-0.5670849316634482
201	0xbfe27a7eb4c91358	-0.5774529963460777
202	0x3fe369d8b0375d33	0.6066707078670447
203	0xbfcf9a9f489cdd93	-0.246906195121238
204	0x3fec33f8bb3bf8f9	0.881344190303735
205	0x3fa95aeb8fc907dc	0.04952179079238281
206	0xbfd77b9e29e6a527	-0.3669200333775557
207	0xbfd7aeea24647282	-0.3700509410280476
208	0xbfdc1952a25ff16c	-0.4390455804530322
209	0xbfbb4996c2eb507c	-0.10659162768144087
210	0x3fd3eb9bfcd04add	0.311255452049563
211	0xbf951c095fa41fa2	-0.02061476370093341
212	0x3fc386c1c7b8d271	0.1525499558644188
213	0xbfcc21805b9a6024	-0.21977238152317213
214	0x3fe7ccd877c0ff15	0.7437555636351784
215	0xbfcf126e793ed34b	-0.24274998588739502
216	0x3fc22a695195347d	0.14191929324661948
217	0xbfeb5d286fbc8d14	-0.8551218206743294
218	0x3fed41847d02b7b9	0.9142477456678001
219	0xbfd33d64d51be19a	-0.30062218486229997
220	0x3febd4cdba3c817b	0.8697270047596669
221	0xbfd0a3da3e202d03	-0.26000076357804874
222	0xbfe5cabe470c470f	-0.6809989345221953
223	0xbfe0eb684a100b5c	-0.5287362524544323
224	0x3fb643b9d8e52707	0.08697091622630292
225	0xbfa81c8a1bcff2f1	-0.047092739005142444
226	0xbfbbd729d9271313	-0.10875188399866102
227	0x3fc7ba29f6a8edb3	0.18536877197207743
228	0xbfb263ee09bbc816	-0.0718373082889062
229	0x3fe8c07dedd32930	0.7734975476280734
230	0x3fb2a2ef56d75baf	0.07279868955752876
231	0x3fe3e6e97045a772	0.6219374840559182
232	0x3fcafff9687d235c	0.21093671419137194
233	0x3fe76ff56b58bb14	0.7324168297398921
234	0xbfca95214108e247	-0.20767608333132356
235	0xbfda67f0411ce642	-0.4125939021938373
236	0xbfd2db6074821936	-0.2946396959090579
237	0xbfe1f5c659de7282	-0.5612518077137596
238	0x3fd6dffbfa0f92e1	0.3574209157944051
239	0xbfe3726939ce6aff	-0.6077161911992731
240	0x3fd4e6c1a00c84a5	0.3265842497804193
241	0x3fe3af4d975a7a4f	0.6151493030664116
242	0x3fe92a8375aaba4a	0.7864396379644145
243	0x3fd9bed8fb8fc5eb	0.4022734123855957
244	0x3f71f920808b6906	0.004387976609644411
245	0x3fd78f4d565bcc88	0.3681214660020449
246	0x3fd6bde978a43979	0.3553413084163349
247	0xbff2ea0d0bb3461a	-1.1821413476030842
248	0x3ff0d26a1e87f90a	1.0513707344649128
249	0xbfa14fa780d1c07d	-0.03381083915235281
250	0x3fe4496f380f77ae	0.6339641661577298
251	0x3fc71f49814e90c2	0.180642307413228
252	0xbfc029a17fdc5583	-0.12627047293851143
253	0x3fc586b1fa5286fe	0.16817307207843862
254	0xbfe02ed399c23ed2	-0.5057161334134099
255	0x3fd0ca715c040ddc	0.2623561285583642

topology.convs.1.nn.0.bias f8 [16]
0	0xbfc497dfa8c9c203	-0.1608848165665365
1	0x3f9114228d5a5b85	0.016678371312618196
2	0x3fb086194f6c925b	0.06454618634286062
3	0xbfc806c14b039a32	-0.18770614779278244
4	0x3f943a6bf43e1e1f	0.019754111082447175
5	0x3fccf87df337b1fb	0.2263333737931957
6	0xbfc79bfec64081d4	-0.1844480960871936
7	0xbfa5b217e8836aaa	-0.04237436974809346
8	0x3fcabf3da26217f8	0.2089612048040974
9	0x3fcbf1b294be84dd	0.2183135248460876
10	0x3fc6a3ceb07e868a	0.17687400453455765
11	0xbfc762fc2a3074bb	-0.18270828304313178
12	0xbf9b99bdcc6e203c	-0.026953664400508823
13	0x3fccef45f2e174b3	0.22605203971298735
14	0xbfc39be5425dfd69	-0.1531950544412937
15	0x3faaaa562aa1b78b	0.05208081503302172

topology.convs.1.nn.1.weight f8 [16]
0	0x3fe28411a7537ac3	0.578621699150823
1	0x3ffccdb5a39f5fd0	1.800222052717789
2	0x3ff66ca043443052	1.401520025977352
3	0x3ff31f1ceb84d4ff	1.1950959396320397
4	0x3ff6832bb989ad8e	1.4070241210527885
5	0x3ffe0aada6add4bc	1.8776070128345017
6	0x3fe8cba73c0277c5	0.7748600170195848
7	0x3ff1a0a2b332bf5c	1.1017176628046945
8	0x3ffa751abb06d510	1.653589945385935
9	0x3fef0ad3a274d238	0.9700716183638809
10	0x3fe2ba37e6107512	0.5852317326968282
11	0x3fee760e6a8265c2	0.9519111709843673
12	0x3fe1c560c8f12011	0.5553440022131345
13	0x3fe64bdef26183af	0.6967615827562578
14	0x3ff123e937034b68	1.0712673329296312
15	0x3ff39971656e31f1	1.2249616586806236
