src/models/mentor/results/3-channels/real-world/Dribbble/model_weights/4.ckpt (torch, 93911 bytes, 112 tensors)

topology.conv_GAT.att f8 [1, 1, 16]
0	0xbfc4e8b8cea4fedf	-0.16335210886062776
1	0xbfe4f45176c36676	-0.6548240012736659
2	0xbfc7ff090251960e	-0.18747055638520788
3	0xbfb0c845cc6b68de	-0.0655559181281293
4	0x3fe4b03eaf4ada63	0.6465142654113375
5	0x3fc322e24af407ec	0.14950207385851344
6	0x3fcb74b5ff33e57b	0.21449923478193597
7	0xbfc6f398834f9b01	-0.1793089524428169
8	0xbfe7070564e12be4	-0.7196070642761438
9	0xbfd9886f093534ac	-0.39895225428774483
10	0x3fcaaf16c425dcc7	0.20846829011472875
11	0x3fdf8792ccc442c4	0.4926497459100967
12	0xbfed7e661d4f1db4	-0.9216795513574909
13	0xbfb4ef69b2edc2f6	-0.08177815073373637
14	0x3fa9fedbfbef4184	0.05077254724858718
15	0xbfc29096a98e59d4	-0.14503749159912493

topology.conv_GAT.bias f8 [16]
0	0x3fd25a4389f85f70	0.2867592666020675
1	0xbfbb91d0bc75fe33	-0.10769371605965077
2	0xbfc241d376f341bd	-0.14263385112873364
3	0x3faea91f72ac1a39	0.05988405489738508
4	0x3fbb1cd28abd0346	0.10590854537168778
5	0x3fcc49c55bb300e8	0.2210013101339492
6	0xbfc8110e35b754fa	-0.1880204927717058
7	0xbfda7e6d620d1f12	-0.41396650862996964
8	0x3f8d07e8a594e18e	0.014175241044186018
9	0xbfbb2e67a59383f7	-0.10617683212650762
10	0x3fd99ea9e0a17c68	0.4003090566311074
11	0xbfd85bef415cacfe	-0.38061124213227504
12	0x3fc9a8f90518c80c	0.20046913861148175
13	0x3fc720dc2fb888ce	0.18069031076544778
14	0x3fddcf266585f5ac	0.4657684318006783
15	0xbfbf3da94555de0f	-0.12203462546118991

topology.conv_GAT.lin_l.weight f8 [16, 6]
0	0xbfd42a9d8a06ffaa	-0.3151010368273953
1	0x3fea7a602b13aaec	0.82743843472903
2	0x3f8aab1f6386a552	0.01302170298079611
3	0xbfc880c712c81449	-0.1914299813944658
4	0x3fc112eb03b0980a	0.13338983230750073
5	0xbfcd7fdbd26ee10b	-0.23046443724684482
6	0x3fba9069e36924ba	0.10376607706088495
7	0x3fc233b1f3b449d4	0.14220261001226098
8	0xbfd8c5bfa5660def	-0.38706961776935506
9	0xbfcd4d83dafaaa0e	-0.22892807190267245
10	0x3fe03fbb4fdbeb64	0.5077797469851757
11	0x3fd9f954e55ba97b	0.40584299467322865
12	0x3fc997157690aefa	0.19992321290316523
13	0xbfc10e9d34385ee3	-0.13325848626913403
14	0x3fceaad3d23332aa	0.239588239323344
15	0x3fac30cc095fd293	0.05505979170258004
16	0xbfd667960d9a2553	-0.35007239654858785
17	0x3fc7bd762d7d9c12	0.18546941014503254
18	0x3fdcd74978febfba	0.4506400758355046
19	0xbfec3ad716de147f	-0.8821826407080521
20	0xbfbc4e12b1063354	-0.1105662996471442
21	0x3fb73d20faaa8a93	0.09077650184421264
22	0x3fbe1fa6980d4385	0.11767045223429136
23	0xbfe4bae12c2cb7d1	-0.6478124487673488
24	0x3fdcf48bd387ecd7	0.4524259153110512
25	0xbfeb426bf70b8406	-0.8518581223580675
26	0x3fd1ef7c11a568ee	0.2802419826818
27	0x3fe368e5bf465512	0.6065548644861869
28	0xbfe38990e1fd8256	-0.6105427183029615
29	0xbfa596331abd2392	-0.042161557210938075
30	0x3fbe2954e42be2c0	0.11781817026702424
31	0x3fc052f72b131d64	0.12753190615897403
32	0x3fc0165d0920e0a2	0.12568247743343358
33	0xbfda43ce6189186e	-0.4103885605330849
34	0xbfa13d38947213bb	-0.03367020427780384
35	0x3f6b6bd19bce58f3	0.0033473104399021013
36	0x3fc9b4c1e8e4374c	0.20082877990392445
37	0xbfcdf712c9e04b7b	-0.2341025815699956
38	0xbfc4379267107eab	-0.15794591934626587
39	0x3fcc9002fed65429	0.2231448883364078
40	0xbfa061f695292bf1	-0.03199740000544427
41	0xbfc9a32aea1029ab	-0.20029198101867726
42	0xbfb2010c438e4d69	-0.0703284897738762
43	0x3fb5152872e0d84b	0.08235409550329213
44	0xbfd88308b3d6d327	-0.3829976803056518
45	0x3fcf31cb4dc91230	0.24370709703556903
46	0x3fe40298aee2d5b0	0.6253169456237426
47	0xbf9238801faa573f	-0.017793657238676316
48	0xbfe9ce5cbd1352cb	-0.8064407055740842
49	0x3fe4290d6dc071ab	0.6300112861240924
50	0xbfc1007163d45b73	-0.13282601713646222
51	0xbfbde9da9a396605	-0.1168495775722463
52	0x3fb1bff7a1b4c181	0.06933543870832716
53	0x3f9bb8ed5cfbb513	0.027072628784414365
54	0xbfea1bdd01496cac	-0.8159012818463416
55	0x3fe70e2320759221	0.7204757341356222
56	0xbfe082f1782a76f7	-0.5159842822065163
57	0xbfbdb60f3d28094e	-0.11605925791812874
58	0xbfd3cb79ef4d5d79	-0.3092942082343693
59	0x3fcaea34b05d4001	0.210272394290314
60	0x3fd7c18990b73fad	0.37118758327869267
61	0x3fd7333dbb141c99	0.3625025107325626
62	0xbfe0bec1b37e1f3c	-0.5232857232776733
63	0xbfcb852b17c943a3	-0.21500147496638275
64	0xbfcbd86134f14992	-0.21754088482937256
65	0x3fd75fa8b43133a7	0.3652135619820975
66	0x3fe044e1e1f3474a	0.5084084904758381
67	0xbfe229d7ed1f34d4	-0.5676078444754702
68	0xbfcd0a153e07b5fa	-0.22687020806135633
69	0x3fe026ceabb262a6	0.5047372201398346
70	0x3fd00d13e9d604ec	0.2507982047610102
71	0xbfd99ffabfdf4d6a	-0.40038937318350654
72	0xbfe4664ec0527928	-0.6374887234012805
73	0xbf9160c0b14010be	-0.016970644777771986
74	0xbfcdd73f539d16c5	-0.23313132841774667
75	0xbfd9dd9a1dcf7998	-0.40415051375557587
76	0xbf86fcfe225ed518	-0.0112247328032518
77	0xbf96d79b8145309c	-0.022306852116614637
78	0xbf6bc4e3eeab5f80	-0.003389783077505315
79	0x3fbd0bb4cc06dc2b	0.11345987301943754
80	0x3f9b1b10f8eed8d0	0.026470437234558386
81	0xbfd23cccc703276d	-0.2849609321098033
82	0xbfc6f7e613942d8d	-0.17944026905057023
83	0xbfc5b7167c9901b3	-0.1696498974215622
84	0x3fba8bab0ffb2282	0.10369366779480951
85	0x3fcb05a62acb5d38	0.2111098965603817
86	0xbfe0cd7d1b5eed99	-0.5250840696893874
87	0x3fd16dfdd681345a	0.2723383517048369
88	0xbfbbdc11b86b0465	-0.10882673981088116
89	0xbfb0bc8c0347d6a2	-0.06537699775784714
90	0xbfd00260e21aaa02	-0.250145169071999
91	0x3fe17dd280d6562c	0.5466091648438058
92	0xbfdaf0c0ad48fea9	-0.4209443752515463
93	0x3fb36d3040ba8df7	0.07588483410159329
94	0x3fd5750c9a9b2382	0.335269118292267
95	0x3fba334412a574fd	0.10234475569946606

topology.conv_GAT.lin_l.bias f8 [16]
0	0x3f8759545ae28eac	0.01140085127219178
1	0x3fc81bdd2bd2e64e	0.18835034026942526
2	0xbfa02960f109269e	-0.03156569425898435
3	0x3f72cbda424a80c8	0.004588940214176947
4	0x3fadea1a053c7707	0.058426678790267465
5	0x3fd0c2f068e2468a	0.26189813845221777
6	0xbfde4d851b9a2904	-0.4734814424088116
7	0xbfe535329c621bcc	-0.6627438597068873
8	0xbfb92436981d0e35	-0.09820882047375153
9	0xbfdd5188f6361d57	-0.45810150188522897
10	0xbfa1dc2f28f39caa	-0.03488299727342199
11	0xbfe429f79ac63ca9	-0.6301229498802928
12	0x3fdfb0c9a1ee2e6a	0.49516526044383247
13	0x3fb7deaece2634dd	0.09324162037792712
14	0x3fc967fe848a834a	0.19848615142566423
15	0xbfcec1808d2418ee	-0.24028021709108977

topology.conv_GAT.lin_r.weight f8 [16, 6]
0	0xbfd88b737388c066	-0.383511412454942
1	0x3fb368b5cc6c60c7	0.0758165000992249
2	0xbfeb6aca86319409	-0.8567860241861364
3	0xbfbb7727269d6f60	-0.10728687947033455
4	0xbfe3aa9dbb82e150	-0.614577165825759
5	0xbfe4303dcee0cee1	-0.6308888474072455
6	0x3fb7ef3d85689c51	0.0934942675308872
7	0x3fd896e761bda846	0.3842104391575315
8	0x3fe68c84ed5f2771	0.7046532283941201
9	0x3fe3b12dbb12946e	0.6153782514344479
10	0x3fe1e9d46d198cc8	0.5597936755042605
11	0x3fc7697ae53b0baa	0.18290649598028824
12	0x3fc7dc59fcaf2e6d	0.18641209447956744
13	0x3fe0a55cfe34e9d9	0.5201859440779187
14	0x3fce682994222fdc	0.2375537846859278
15	0xbfcae421812415a8	-0.21008700185499873
16	0xbfd80744e9f68b94	-0.3754436764522151
17	0x3fdf94547a39e8a6	0.49342834411766956
18	0xbfe238b03b8a06e2	-0.5694199717401853
19	0xbfe1ff38c7db0fe2	-0.5624050048286302
20	0xbfceb14ff6855528	-0.23978614365720685
21	0xbfc499f1c341e9c1	-0.160948009815753
22	0xbfdbb46c4dbf6b0a	-0.4328871497397563
23	0xbfc430b4787bb86e	-0.15773635752651977
24	0x3fe9c185c4ccd1a1	0.8048733562232436
25	0x3f9653f41947a34a	0.021804632227858257
26	0x3fd356ded6a67546	0.30217715227066255
27	0xbfba82cb1e075a89	-0.10355824931262182
28	0x3fc9865082335a2e	0.19941145284129064
29	0xbfc5ba6158e424f4	-0.16975037422552186
30	0xbfe5c8e9c5ff8a27	-0.6807755343582514
31	0x3fb8a0560052635c	0.09619653232438224
32	0xbfe2efb5d6a88c12	-0.5917615120455386
33	0xbfd45f40402920b2	-0.31831365838707903
34	0xbfc0d5b183780f8d	-0.13152140540489335
35	0x3fc492d5c0e70ef3	0.16073104781218425
36	0xbfd997e5c5a025aa	-0.3998960905015233
37	0x3fe4d485d0146961	0.6509427131707463
38	0xbfd60456808b742c	-0.34401476433942224
39	0x3fd233e58cb0965c	0.2844175218509457
40	0xbfbb36c73841b206	-0.10630459903195097
41	0xbfccb1dbcb83d758	-0.22417781293159567
42	0x3fc1074dd016563f	0.13303539906034875
43	0xbfc4f0eccebb52eb	-0.16360244840929936
44	0xbfe46315d0cc1958	-0.637095363433029
45	0xbfe857d8db12a187	-0.7607235220685177
46	0x3fa1c3fb5ec30a64	0.034698348348247504
47	0x3fd2a287dca98e33	0.2911700873284843
48	0x3fe26c82b3372333	0.5757459163952262
49	0x3fefaeed8026f778	0.9901034834835931
50	0x3fdd71dc525b46e0	0.46007450144416673
51	0x3fe0f08a1c40bb61	0.5293627311528831
52	0x3fd4c0b71c35d166	0.3242624068727963
53	0x3fca19925b7935c6	0.20390538660505636
54	0xbfcb19d993e82f6a	-0.2117263767435092
55	0xbfb343a06215afcb	-0.07525064844747857
56	0xbfdcda9d618cf238	-0.45084318663046785
57	0xbfd03de2d7c99b78	-0.2537772280979236
58	0x3fab004debe4f759	0.052736697240546256
59	0xbfc55692d4ce67f9	-0.1667045153706679
60	0x3fd16686277de5c3	0.2718825708066925
61	0x3fe1d8168647733d	0.5576279280317987
62	0x3fc400cb014cb420	0.15627420009096316
63	0x3fd860c1f55d871c	0.38090561830004943
64	0xbfca3dc5b3ea1c0d	-0.20501014027487977
65	0xbfbc3e9f63275127	-0.11033054514638661
66	0xbfea0eeeb1b47994	-0.8143228026199716
67	0xbfd04d04197982f6	-0.2547006844306873
68	0xbfd7f86560ae7bdd	-0.37453588906822494
69	0x3fc46492cd08de08	0.15931925784546785
70	0xbfc10f7dced93a33	-0.13328526115442826
71	0x3fc0bb0cf87d13f4	0.1307083333323643
72	0x3fc1fc95ea3ebad7	0.14052080095048922
73	0xbfdc0a6f562a6470	-0.4381368962727441
74	0xbfe423e2014d5b3f	-0.6293802285607412
75	0x3fd814d9e04e2162	0.3762726488571585
76	0x3fe226f420066240	0.5672550797926945
77	0x3fb607375f1dd773	0.08604761192495207
78	0xbfb84c62aa3eff8c	-0.09491554886244397
79	0xbfd52a575e158a05	-0.3307093066015628
80	0xbfb51b4a697be18d	-0.08244767260828763
81	0xbfb54012e61b963b	-0.08300893895974408
82	0x3fc864977cd8e1f8	0.1905698165517291
83	0xbf899a79d1bafb14	-0.012501670563663171
84	0xbfbc5ca826cc274c	-0.11078883120731325
85	0xbfe4fa55148572d5	-0.6555581475073163
86	0x3fc9f1157d9c3022	0.20266979821497083
87	0xbfe7a81beb4e353d	-0.7392711253939194
88	0xbfdf1dacefdda458	-0.4861862509192796
89	0xbfd2817dd8c68abb	-0.2891535393666051
90	0xbfdb50cc68132e73	-0.42680654681746616
91	0x3fc11f86736adaaf	0.13377457271208956
92	0xbfe0558cc36f724a	-0.5104430977913321
93	0xbfd73628794d2846	-0.3626805481513923
94	0xbfb72a15fca878d0	-0.0904859296647118
95	0xbfcd2941fb958fb1	-0.22782158645997933

topology.conv_GAT.lin_r.bias f8 [16]
0	0xbfcdd75915ce9d64	-0.2331343990783622
1	0x3fd0ed3b84cc2a66	0.26447952240474704
2	0xbfcf2caa13f00037	-0.24355054830084708
3	0xbfdcf7aad164bfef	-0.4526164097651408
4	0xbfc351cbfbf97db1	-0.15093374064870838
5	0xbfc61c6e387f2c02	-0.17274263151770702
6	0xbfd468d54f532178	-0.3188985132842599
7	0xbfd97ebf6984131e	-0.3983610659054636
8	0x3fe33ef3775d683c	0.6014344531388427
9	0xbfb7fbc921e8a015	-0.09368569448327009
10	0x3fa8099302b578ec	0.046948045807526956
11	0xbfc08b972a2708a4	-0.12925996359087322
12	0xbf8684c247b36ad9	-0.01099540501893641
13	0xbfdc85842690873b	-0.44564918294973993
14	0xbfcca4474b917f5d	-0.2237633818613131
15	0xbfd84dcc741ef793	-0.379748452567463

topology.convs.0.eps f8 [1]
0	0x3fc2a048b240f5dc	0.14551647857471905

topology.convs.0.nn.0.weight f8 [16, 16]
0	0x3feb85192ac5d4ca	0.8599973521619628
1	0xbfb5dde30ed60a3a	-0.08541697609147372
2	0x3fc7ab82353e94fd	0.1849215278609008
3	0xbfe379dde283dad8	-0.608626310741637
4	0xbfc191745a1a9b29	-0.13725141906362495
5	0x3fd14807276c554c	0.270021236895748
6	0xbfd0862db285f8dc	-0.25818960603636554
7	0x3fcc01355b15c63e	0.2187868780852557
8	0x3fce932e0665f0c3	0.2388665705910907
9	0xbfb9be395ec9565b	-0.10055883945582293
10	0xbfc5d2ae0a08c253	-0.17049193849517738
11	0xbfdb9d530aaa911d	-0.43147731820705976
12	0xbfdb7cb1eb6a55f0	-0.429485778711153
13	0x3fc74d24ca9bd4f8	0.18204173939708546
14	0xbfbc074ea22a0da0	-0.10948649844254144
15	0x3fb2af632773e65d	0.07298869813157567
16	0xbfbda90605013098	-0.1158603441446665
17	0x3fb3ef5656e34099	0.07787074681550833
18	0xbf9031d86ccec665	-0.01581514515027606
19	0x3fde3b5f1ba6bdf9	0.4723737497360783
20	0x3fdb96d932916516	0.4310820573642372
21	0xbfcccdbe2c4bdc0d	-0.22502877390772405
22	0x3fc7457b50a26520	0.18180791318153755
23	0x3fd70c399a6117cc	0.3601211555109074
24	0xbfcc3db01cfade52	-0.220632566595429
25	0xbfd5d1a07374fffb	-0.3409196021566456
26	0xbfd000de97ee8502	-0.2500530704219984
27	0x3fd48dfab4e04333	0.32116573012995103
28	0xbfc5fdbb6b1eea9b	-0.1718057892847654
29	0xbfd6136d2e20888e	-0.3449356985530664
30	0xbfc4ab8c767a7d4a	-0.16148525033075095
31	0xbfd213f832ad9b9e	-0.2824688429740777
32	0xbfd263e8c8ae19e7	-0.2873479804769929
33	0x3fdba1267812c47b	0.4317108318892406
34	0xbfd9c28cd4628bc1	-0.402499396712468
35	0x3fdff86ad1bb9048	0.49953718644815526
36	0xbfca78c7ec342399	-0.2068109420145248
37	0xbfbd8ad566169214	-0.11539968244921567
38	0x3fa452d8acc47592	0.039694567765972924
39	0x3fa32ffbd438b45d	0.03747546163172253
40	0xbfe2c67e7efc5816	-0.5867302398862673
41	0xbfd16203018de8f7	-0.2716071620158255
42	0xbfb1b3d002394dd2	-0.06914997152607974
43	0x3fa5d2d2c9f9b06c	0.04262407985228908
44	0x3fcd9b12ea3b15c3	0.23129497944880315
45	0xbfcbab6b514337ea	-0.2161687990941908
46	0xbfd76b54defb3fbd	-0.36592599654704455
47	0x3fbe985aa3ef8db1	0.11951223852479732
48	0xbfc9113ceede533f	-0.19583856261729157
49	0x3fd191a36b5fea58	0.27451405988509725
50	0x3fd1ab2582e38772	0.27607095510585744
51	0x3fb53654989cfd42	0.0828602669325749
52	0x3fdcae1f92aaed0e	0.4481276447583732
53	0x3fbd59f860ca6e08	0.11465408671431743
54	0x3fb9928bdf8c0636	0.09989237029733364
55	0x3fb4d6e940790828	0.0814042837528467
56	0xbfdf3d166011bb68	-0.48810347921146624
57	0xbfe43cc32e042355	-0.6324172877076345
58	0xbfd8b88bd17d113f	-0.38626380403390564
59	0x3fcaed027fc7f212	0.2103579639368865
60	0xbfbbafe70f2dfd28	-0.10815281029316692
61	0x3fcf391e3cda7c3d	0.24393060656891122
62	0x3fd2ea01f3fd4e4f	0.2955326922139862
63	0xbfd08802718d2c18	-0.25830136384019076
64	0x3fb9a338e7927062	0.1001468243943591
65	0xbfcca700a22ed4f8	-0.2238465110691903
66	0x3fc7f3ff1a427099	0.18713368208125727
67	0xbfcdcbf4beb77a58	-0.23278674423541434
68	0x3fec9e9fca376871	0.8943633031406205
69	0xbfc8e2eeae0e0377	-0.19442542551771755
70	0xbfd232af90913a67	-0.2843436157026304
71	0xbfe034c3b14e71f1	-0.5064409697548041
72	0xbfcbb3fa224543b6	-0.21642996476523785
73	0x3fbb90b02fcaeba8	0.10767651717007587
74	0xbfd065e44de22ff7	-0.25621898275198823
75	0xbfaca4e5fbae5de5	-0.05594557473449039
76	0xbf6ffd8ca241c554	-0.0039050814394207354
77	0x3fcc5d17cea13876	0.22159097279876833
78	0xbfcdd2858d787a32	-0.23298711211914874
79	0xbfeb31d4611466f6	-0.849832715615064
80	0x3fe17f653fe5de7c	0.5468012092596406
81	0x3fbd7bd38f220a14	0.11517069096047577
82	0x3fd758dd9f04d21e	0.36479893235380867
83	0xbfc2936929825b67	-0.1451236202890087
84	0x3f81ee3dc189c3dd	0.008755190342727143
85	0xbfc2d66332db5ed2	-0.1471675871205123
86	0x3fcc8781cc2eb0e7	0.22288534612506014
87	0x3fd7c174f205366f	0.3711826671104523
88	0xbfdd6f5711237fe1	-0.45992066072176213
89	0xbfd34a9420a8b501	-0.3014269179282821
90	0xbfbf13e99463d65e	-0.12139758942415699
91	0xbfb763e71bb36ee1	-0.09136814523975147
92	0xbfe02734713fa314	-0.5047857486616487
93	0x3fda0174621d07f1	0.40633878308665233
94	0xbfc71d5f41753eed	-0.18058386512938487
95	0x3fa587695e555ed2	0.04204873348743167
96	0x3fe45ad181edeb5d	0.6360862291033801
97	0xbfc2f61caeef918c	-0.14813574353969405
98	0xbfd0c0c3c385d11e	-0.26176542371764977
99	0xbfdaf259c11389f4	-0.42104190688237897
100	0xbfb6b63f373ce868	-0.0887183675630766
101	0xbfc9439926fd3694	-0.1973754349113973
102	0x3fb42fd915acb5d6	0.07885510234037638
103	0xbfae8fa9c3003be6	-0.05968981271154643
104	0x3fe6d7420b0c4af3	0.7137766090184797
105	0x3fd91be50dce9c34	0.39232755993220114
106	0xbfd0f14a609310cf	-0.26472720557309243
107	0xbfc31af08754c8cf	-0.14925963027923791
108	0x3fcaa86284e63c6d	0.20826369752146281
109	0xbfaece83d9f063b6	-0.06016933474911161
110	0x3fb3acac0bdf22d1	0.07685351648172946
111	0x3fe338d7c4f34a85	0.6006888243376386
112	0xbfaf68c6ae34bb11	-0.06134625317132792
113	0x3fa65c08865f30f9	0.04367090835839522
114	0x3fc6d4fefa37880d	0.17837512223837884
115	0x3fd798779b4e54c9	0.36868086020087937
116	0x3fd878f3e80755b8	0.382382370558243
117	0xbfcf0bfa7eec594c	-0.2425530547850009
118	0x3fb620ef811fa6e5	0.08644005682404161
119	0x3fbf6408856a4fe0	0.12262013680657402
120	0xbfd6277a09320c7a	-0.3461594667243798
121	0xbfe284ed4094b892	-0.5787264119478712
122	0x3f9369767e70a4dc	0.01895699640968905
123	0x3fcfb1fb6a9a6cb6	0.2476190825007955
124	0xbfc74faaae816cc4	-0.18211873551158508
125	0xbfd2dbde8adb6136	-0.29466975746392465
126	0xbfaf199e509a712f	-0.0607423280136764
127	0xbfb6ca323de036f7	-0.08902277002945512
128	0x3fb456ebe015daa1	0.07945131512483751
129	0x3fc32a1251b67499	0.14972142209891073
130	0xbfc8e1357eeea83b	-0.19437283227790822
131	0xbfe1a766379cd0a9	-0.5516844831640998
132	0xbfe214a809465dbf	-0.5650215321683659
133	0x3f89131404a7faee	0.012243420021147835
134	0x3f9f2094483c8fc0	0.03039771738907837
135	0x3fcec5ed7d8ad277	0.24041527395242543
136	0x3fd8bd0b1458ce2a	0.3865382860851435
137	0x3fdc0744692ea2bf	0.437943556515659
138	0xbfb9040b46b48c7d	-0.09771795726969575
139	0xbfb4f497bfefa8ab	-0.08185718952123248
140	0x3fc7a5dc99efc719	0.18474919811665627
141	0x3fb4b334885faaf6	0.08085945443569273
142	0xbfc6a37e10cb3f78	-0.17686439342514482
143	0x3fdf0a0b4934b40f	0.48498804234515175
144	0x3fa0f2acc79989db	0.03310146271248345
145	0xbfbbe9d51b3d20a3	-0.10903674998292216
146	0xbfa5c89f64d28420	-0.04254625421277347
147	0x3fdff44d54674147	0.49928601496232655
148	0x3fcb31f87130e586	0.2124624779406014
149	0xbfcbb6f945480631	-0.2165214145934882
150	0xbfa44ec6fd23a4f0	-0.03966352310255583
151	0xbfb1396447d8b560	-0.06728197816911097
152	0xbfd7e5e63fc59470	-0.3734069464465568
153	0xbfd859a394e93e85	-0.3804711298189221
154	0xbfd72b059348f9cd	-0.36200084098154833
155	0x3fde962c055598d9	0.47791576882299364
156	0xbf8dd79540232927	-0.014571348209206093
157	0xbfc61c346cbe19f0	-0.17273574170776795
158	0xbfdd479364f15f3e	-0.45749363763524176
159	0xbfc3dc9cb07803af	-0.1551700460113614
160	0x3fc266ff2df68e5d	0.14376821274082632
161	0x3fdbc77fb73f06aa	0.4340514459146144
162	0x3fc83b6216cc1243	0.1893122302355029
163	0x3fd2ec72e349374b	0.29568168826960023
164	0x3fcfe206987e0448	0.24908525892172606
165	0x3fc1921e81adcb36	0.13727170307137165
166	0x3fe04188a134c2de	0.5079997204357729
167	0x3fda5f452d34c670	0.41206483282721873
168	0xbfd655b4eb79e4ad	-0.34898112292973843
169	0xbfd434543df6e132	-0.3156939129944646
170	0xbfcd1656c9115605	-0.22724423234710414
171	0x3fcfa1de75b3a869	0.24712734934957162
172	0xbfd9f8ceaef74c6f	-0.40581099592708986
173	0x3fc87bd752c302bb	0.1912793306455763
174	0xbfae4e382f6780f8	-0.05919051722207941
175	0xbfb34f11ec84e3b4	-0.07542526268379285
176	0xbfd8b62ed97a8ddb	-0.38611956823498667
177	0xbfd885e50f3b4431	-0.3831722878213127
178	0xbfc2c317a5f4d848	-0.14657874682751726
179	0x3fd476ecad266ffd	0.319758576480808
180	0x3fddc1e43c0a4f1a	0.4649592005091435
181	0xbfa6696caafab5a7	-0.04377307498121335
182	0x3fd085c60a865d81	0.2581648924619558
183	0xbfda86fd8a1cd6ca	-0.41448915946544374
184	0xbfb89058d3480864	-0.09595256002651947
185	0x3f94e5146969e6df	0.02040511983293569
186	0xbfbc580f08233400	-0.11071866940183384
187	0x3fd00fcabd776748	0.2509638643510823
188	0x3fd6d7a68caa1243	0.3569122670817572
189	0xbfc0fb9cf7534eb0	-0.13267862392841812
190	0xbfb34054ba7473a3	-0.07520036270257306
191	0xbfd0ddc85b9bd9b5	-0.2635365385644051
192	0xbfd55877dc42a8fb	-0.33352467069438746
193	0x3fb78325a235226a	0.09184489450593394
194	0x3f6066e528d59e2e	0.002002189232985583
195	0x3fcc89827618c7e8	0.22294646040387467
196	0x3fdb9de4b7cb480d	0.4315120501388499
197	0x3fb8647b62a66cbc	0.09528323324632287
198	0x3fbad3e86074510e	0.10479595522730653
199	0x3fd91e7653770cc7	0.39248426581270873
200	0xbfdbeea65bc0b46e	-0.43644103012304114
201	0xbfca2773463ce3b7	-0.20432892732222083
202	0xbfdfbfb4212829f3	-0.49607566106774853
203	0x3fd88d48293819ec	0.38362316155726606
204	0xbfc098fac594e2db	-0.12966856620348363
205	0xbfdf2ba386d7827f	-0.48703849952838846
206	0xbfdb945ed596437b	-0.4309308133897997
207	0xbfc83040692828b0	-0.1889725221120151
208	0x3faf8636931d468f	0.061570840318961755
209	0x3fae630091671ae9	0.059349076985702194
210	0x3fb434f9d7890bb8	0.07893334877102987
211	0xbfd97213c61554aa	-0.3975877222449734
212	0xbfe5b2fc035edd4a	-0.6780986848670321
213	0xbfc8fb44a2f84eb3	-0.19516809422986156
214	0xbfc1dcd2a031cd43	-0.1395514757347006
215	0x3f8e36198c688aeb	0.014751624677108185
216	0x3fe3b9a9355fb995	0.6164136927089198
217	0x3fd3077723844db5	0.2973306509822707
218	0x3fc7521a48fe1039	0.18219307483752958
219	0xbfc96b2f11373c1b	-0.19858349171269726
220	0x3fc4fe6782cfdcb6	0.16401380431464013
221	0xbfb83b3174bd93c8	-0.09465321636305568
222	0xbfbb9a78feabe172	-0.10782581536830607
223	0x3fda2d4a6299135e	0.4090143168326018
224	0xbfe319cce4c2c78c	-0.5968994586930747
225	0x3f6fb4a85d6acd49	0.003870323980061184
226	0x3f871c7ef0c82051	0.011284820292544991
227	0x3fdefc93d998db8e	0.48416610955921946
228	0x3fd3248956fae30f	0.29910500997679973
229	0xbf71bb77d6cdafe0	-0.0043291741575152975
230	0xbfc7831b8f2b7d83	-0.18368858805386531
231	0xbfd07adbe87b23cf	-0.2574987192461408
232	0xbfdc0f3d8550bfce	-0.43843019503674163
233	0xbfdd64676f12b1f5	-0.4592531761834658
234	0x3fa1d0a82c4e63b4	0.034795051010582695
235	0x3fdca2bb040a4cf8	0.44743228334955587
236	0xbfd1646784796b26	-0.2717531961149454
237	0x3fa63d3aa2d17c9b	0.04343589055565041
238	0x3fc25b6b53f3b7da	0.14341489409656455
239	0xbfca85fe1e9d2ab5	-0.2072141313058943
240	0xbf8eaa693bd6c60c	-0.014973470820083733
241	0x3fc3bbb3b39156b8	0.15416570918994466
242	0x3fdfad6bb96218d9	0.4949597654707652
243	0x3fad59b46071c544	0.057325016758918795
244	0x3fdac31a434eb75b	0.4181581170367871
245	0xbfcbefe5b3906a53	-0.2182585837152425
246	0xbfd48e33d3699097	-0.32117934842813994
247	0x3fb44936715f0c81	0.07924213664868952
248	0xbfd6f4c4b89e94cd	-0.3586894801067729
249	0xbfce58d2afe81d8e	-0.23708566273874648
250	0xbfcc182838d80346	-0.2194872167165391
251	0xbfd9bdc79a72e41b	-0.40220823367013886
252	0xbfd52626a326e071	-0.3304535477905182
253	0x3fd6d8057620d4a3	0.3569348958583964
254	0x3fcee6398756802b	0.24140090091987196
255	0xbfe3b4551db4af12	-0.6157632427398048

topology.convs.0.nn.0.bias f8 [16]
0	0xbfc3088b9d2ea454	-0.1486982839099108
1	0x3fc52183edd3bd54	0.16508530724193327
2	0xbfc10873830f68d9	-0.1330704107229568
3	0x3fa515bfbab40540	0.04118155626384601
4	0xbfab1e62e976c5dc	-0.052966204642313136
5	0xbfc5bd595a6cd7e1	-0.16984097399989564
6	0xbfc75080c7e4ebbc	-0.18214425812206325
7	0xbfb4bfb5f7937478	-0.08105027479492033
8	0x3fc0f9645ac1ba7c	0.13261084014398594
9	0xbfb7a80da70d79d3	-0.09240804031785581
10	0x3f8b30635d33d017	0.013275886804400767
11	0x3fc276903843c506	0.14424326655674963
12	0x3fca1981cd7fffb1	0.2039034131448694
13	0xbfca78d08e0d7a8f	-0.20681197105564705
14	0x3fc77f714c6b999a	0.18357673865757534
15	0xbfbd5cb07253d95e	-0.11469557563018415

topology.convs.0.nn.1.weight f8 [16]
0	0x3ff2806041a20d55	1.1563417972364125
1	0x3ff1d46067106c76	1.1143497491782717
2	0x3fed49772d573404	0.9152179608878446
3	0x3ff2abd7e94707ed	1.1669539558793034
4	0x3fe616eb0f220481	0.6902976317943655
5	0x3feca26b88b1b47a	0.894826666813642
6	0x3ff0e30d0d11fd8c	1.0554323683316822
7	0x3fe506af311efae8	0.6570659598727078
8	0x3ff44bd6ef39dee1	1.2685155243652206
9	0x3fe3a9b864c8389b	0.6144678085709246
10	0x3ff1104f72d5513a	1.0664820180582653
11	0x3fe6fd4ad0f22689	0.718419464204275
12	0x3ff3ba626d2b8eda	1.2330040230235029
13	0x3ffc035f8d7e9d47	1.7508235480434722
14	0x3ff3393ab16b9c0a	1.2014719896776591
15	0x3fd9fa92257c5ea8	0.4059186330864386

topology.convs.0.nn.1.bias f8 [16]
0	0x3fd358923d7cbd74	0.30228096012702754
1	0xbfdc21cad836be08	-0.439562522074056
2	0xbfa80deb0bc7e4da	-0.04698118704613714
3	0xbfd144493011b35b	-0.26979283994915243
4	0x3f8fca96909b8c4b	0.015523124969553012
5	0x3fd63f43f0973148	0.34761141295600284
6	0xbf993efb4f194b56	-0.02465431852608487
7	0xbfda55b70b8b27f5	-0.4114816296320208
8	0xbfce11336c992cce	-0.23489992907193485
9	0xbfde0cb1eda66db0	-0.4695248432924144
10	0xbfcea2b0f9433585	-0.23933994456312405
11	0xbfe31fcf33a9d8fe	-0.5976329812099548
12	0xbfba775f84b827b4	-0.1033839892408242
13	0xbfcabbd717d31a5b	-0.20885742820083206
14	0x3fb68754ddcdd406	0.08800249495637055
15	0xbfe44c82c5d1c6a5	-0.6343397010479818

topology.convs.0.nn.1.running_mean f8 [16]
0	0x3fed242e4ca7ef56	0.9106666085421959
1	0xbfe505f5e5e02304	-0.6569776048428086
2	0xbfd8cb5214a77391	-0.3874097062778726
3	0x3fe416528f198901	0.6277249140660218
4	0x3fe5bcd49e6e7fcf	0.6793006033294605
5	0xbf9ee3e8d29a5aff	-0.030166280607399006
6	0xbfe0f7404339a9fe	-0.530182009982411
7	0xbfaff1bafaee1d7d	-0.06239113152610807
8	0xbfe323e8801d0947	-0.5981333257880487
9	0xbfe73afe02fe7116	-0.7259512003397812
10	0xbfe0f80b4b75bf50	-0.5302788232638509
11	0xbfd7754fb9d5f9b4	-0.3665351214221133
12	0xbfebbb0680000ecf	-0.8665802478794492
13	0xbfdca20e2d78994d	-0.44739107552085927
14	0x3fdc2e233dfaf3a5	0.4403160195614027
15	0x3fef87fba2e84295	0.9853494817526377

topology.convs.0.nn.1.running_var f8 [16]
0	0x3faced390d7870d3	0.05649736680445163
1	0x3fb371d448be9fe0	0.07595564628593321
2	0x3f9c49cab3f8a23f	0.02762524341065586
3	0x3fb69ec998b52575	0.0883604047604843
4	0x3fb8f44d6a16196e	0.09747775878904516
5	0x3fb26eb939f6f654	0.07200200715211597
6	0x3fb3a8a6f7bc6687	0.07679217861405095
7	0x3fb6d59b12db1733	0.08919686518046603
8	0x3fb997a33adadea8	0.0999700564087741
9	0x3fb108f435b59eb2	0.06654287635103165
10	0x3fb13f461dd905e5	0.06737173298554174
11	0x3fadea2cbac0f889	0.0584272363635004
12	0x3fb56cbd70b84b55	0.0836904907412593
13	0x3fb8535441e24465	0.09502150162212926
14	0x3fb75c6d1220bd4b	0.09125405972075844
15	0x3fae3261f70ae3e9	0.05897813931137092

topology.convs.0.nn.4.weight f8 [16, 16]
0	0xbfacaf96cd428c85	-0.05602713828673082
1	0x3fc07a4a3a79d4d5	0.1287319932486414
2	0x3fd537e32c26ee68	0.3315360957310305
3	0xbfcafeeed91b00b6	-0.2109049377522802
4	0xbfb163c57adba451	-0.06792864083730989
5	0xbfaaa9399e502dbd	-0.05207233483823923
6	0xbfc1552100c94f52	-0.13541042841336065
7	0x3fcfc004905a5782	0.2480474190567144
8	0xbf9aaf9cd65afd56	-0.02606053407975869
9	0xbfd0043cb1e7962c	-0.250258611426349
10	0xbfe22143e29b1fde	-0.5665606904885825
11	0x3fc7b34444744ab4	0.18515828459256556
12	0xbf8c87c56dbe627e	-0.01393083802376904
13	0x3fe536c64500cceb	0.6629363391606636
14	0x3f75befa70688bdb	0.005309084203449078
15	0xbfbdd1fec9fd7e89	-0.11648552352334653
16	0xbfe96e049a8acba8	-0.7946799295808562
17	0x3fdc1e9c7a2f384a	0.43936836177897887
18	0xbfdf765a56bfcefc	-0.49159868690115593
19	0xbfd167b8ae4cffed	-0.271955652442556
20	0xbfdeb9047b80ac1a	-0.4800425726013501
21	0xbfd5406ee3d166eb	-0.33205768821572573
22	0xbfc0c192a9feeedf	-0.13090737629487756
23	0x3fc70493276e8c71	0.1798271124399409
24	0xbfd1f9c4d5bc58af	-0.2808696830046626
25	0x3fd2e2e76abfbddc	0.2950991194220174
26	0x3fb2b6596e41451d	0.07309493009349351
27	0x3fbc262c6f5a8ba6	0.10995748251529722
28	0xbfc2735f49b4d6d4	-0.14414588068910084
29	0x3f9b24e044cd436a	0.026507858466462343
30	0x3fc9960d9b99e952	0.1998917588969769
31	0xbf88535026f58558	-0.01187765711682924
32	0xbf7a99262c6e8141	-0.006493710628007244
33	0x3fe20c54330334b2	0.5640049930895172
34	0x3fca66617eede310	0.2062494153758725
35	0xbfd09a9e9303465b	-0.25943722111433026
36	0x3f978263e0656d23	0.02295833642106716
37	0x3fa8841a0e9ac144	0.047882856638695986
38	0xbfd7759c385ad1b1	-0.366553359064052
39	0xbfb10914f968a499	-0.0665448292644605
40	0xbfd2a04ff8495c19	-0.29103469130262877
41	0x3fb9f909b0277bbb	0.10145626593246863
42	0x3fd4a4551178d8c4	0.3225300474763453
43	0xbf60b58ddda0bcb5	-0.002039696771155864
44	0x3fd878f9c0c18b90	0.3823837644942438
45	0xbfd2d0c631670b58	-0.2939925653883413
46	0x3fd97520b2130e7d	0.397773908520527
47	0x3fb9c2caa6fe75b5	0.10062853409768631
48	0xbfea6033b6a4794c	-0.82424340889319
49	0x3fa43d2b5ed474df	0.039529185605923216
50	0x3fd8c4aa61183da2	0.38700351220992435
51	0xbfe5165bc227d2e1	-0.6589793006993113
52	0xbf9d6c6384db46c8	-0.028733782752914633
53	0xbfdeb60badbcd4d7	-0.4798611828476402
54	0x3fc14723a756a9bd	0.1349834982950834
55	0x3fc6f1089e8a9ff5	0.1792307638290819
56	0x3fcd964058769bb5	0.23114780730722165
57	0xbf98ced011e9cf43	-0.024226428120939458
58	0xbfe37e8c2957ab9b	-0.6091976935834852
59	0x3fd4f0ee6a19faed	0.3272052799365344
60	0xbfdadfda66f3eb1e	-0.4199129109762668
61	0xbfa0f87899fa8271	-0.03314568404789931
62	0xbfc1792c52566a38	-0.1365104105032786
63	0xbfbdeea54043164b	-0.11692269152543948
64	0xbfdd2a75821ba7ed	-0.4557164927088014
65	0x3fe46781d6c6d909	0.6376351542337783
66	0x3fc30175e6ea45d5	0.14848207259323823
67	0x3fd18dfa451ac796	0.2742906260347068
68	0x3f999821b98772f7	0.02499439902190922
69	0xbfa8ae2053d628c5	-0.04820347808261397
70	0xbfd7938ce1ef8bf4	-0.3683807569888693
71	0x3fe38eb8baaa3225	0.6111720701024451
72	0xbfd2b04f94139a7a	-0.2920111604748069
73	0x3fd5bfb07d96ee00	0.3398247934780727
74	0x3fd6f89dd0e6c724	0.35892434502157955
75	0x3fb96a77b6000686	0.09928081696855359
76	0x3fbc56cd71e2782a	0.1106995013273894
77	0xbfc333f3e5fdcee7	-0.15002297143984508
78	0x3fd7cac2222b0b70	0.37175038658840887
79	0xbfb47faaf15f9730	-0.08007305519967356
80	0x3fc1d1eda8144b2d	0.13921900469775875
81	0xbfd6ee0f5ed84d7f	-0.35828003179741325
82	0xbfd0a6272ad5036c	-0.2601411741525712
83	0xbfd23c8068ab08f7	-0.28494272443289453
84	0xbfa1b1522fe5f246	-0.034555977198554674
85	0xbfdd53ac3d7f2b6d	-0.45823198323767295
86	0x3fda652444d850c6	0.412423197966984
87	0xbfb280b978ed9f56	-0.072276680015077
88	0x3fdad6a1d53956f7	0.4193501074090444
89	0xbfd07938fddd53e1	-0.2573988417764764
90	0xbfe2cfa2125eb567	-0.5878458365238374
91	0xbfc7b9b216bd407c	-0.18535448179546055
92	0xbfae52d7cb0a6da0	-0.05922579148792839
93	0x3fe25d265988aa7d	0.5738708256443058
94	0xbfd994e083102f7a	-0.39971173094885837
95	0xbfb62d15138e6eb8	-0.08662540175867661
96	0xbface054c4e7a7f5	-0.056399010692828634
97	0x3f90f914e0f28353	0.016575170736021615
98	0x3f9ecc915ac476a1	0.030077239193920694
99	0x3fc619666b706348	0.17265014883084917
100	0x3fdd7c1b49b89856	0.4606998653347366
101	0xbfb069ac2b040d88	-0.0641124348658676
102	0x3fc5b72f8ccb3964	0.16965288519572674
103	0x3fa831d1233b968f	0.04725507311904408
104	0x3fe79fb51c42ef59	0.7382455398542148
105	0x3fac05d3bbe7140c	0.054731957137427484
106	0x3fc5b5348c279fe4	0.16959244578833854
107	0xbfc06942ae3e7b70	-0.12821229465495376
108	0xbfbe8957db26b026	-0.11928319073075552
109	0x3fe591dc261f46ca	0.674055170495387
110	0x3fa63e4ac8172dcd	0.0434440011263991
111	0x3fd2382068b32796	0.28467569565383977
112	0x3fb32bd5bf44ac20	0.07488761825213475
113	0x3fde3789a43741bd	0.4721397498770122
114	0x3fd06cf2b4409994	0.25664966204421913
115	0x3fdb8e3dfa49f403	0.4305567688205089
116	0x3fc4d052222c0a21	0.16260744732433444
117	0xbf89ca1ef537f08c	-0.012592546328044095
118	0xbfdcc48e1ae5240b	-0.4494967711112287
119	0xbfa0ae348f5d6610	-0.032579081059065484
120	0xbfb18e8acf29af87	-0.06858127172171012
121	0x3fa665340e1aaa05	0.04374087021036036
122	0x3fd2f600e0678aa3	0.2962648574304387
123	0xbfb6d1f4b2c349ac	-0.08914117206885547
124	0x3fe31804e47c61c1	0.5966820204367239
125	0x3fad160e4d00f9e9	0.05680889787662464
126	0x3fe23202236164ad	0.5686045352005259
127	0x3fcc7c475360f6ca	0.22254268237332148
128	0xbfba989ec8f017ff	-0.10389130025586722
129	0xbfca5de1cf4f2fb4	-0.2059900533916995
130	0xbfdef25bdee6fffd	-0.48354241149718274
131	0x3fd616774f519e6e	0.3451212191198242
132	0xbfc6e37f87b3269a	-0.17881769300429512
133	0x3fbd12afd47f72c9	0.11356638849197077
134	0x3fcadd7c98c8f565	0.20988423786358648
135	0xbfe162fb31679eb9	-0.5433326687752561
136	0x3fcf2fff865981bb	0.2436522871021348
137	0xbfd84e1e39d0c61a	-0.3797679485897746
138	0xbfe1fe8925a17e9b	-0.5623212561585719
139	0x3f9430ddc73d0d1b	0.019717660222579796
140	0x3fb0b30f039097ef	0.06523221814185808
141	0xbfd0cc47f3bfde66	-0.26246832660351627
142	0xbfddccb04d431516	-0.46561820550080435
143	0xbfb6d7a2b547ce68	-0.08922783780854504
144	0x3fb751be851a01f8	0.09109106778669929
145	0xbfd3459cc983f3ec	-0.3011238067554689
146	0x3fc972dd07695105	0.1988178526104393
147	0xbfe343878ad79e8c	-0.6019933425677251
148	0x3f9be20d72cd69cd	0.027229509479505688
149	0xbfd7a6ff747a3a6e	-0.3695677411532533
150	0x3fccd1d91388397b	0.22515405133931296
151	0xbfd2b8b906bb19d6	-0.2925245824557384
152	0x3fc08c6ca70b5b11	0.12928541332686241
153	0xbfb04f81b2cda46b	-0.06371317496599864
154	0x3fb0f1105b0cf8b5	0.066178343037765
155	0xbfd14f0e8e0850f2	-0.27045024748191715
156	0xbfd35be84f7f3be1	-0.3024845863664592
157	0x3fe2223f5d443e76	0.566680605088506
158	0xbfd0ab03cece2d5b	-0.26043791957700585
159	0xbfd57cdebc17761e	-0.33574646347355663
160	0xbfdcde39698ba46f	-0.4510634928433949
161	0x3fd1cec90f49a0b8	0.27824617855959444
162	0xbfc6fd97a89a5165	-0.17961402638014615
163	0xbfc0c6313eb78428	-0.1310483509287519
164	0xbfa409034630f78a	-0.03913126212908853
165	0xbfcd7e87091d69ca	-0.2304238123422933
166	0xbfd35c2ff3f43453	-0.3025016672480138
167	0x3fdd23301bf6e7fb	0.4552727006044958
168	0xbfd5e6e50622c305	-0.3422176895065124
169	0x3fdf91a4d5621cd1	0.4932643970318625
170	0xbfd094f7955b179b	-0.25909223161249323
171	0xbfc91684cac8ec02	-0.19599971677402556
172	0xbfdcd417b75d22ee	-0.4504451075231789
173	0xbfda1577bad9c389	-0.4075602841103821
174	0x3fdcd05e1b56a0ef	0.45021774930729824
175	0xbfcef3131676660e	-0.24179304692079068
176	0x3fbb50dbe63dbe57	0.10670256014940925
177	0x3fbd3799d51a85a0	0.11412965252613683
178	0x3fb03df6bbdd791e	0.06344549261618623
179	0x3fd2117916fc1dd7	0.28231646771061264
180	0x3fc92608a3caa5d9	0.19647319791447052
181	0x3fdf50f8f5d7968b	0.48931716926595276
182	0xbfbf5f635ea579a1	-0.1225492578573495
183	0x3fd1ce7541951ff4	0.27822619823973516
184	0xbfddcf6de6140dec	-0.46578547924602165
185	0xbfb2d79b76950f90	-0.07360240597796364
186	0x3fda10f4b8db0368	0.4072849087934203
187	0xbfd04a7f818105be	-0.2545470013320389
188	0x3fdd744be0f0c713	0.46022316901063326
189	0x3fcb1727b661c7fb	0.2116441383873847
190	0x3fcf3cfc5366a725	0.2440486342650782
191	0xbf7e910f893a8195	-0.007462559402171461
192	0xbfa3b2f87431ad46	-0.038474811729282396
193	0x3fa637436f278eaf	0.04339037639490805
194	0xbfc482803764a503	-0.16023256973975472
195	0x3fc21e2c4278fe26	0.14154580350621976
196	0x3fcfcce5e56317e2	0.24844049168149157
197	0xbfc48112f7383e9a	-0.1601890284659831
198	0x3fdf367f5c45bc35	0.4877012635324179
199	0x3fb4fbef2fc79155	0.08196921268933484
200	0x3fdf42d1d1a06702	0.48845334502549076
201	0xbfa5b7da9ccd72b6	-0.04241831935971645
202	0xbfc1d48e74f6a221	-0.13929920874694893
203	0xbfcae7424f25a3b7	-0.21018246521569292
204	0x3fb0305f4964e46f	0.06323810140465168
205	0xbfde1fb3afd1ed50	-0.4706849305145697
206	0x3f94eafa3b3e6e91	0.020427617898902076
207	0x3fbd4a7b76fe7537	0.11441775946737641
208	0xbfd57cbe4f06ba95	-0.33573873250399205
209	0xbfc1c19b20c6abd0	-0.13872088528054727
210	0xbfe816af8befd2e1	-0.7527692540303087
211	0xbfb10eaa6b038465	-0.06663003075256453
212	0x3fdacd21dc9693b0	0.41877028028312235
213	0xbfe02fcd812a549d	-0.505835296894151
214	0xbfe3ac03f12d3522	-0.6147479734878838
215	0xbfb0ec2954a8722a	-0.06610353772016056
216	0xbfe4fd111003e2df	-0.6558919251247878
217	0xbfd77ead2efde205	-0.36710671986614357
218	0x3fb01e518bcb5b1f	0.06296262419651243
219	0xbfc9aeeaa69f0489	-0.20065053115653012
220	0x3fbd4df5b5bfd15f	0.1144708222125863
221	0xbfb8afad7ec8ab3a	-0.096430629208652
222	0xbfce4f4d12e7ebdd	-0.23679507659093604
223	0x3fc56a4ac6b23118	0.1673062772937406
224	0x3fd0d02ec88e41fd	0.26270646653668434
225	0x3fca4c9a3ca4c5ac	0.20546272240748686
226	0x3f7a77ca466f8bb7	0.0064618970272673415
227	0xbfc38b6bc1608bb4	-0.15269228880160102
228	0xbfca11c7ed71d8e5	-0.20366763204555763
229	0x3fccf8f1e89d1b8c	0.22634719713297746
230	0x3fcd136b7df74dab	0.2271551480358601
231	0xbf9e33b1f5ac6ed2	-0.02949407636616181
232	0xbfd2181ca4eb71f9	-0.28272167306366175
233	0xbfc5d8d13f9a870f	-0.17067924123426123
234	0x3fb08a25d9471196	0.06460796885136796
235	0x3fcbee4f41feacad	0.21821013185885843
236	0x3fbaf93c20d79db6	0.10536552240193128
237	0x3fe223a78248864b	0.5668523354144751
238	0xbfd542e90066b6ef	-0.33220887221510415
239	0xbfcc3336ea639f66	-0.22031294293196452
240	0xbfd221a5d8ad27a0	-0.2833037010174113
241	0x3fe9569de33feab6	0.791823333594343
242	0xbfdbee6d28857e3f	-0.4364273925511703
243	0xbfdc7c533f4c1119	-0.445088207067117
244	0x3fb6d7325a3eed89	0.08922114089266676
245	0xbfd09480d1ccf581	-0.2590639160951796
246	0x3f7a44a6507135f7	0.006413125672293677
247	0xbfbf2f138271325a	-0.1218120759451237
248	0xbfe12bbbbce4851f	-0.5365885438260739
249	0x3fd680f58af32fac	0.3516210419591015
250	0xbf931ff89961cf19	-0.018676647531221755
251	0xbfc291a945ad97f6	-0.14507022764445282
252	0x3fccd9d7ea3e2d7b	0.22539805352822015
253	0xbfe0655e949db757	-0.5123742010743894
254	0xbfcd54f875ea33cf	-0.22915559537469085
255	0xbfc644a65a55ad4a	-0.17397002611992668

topology.convs.0.nn.4.bias f8 [16]
0	0x3fb24b6a6fdc55d7	0.07146325331662894
1	0xbfcf8a46eb3c61ff	-0.24640737997175674
2	0xbfb4e597432f895a	-0.08162827863956093
3	0x3f97c8ca4f644218	0.02322689160888744
4	0x3fbba608daf2b876	0.10800223679936657
5	0xbfc538c6b37bee87	-0.16579517139313202
6	0xbfc5644eea2eafc8	-0.1671236651867487
7	0x3fc2b4d2f9819715	0.14614331419868934
8	0xbf7b0ff8e4f8a78a	-0.006607029193711153
9	0xbfba02ebcf764baa	-0.10160707297317964
10	0x3fc59c3fdc285e1b	0.16883085489165314
11	0xbfce0012678dce18	-0.2343771939882664
12	0x3fcc2601d2e7cbb5	0.21990988538854386
13	0xbfca14334ae54ecd	-0.20374146611231084
14	0x3fc26f78ff58ac63	0.1440268751915453
15	0xbfcc113d5e2af1dd	-0.2192761144450647

topology.convs.0.nn.5.weight f8 [16]
0	0x3fdf8c1ccae4196f	0.4929267865521955
1	0x3fe8526deeaa6cb9	0.7600621854247925
2	0x3fe9b5f4ed42b3e7	0.8034615167613283
3	0x3fe4d16146a099f7	0.6505590800705353
4	0x3ff7a00e63030954	1.4765762202883552
5	0x3ff12e0b5f7ca496	1.073741314883852
6	0x3ff7d341b1dd301a	1.4890763233006568
7	0x3ff2b035a0f39f2c	1.1680198943303806
8	0x3fe34f4f121386ea	0.6034312584926884
9	0x3ff277d3e3afc734	1.154254807854568
10	0x3fea851e8c06e1a3	0.8287499174976357
11	0x3fef83e01f2616a4	0.984848080480067
12	0x3ff3b5209df94061	1.2317205592007883
13	0x3ff2ad8bb273040a	1.1673695536303534
14	0x3fdc6ad15e7e1413	0.44401964404852484
15	0x3ff2b27be555ad76	1.1685751875291692

topology.convs.0.nn.5.bias f8 [16]
0	0xbfde74f019ecb7af	-0.47588732272822204
1	0x3fde149b91632706	0.4700077934072485
2	0xbfd4938059e0dc34	-0.32150276925262067
3	0xbfc7a7c886b14aeb	-0.1848078401258911
4	0x3fe0e1f62db67130	0.527583207399891
5	0x3fced5b069a60b4e	0.24089627417205367
6	0xbfcd1b16e4da2c29	-0.2273892037813721
7	0x3fb6a330f1596627	0.08842759983362979
8	0xbfd2ee5b4e744986	-0.29579813634440943
9	0x3fd96c9fe09fc53d	0.3972549146265754
10	0x3fbe006833d51346	0.11719371095121031
11	0xbf9ad84ba888e380	-0.026215727006476452
12	0xbf964246c1120e8b	-0.02173719933899902
13	0x3fd5dc07604c9192	0.34155449299057594
14	0xbfd8a3de517e0781	-0.38500173528893106
15	0x3fc056f26b45187f	0.12765341031826336

topology.convs.0.nn.5.running_mean f8 [16]
0	0x3fcd4cb8f1a40dfa	0.22890388296956116
1	0xbff3b73cff04dd2a	-1.2322359048537899
2	0x3fba1919d16d8001	0.10194550860387609
3	0xbff253cf9cd19324	-1.145461666653497
4	0x3fcbf4c2586f6cac	0.21840695684554612
5	0xbfda76e45f8e44a4	-0.4135065968667482
6	0x3fe82da5f91b7b80	0.7555723061922066
7	0x3ff10b3d2e693088	1.0652438939023643
8	0xbfe2fb0849149dd7	-0.5931435992578667
9	0xbfd400754779088e	-0.3125279615379747
10	0xbfe857f7fafd2196	-0.7607383634686353
11	0x3fe53954069965d8	0.663248074425776
12	0x3fd197fdf1b1b8f3	0.2749018535895537
13	0xbff8f2494370ddb8	-1.5591519007119654
14	0x3fe2c673dc0e4ade	0.5867251680341175
15	0xbff2b49a4b53904d	-1.1690924589575105

topology.convs.0.nn.5.running_var f8 [16]
0	0x3ff4a74d5c067318	1.2908452601179246
1	0x3ff80186b15cad26	1.5003725937083998
2	0x400359f0785cdeb0	2.4189156916944157
3	0x400ae810a1dec61b	3.3633129736051735
4	0x400b27780237fce7	3.394271867116561
5	0x4013c45fe44f5321	4.941772048322293
6	0x40004cd8a72e495c	2.0375226078987634
7	0x400d91dc156b33dd	3.6962205575314173
8	0x3ff48af3b483623f	1.283923821573026
9	0x400b07386b94b085	3.3785255818129962
10	0x3ffbb83049c81aa5	1.732467926225277
11	0x40029b88bc094411	2.3259443941428875
12	0x3fe3512bcdce1ac5	0.6036585826521664
13	0x3fff7f5ef183e886	1.9685964044752224
14	0x3ff16397e1f8ae29	1.0868147685058693
15	0x3ffcbddcf9b99e8d	1.7963533167730106

topology.convs.1.eps f8 [1]
0	0xbfdf2965a68cec6c	-0.48690167679496343
