src/models/mentor/results/3-channels/synthetic/position/model_weights/2.ckpt (torch, 569303 bytes, 112 tensors)

topology.conv_GAT.att f8 [1, 1, 64]
0	0x3fc6d92266d59588	0.17850141545492826
1	0xbfcb17357741a34a	-0.21164577792230893
2	0x3fc777c176476bba	0.1833421542677039
3	0xbfc48f9fe392d86d	-0.16063307392113604
4	0xbfd181bc14fccdc6	-0.27354337739526746
5	0x3fcf6fc0e6d0558b	0.24559794683652245
6	0x3fb7ca5dffdffe62	0.09293162819812431
7	0x3fbd8996b91c09b3	0.1153806878974482
8	0xbfcd96f1a63ca9ae	-0.23116894356765044
9	0x3fb3f27f6ca5ab27	0.07791897203939567
10	0xbfacad81dc56f0b0	-0.056011255404400884
11	0xbfc30642f5817936	-0.14862858760438663
12	0x3fd089d209f8a02b	0.25841189359425937
13	0xbfa9ebb3c762d3b2	-0.05062639054214148
14	0x3fbaa8ff32821f17	0.10414118750679467
15	0x3fc72d59aa1398ac	0.18107147984045946
16	0xbfc90fa348a04424	-0.19578972860520694
17	0x3fc20a96790195a5	0.14094811352258066
18	0x3fc89a4e71c856df	0.19220905833997556
19	0x3f4b5bd4ef3fc224	0.0008349218101085282
20	0x3fd1332dd9902952	0.2687487244262644
21	0xbfa07dfcd3d2e0b4	-0.03221120916117695
22	0xbfc7a50081b32de0	-0.18472296078685613
23	0xbfd2fff910d52e46	-0.29687334674665455
24	0xbfc2cf9780053e64	-0.1469601988887802
25	0xbfb38531edc14ef9	-0.07625114492958208
26	0xbfc7a1986f5a1301	-0.1846190017423837
27	0x3f910f1cd773a89c	0.016659212732442627
28	0xbfc0e1fbcae98cd0	-0.13189647109820735
29	0xbfc6475c3c71c988	-0.17405274344816868
30	0xbfd14318e8bf9e4a	-0.2697202942785891
31	0xbf902408298b3d1e	-0.015762450729025372
32	0x3fc0e52ec08292d9	0.13199409866242354
33	0x3fc0e5dcf04da4ce	0.13201486333426832
34	0x3f853b29bf823018	0.010366750866772675
35	0x3fb585ddd0243176	0.08407389003349927
36	0xbfab584f0e335c0a	-0.05340811775538874
37	0x3fc8753591074bc4	0.19107694226712912
38	0xbfb89f863eba2af6	-0.09618414908815595
39	0xbfd2035e3f4d03ca	-0.28145557576868596
40	0xbfcf00e2c4a0e8ba	-0.24221453286174272
41	0x3fc8ea1bde360a6d	0.19464443540717316
42	0xbfc6bffdee70fc70	-0.17773412840503822
43	0xbfcb5047c3676c25	-0.21338746110163345
44	0x3fc9b32b73a1086a	0.2007803263277908
45	0xbfccac99ccb39a09	-0.22401735778039747
46	0x3fced74038570e90	0.2409439349267939
47	0x3fd1caca50ac15e1	0.27800233724732776
48	0x3fc3cf64b4fabd02	0.15476664387595213
49	0x3f99fb4858515193	0.025372629538041713
50	0x3f96d40669781be4	0.022293186366393672
51	0x3fc0d8642fd20470	0.1316037400720549
52	0x3fd09c296cde02ee	0.25953136092725415
53	0x3fbabfe4e9cdde2e	0.10449057300672202
54	0x3fcbc1c309e28fa2	0.21685064299265117
55	0x3fbc6cf2eac72cc4	0.11103742820630474
56	0xbfd343d0b6e10b8e	-0.30101411685262114
57	0xbf9e6c7184228815	-0.029710553827165215
58	0xbf7954eb0592c9f2	-0.00618449979190182
59	0xbfc2b0f6edb3c6f0	-0.14602552992396722
60	0xbfc01db151cd0022	-0.12590614790133353
61	0x3fd0d52d425fe282	0.26301127893342635
62	0x3fcd291876a15ac7	0.22781663696760843
63	0x3fc946252965659a	0.197453160489016

topology.conv_GAT.bias f8 [64]
0	0x3f8d7d1ed5860b8d	0.014398804560874523
1	0xbfb51cdbc82c3790	-0.0824715961172997
2	0x3fa31005ea99c1dc	0.037231621635217954
3	0x3fbf230cb3721b36	0.12162856465338909
4	0x3fb3a3022c8253f2	0.07670606218955792
5	0x3fa295bca3f71e16	0.036298651709838634
6	0xbf9146ef9160710d	-0.016872161148158194
7	0xbfb467e03eb0bb1a	-0.07971002131010288
8	0xbfa89955cb86ed1d	-0.04804485425435188
9	0xbfb2ca97b620a246	-0.07340381809684357
10	0x3fbd15b4ad1300db	0.11361245370335686
11	0x3fb5d4262e03ce26	0.08526838897142194
12	0x3f5b733fd5b327d2	0.0016754268061043198
13	0xbfb20358e8faf3e8	-0.07036357582087727
14	0xbf9413340dcaf812	-0.01960450491127836
15	0xbfa70b3c57206908	-0.0450075966220585
16	0xbf54d6352b0afa79	-0.0012717742176132903
17	0xbf79f66eb34e752a	-0.0063385318980213965
18	0xbfbc8935700ab9c4	-0.1114686392345226
19	0xbf9f47d45ec51abd	-0.03054744556836896
20	0x3fc14110ce67829a	0.1347981460412669
21	0x3fa9089a34a6612a	0.0488937558431551
22	0x3fba4b5f12837f38	0.10271257593148853
23	0xbfb0cb1d860c784e	-0.06559929392503358
24	0x3fa2a16778a67ca8	0.036387666204285296
25	0x3fba4fb68f68ff1c	0.10277882577156244
26	0x3fb2ca433bae2e54	0.0733987827972496
27	0xbfb1925b9a1f03d4	-0.06863949310992662
28	0x3fa5af2f01e45754	0.042352169972373815
29	0xbfa7b6f68f2be354	-0.046317772843343846
30	0x3fb782db01462138	0.0918404462919441
31	0xbfb9d5da80c9f8ab	-0.1009193958688878
32	0x3fb5ba145528c10a	0.08487059668619082
33	0x3f5d5a395e964768	0.0017915306328614936
34	0xbfb3f388c4fa78e4	-0.07793478783648627
35	0x3fb48827ae0ebb15	0.08020256041957581
36	0xbfa71e77a766883f	-0.04515432280028663
37	0xbfb2ef0137cbe44d	-0.07395942318170619
38	0xbfb1b887166b713e	-0.06922191903453709
39	0x3f95ec94fa3ee7c0	0.02141030099276242
40	0x3fb67e48c772197c	0.08786444539336985
41	0x3fb73ec1da3138b6	0.09080134942016369
42	0xbfaec2df847e5205	-0.0600805138812213
43	0x3fa00ba48774a788	0.03133882668983207
44	0xbfbbe33fb8528069	-0.10893629312568155
45	0x3fbf3a71b9c5114c	0.1219855383433856
46	0xbfa476a8c60534bc	-0.039967798397449766
47	0x3faa90dc6cccc1d6	0.05188645198939283
48	0x3fa33c6e5e4fdac2	0.03757042790669153
49	0x3fb4d1d5dda2cc3e	0.08132683430703566
50	0x3fbe45bf8769bfbd	0.11825177246077963
51	0x3fb6544919d0f284	0.08722359543112118
52	0x3fb60c78026bbd40	0.08612775858977262
53	0xbfaa3a4057706751	-0.05122567241069354
54	0x3fb17f172fbcc23c	0.06834549823248265
55	0x3f82146d74b7a710	0.00882802498286453
56	0x3f95364595f08bd5	0.02071484306010148
57	0x3fadf3d30d6b7aaf	0.058500857723392634
58	0xbefa64d8e12616b8	-2.5171217268324663e-05
59	0xbfbc8d457cb7079a	-0.11153063101576635
60	0xbfb6d88d4738d3ce	-0.08924181927507321
61	0xbfadb8eed6bd54e2	-0.058051551545455174
62	0xbfb17b6c615914a4	-0.06828954102191404
63	0x3fb6baa79b4e1e44	0.08878562490110037

topology.conv_GAT.lin_l.weight f8 [64, 1]
0	0x3fcfa6d60a377eba	0.2472789335142716
1	0xbfcba746e9839b31	-0.2160423889356138
2	0xbfacccc284d9c779	-0.056249693600775204
3	0x3fd35aaf3ebb88e6	0.3024099457380899
4	0x3f960587af559e33	0.021505470348897226
5	0x3fd3ec55559ef971	0.3112996421949879
6	0x3fc673d05596baaf	0.17540935687198586
7	0xbfc43f583bfa7bf6	-0.15818312576899957
8	0x3f9d87bf1cf28834	0.028838144437607308
9	0x3fc45647d5e520a2	0.15888307518094275
10	0xbfc6ce65b7738b72	-0.1781737466581848
11	0x3fb0c37812d782e1	0.06548262081151847
12	0xbfcab6e84555e106	-0.2087068880607676
13	0xbfc07a6130d47207	-0.12873473057051418
14	0x3fc421d149a7dd1a	0.15728202911825734
15	0x3fb85ee9f9373628	0.09519827207915255
16	0x3fd326690fd41a42	0.29921938462976894
17	0xbf811db1efd9c2e0	-0.008357420093689283
18	0xbfd71b64f936cf80	-0.36104702317538084
19	0xbfb46c757a156991	-0.07977995138700168
20	0xbfc280a0fc701e06	-0.14455044103691267
21	0xbfc1e10ea92d87fb	-0.139680702787757
22	0x3fc97598443347a4	0.19890120821088175
23	0x3fcb1360e171deb7	0.2115288830570898
24	0x3fbcb2d371047b80	0.11210366734711208
25	0x3fc17f54651c580a	0.13669829308554454
26	0x3fbaacefe5638276	0.10420131063757218
27	0x3fa8d33996cbf0ac	0.048486518533509354
28	0x3f698bf4e1c4dfda	0.0031184943055926175
29	0x3fa4767e85b88a2a	0.039966539214465094
30	0x3fbb539a0a837295	0.10674441105534023
31	0x3f8cc918ed0a5aac	0.014055437787914592
32	0x3f8b4a32e3b7372d	0.01332511670525668
33	0xbf92b86003491674	-0.018281459999590813
34	0xbfd06d0f883e02aa	-0.2566565351953992
35	0x3f73f47941c90d49	0.004871820125632206
36	0xbf84d994956c17ce	-0.010180626688008145
37	0xbfd293485848eb34	-0.2902394163281088
38	0xbfd46b688d18ffdd	-0.3190556886584071
39	0x3fd31090e7f72d36	0.2978861108101286
40	0x3fc33afb2a5f2819	0.15023746079379022
41	0xbf9f90afc9dcda4a	-0.030825373359414855
42	0x3fc26a48b10e88b0	0.14386852879858258
43	0x3fc171e5ffc8dba0	0.1362884043644188
44	0x3f86efd7f7a1b73a	0.011199652905101599
45	0x3fce03337283483c	0.2344726857323297
46	0xbfc0e9cccc2d7551	-0.13213500947578408
47	0xbf93a95ff7c5742b	-0.019200801370392078
48	0xbfcf55d204fed98d	-0.2448065304176449
49	0xbf58e5dab4a31984	-0.001519645290089495
50	0x3fdac3ba54346e76	0.4181962797463038
51	0x3f887203132d4f7a	0.011936210654006397
52	0x3fc4ff52116e34e4	0.1640417657003247
53	0x3fbcd5067fded1c2	0.11262550947032593
54	0x3fd5e75e4f57fed9	0.3422466063347947
55	0xbfcfb85e97c422f6	-0.2478140107198425
56	0x3fbc49860b3ef50a	0.11049688124235871
57	0xbfb52994737d5ac9	-0.08266570872852265
58	0xbfcaa553a9637df0	-0.20817037363939006
59	0xbfd4c792e6b2ac32	-0.32468102006049826
60	0x3fc60691799c3238	0.1720754474448698
61	0x3fb30cf79a4cf5cc	0.07441661374192349
62	0x3fca0fae5dcc6736	0.20360354976656375
63	0x3fd2ed60d1779396	0.29573841529627864

topology.conv_GAT.lin_l.bias f8 [64]
0	0xbfe8655db38bca41	-0.7623737818488011
1	0xbfe0232df60bf7c4	-0.5042943769074033
2	0xbfcd572ed0a8d6f8	-0.22922311008885976
3	0x3fcc80fd8e94bdae	0.22268647634471733
4	0x3faed7b019c1f5f4	0.06023931803154517
5	0x3fea6f0cee2ae736	0.8260559703551056
6	0xbfe430cd279eda02	-0.6309572004163899
7	0x3fc26e69a82bce7b	0.14399452887993278
8	0x3febb822a4629026	0.8662274561543242
9	0xbfd7d8e02789c4a0	-0.37261203633449647
10	0x3ff0e0180cf7755e	1.054710436488072
11	0x3fe9a3fcb405679a	0.8012679592168184
12	0x3fcfca6869bf03b6	0.2483644977892518
13	0x3fcfd1b0b80a8303	0.2485867403638836
14	0xbfeb1fc50d31bdc1	-0.847628141183968
15	0x3fd7c22bb0b85d40	0.37122623689488776
16	0xbfd4c750b3298a6a	-0.3246652364379431
17	0xbfd6545532925d88	-0.34889726580282643
18	0xbfe76ae269316892	-0.7317974142599886
19	0x3fd0fa7636eb283a	0.2652869736017497
20	0xbfeb3f743cabf862	-0.8514958558078087
21	0x3fe01a92073a4502	0.5032434598125806
22	0x3fd18b34b0bcbcf1	0.27412144908426145
23	0xbfd0ad782a0ca0e6	-0.26058773142223257
24	0x3fb4255f1654eaf6	0.07869524283607263
25	0x3ff08c1b6e72bd1e	1.0342058481581442
26	0x3fc7178b6ab51c34	0.1804060240776565
27	0x3fc13f5ee4e0a910	0.13474641967452117
28	0xbfde2fd04afe47a4	-0.47166831325113834
29	0x3fbfcbb8c891aeca	0.12420229813295261
30	0x3fceb097e95f5ed6	0.23976420302527995
31	0xbfb499d493adcc54	-0.080472265295428
32	0x3fd0bd0241b277f3	0.26153618255364036
33	0x3fdb7d0f96324c78	0.42950811069130834
34	0xbfe9af7cd161fe62	-0.8026718225009513
35	0x3fd4fcaf298453d3	0.32792262129197275
36	0xbfd4a39becea3a3c	-0.32248590599275295
37	0xbfd970e26a08e534	-0.39751491885143087
38	0x3f8afa3a20cc6ecd	0.013172582746441642
39	0x3f90392a63febd72	0.015843069413390372
40	0x3fb845d07e97fe7c	0.09481528368632469
41	0x3fe44015e9b90b58	0.6328229489230166
42	0xbfe03df24812015e	-0.507561817896242
43	0xbfeec1e82ee662f4	-0.9611702838911627
44	0x3fb1c51cdb8367c3	0.06941395148478961
45	0xbfe5fdbdf9aad47c	-0.6872243763269945
46	0xbfe34df30b8856cb	-0.603265306973037
47	0x3fdcc8541d4b4e12	0.44972708569295705
48	0x3fcfcc38a8baa8f3	0.2484198402283436
49	0xbfd2d1fb5b1e94be	-0.2940662755812119
50	0xbfe67c2d3ac64494	-0.7026582858981265
51	0xbfe2fcd8489f16f6	-0.5933648508441525
52	0xbfe98e05ca0eecd4	-0.7985867449237056
53	0x3fe85f4f70e9372a	0.7616345601361207
54	0x3feb79c780db3a52	0.8586156384206538
55	0xbfee9c2caa60db32	-0.9565642669393581
56	0xbfe7f7b64d562722	-0.748988295600814
57	0x3fd2e33ec9f8eedd	0.295119950522105
58	0xbfc431a0331089a2	-0.15776445859326055
59	0xbfe5f872bca4d9d0	-0.6865781483127709
60	0xbfc205ceb6982120	-0.1408022300313485
61	0xbfe05c67dafab784	-0.5112799908581427
62	0x3fed4dc67618f0ef	0.9157440477934226
63	0x3fee49053fa8aa82	0.9464136355721424

topology.conv_GAT.lin_r.weight f8 [64, 1]
0	0xbfd0d7ba520bb175	-0.2631669808604536
1	0x3fd2d476046954af	0.2942175906258155
2	0x3fb1ad793bf6f668	0.0690532466314494
3	0xbf9f57c1dc2cc070	-0.03060820490208055
4	0xbfc78a646fe6fd93	-0.18391089881877729
5	0xbfb6a7955a764548	-0.08849461992783347
6	0xbfc222232f598b07	-0.1416667920303427
7	0x3fb84ebd99a50a5c	0.09495148659792946
8	0x3fa3e659f8dada36	0.03886681711940236
9	0x3f8799dc3b506164	0.01152393394481583
10	0xbfd27652741ebdc4	-0.2884718069062411
11	0x3fc9124f55843b6b	0.19587127376186272
12	0x3fb31d9d94e296a9	0.07467064747705855
13	0xbfbf6f85a54859d0	-0.12279544148655153
14	0x3fb9a6c9f97d2df7	0.10020124760665526
15	0xbfc7c30772c84355	-0.1856393156490649
16	0xbfd0061fe0531531	-0.25037381083196225
17	0x3fc0174f6fb21da4	0.12571137384314313
18	0xbfc42d19b695fe54	-0.1576263562710546
19	0x3fb8d57bd3879b9e	0.09700750269222033
20	0x3faae1580482a792	0.052500486898977475
21	0xbfb70bf983a6d098	-0.09002646888876809
22	0x3fd308bda410c650	0.2974084951593783
23	0x3fc9c0b42b5ce03c	0.2011933528644948
24	0x3fab540dbb9c4118	0.05337565341153744
25	0x3fd30a904300d318	0.29751974623950295
26	0xbfd2f826c65f5352	-0.2963959634046677
27	0x3fcb65d1efd8034c	0.21404480181811392
28	0xbfbf80d145dfd982	-0.12305934863966253
29	0x3f7b1866e1e9799d	0.00661506832565664
30	0xbf9e9fa45097d1ba	-0.02990586034680274
31	0x3fc0d37a561b516a	0.1314537926142621
32	0xbfc67e8d5c596420	-0.17573706635701658
33	0xbfcdd43d05df75b6	-0.23303950106394006
34	0x3fb2a31ad172e02e	0.07280128110403503
35	0xbfb22e3702d2b7e5	-0.07101768320964615
36	0xbfd02d87a43fd338	-0.2527789215085252
37	0x3fcbfe44e61bc8ec	0.21869717822807588
38	0x3fcaea7a74a38b1c	0.21028071112876823
39	0xbfbe2d899f220698	-0.11788234839516532
40	0x3fc349e3923c27f7	0.1506924118078243
41	0xbfb4b7a328c0847e	-0.08092708344385532
42	0xbfacdb7a4791556d	-0.05636198161725301
43	0xbf72f347d4f09189	-0.004626541703178674
44	0xbfa444b3659f5492	-0.03958664527423496
45	0x3fc9fd088835db0e	0.2030344643678394
46	0xbfc0bbc89a7e183f	-0.13073070090848835
47	0xbfbcee3fe28e5694	-0.11301039963867715
48	0x3fb7690451cde416	0.09144618031668048
49	0xbfc672cbfd457c20	-0.17537832133072673
50	0x3fcccb11c17220b3	0.22494718499752295
51	0x3fb978a32a66427a	0.09949703011649005
52	0xbfd073cea2b6de4c	-0.2570683087355732
53	0xbfcf6d6ae70d5ea6	-0.24552665979239413
54	0x3fc5de8a42c8167d	0.17085388432331064
55	0x3fd1106120f55a6b	0.26662471979708496
56	0x3fb3876e00c29a85	0.07628524321135373
57	0xbfd23c5fdceabb04	-0.28493496488492576
58	0x3fb23860ddcf300c	0.07117276587740679
59	0xbfb027851ebef542	-0.06310302734978726
60	0x3fcb717a7fc872bc	0.2144005893650468
61	0xbfcaef741d80a926	-0.21043254318767274
62	0x3f605cc8ffaff669	0.0019973684079548815
63	0xbfd28a0dd38bcb2d	-0.2896761480216579

topology.conv_GAT.lin_r.bias f8 [64]
0	0x3fdae2435e37fbf2	0.420060007105291
1	0xbfe8b5a1efb8cb00	-0.7721719438617072
2	0xbfd66227baa4dd6e	-0.34974091746285907
3	0xbfd886757cbd0fa2	-0.3832067220830543
4	0xbfe039d0bae7fd0b	-0.5070575380813421
5	0x3feafb278a17883c	0.8431585023029196
6	0xbfc18704780c5572	-0.13693290578582268
7	0xbfe0d24c4877a7ca	-0.525671140230082
8	0xbf91d12792087218	-0.017399423874041003
9	0xbfb17f70903ef8c8	-0.06835082551603755
10	0xbfe6b8ea707c7eb0	-0.7100727269170957
11	0x3fba0e56d0e8925f	0.10178129768662235
12	0x3fdd43d5627f65ae	0.4572652303591792
13	0x3fe2d55d140e3f6e	0.5885453597747821
14	0xbfe3486323375322	-0.6025863349737828
15	0x3fd8ccdb217545d0	0.3875034167041038
16	0xbfe9b926aa544774	-0.8038514448873983
17	0x3fe1cfc362a63e90	0.5566117216821613
18	0xbfc83d053fdbd772	-0.18936219804862336
19	0xbfe2bcc4d9337dfe	-0.58554308340166
20	0xbfe9d89329844cee	-0.8076873598933199
21	0x3fe97d76231e5246	0.7965651212603653
22	0xbfef2939ce0cfcad	-0.9737824463299113
23	0xbfca442e30798dda	-0.20520570151266676
24	0x3fd89cbf71b4b67b	0.3845671282204887
25	0x3fe057da8fcba3c4	0.5107243355279185
26	0x3fc98d6100654742	0.19962704200093567
27	0x3fea3384260536d6	0.8187885992608368
28	0xbfd7c772b252897e	-0.371548341887454
29	0xbfb1b033e3b89791	-0.06909488973232515
30	0xbfc123acb9b89c32	-0.13390120571531977
31	0xbfcb9809f2af36e1	-0.21557735776735057
32	0xbfd5fb52eb58c930	-0.34346459372604254
33	0x3fa4455bb73efd98	0.03959166156664223
34	0xbfecb7440d4ff5f2	-0.8973713169104356
35	0xbfd1504cf9d9973b	-0.2705261650029233
36	0x3f9ca2bca29f4bba	0.027964541841196434
37	0x3feae2bc5dd98503	0.8401777108194043
38	0xbfe0b55c0680b632	-0.5221386076934265
39	0x3fd61704295944c0	0.3451548007770491
40	0xbfd0a6a66b58248c	-0.26017151339380784
41	0xbfe398e2cd8b7f57	-0.6124128355549868
42	0x3fe027e24d05b69c	0.5048686508505003
43	0x3fe69fc65952c9cb	0.7070037598226063
44	0x3fac4de4c19c0576	0.055281780847518044
45	0x3fdf0c740d8b5455	0.48513509104424674
46	0xbfd0655bfe6bd6de	-0.2561864838201994
47	0xbfdb8287d5be67b0	-0.42984195588507657
48	0x3fe73ec4d9ea0f60	0.7264122253550163
49	0xbfe49310123ad618	-0.6429519992877344
50	0x3fe5aa2a5d885b91	0.6770221545037761
51	0xbfeaad068288d900	-0.8336212682250164
52	0xbfc589b54864266a	-0.16826501879431827
53	0xbfedd8aeb2a4b62d	-0.9327004899147987
54	0xbfeddc20b7bd5918	-0.933121069780813
55	0xbfd6193b1b8c1911	-0.34528997125779975
56	0xbfc4a8c9ff6b1725	-0.1614010331306243
57	0xbfde63862f05e733	-0.47482447235198605
58	0x3fe5db0c59ee332c	0.682989287991949
59	0xbfeb5bd57d6f298a	-0.8549601983916528
60	0x3fd21542e712f2c8	0.2825476891119192
61	0x3fc9abfb20b98520	0.2005609426296724
62	0xbfc18dcce801c5e3	-0.13713990524733707
63	0xbfdef6050fb2fef3	-0.4837658551514174

topology.convs.0.eps f8 [1]
0	0x3fa2929d9ae7a8fb	0.03627483859948374

topology.convs.0.nn.0.weight f8 [64, 64]
0	0x3fc8a0f88c615cb8	0.1924124417734896
1	0xbfa2f2aa96414ef0	-0.03700764736336548
2	0x3fb5e773ba04618e	0.08556292811807095
3	0xbfc98ee81cfd9ff6	-0.19967366614878274
4	0xbfa2a004374bbd4d	-0.03637707877157457
5	0xbf434628aba1b34e	-0.0005881975732911855
6	0x3fc393da2bd4e403	0.1529495920201783
7	0xbfc90535f9723b15	-0.19547152214041633
8	0xbfb220e59e362348	-0.07081446755013332
9	0x3faff04cf9dd9b0e	0.0623802237521912
10	0x3f90841df6084356	0.016128986493700502
11	0xbfb8a7de45755212	-0.0963114661765945
12	0xbf9981cc0df2c3c0	-0.024909199096047052
13	0xbfc9480f5f0d18e1	-0.1975115980259892
14	0x3f983a70fb2e680a	0.023660435992134445
15	0xbfb6a4bd2f277700	-0.08845121766304587
16	0x3fc8a646e8d531fe	0.19257437104023717
17	0x3fc3500b5643c8fe	0.1508802577223562
18	0x3f78294727ad6ab8	0.005898740719966149
19	0xbfc31e53942655e4	-0.14936299070238512
20	0x3faf03c260629bc2	0.06057555605484978
21	0x3f853e232d5d170b	0.010372423955810747
22	0x3f871d2f5e40f540	0.011286134780784551
23	0x3fbbf7fc80c295a6	0.10925272124821692
24	0x3f6be16db4d551b6	0.0034033911421522357
25	0xbf9f6c55bc0a8976	-0.030686702348825055
26	0xbf54975e5f714e5c	-0.0012567922219845129
27	0xbf923edc8a529f72	-0.01781792253737486
28	0x3fa09487c0c2460d	0.03238319614423455
29	0xbfc95bf32415a7f0	-0.19811858426993423
30	0x3fa1673353d62c6c	0.033990482315027076
31	0xbfc9096a9d543ece	-0.19559986764988085
32	0xbfa5eac50f3ee345	-0.04280677615265075
33	0xbfc27148a207a22d	-0.14408214484798645
34	0x3fb481137982b72e	0.08009454456870621
35	0xbfc3a60917eac368	-0.15350450198959753
36	0xbf90eff10039353c	-0.016540303839339673
37	0x3fc4915379f17dcc	0.16068499998344377
38	0x3fa51d58473bccf0	0.04123950833845835
39	0xbf94067f3243e32c	-0.01955603355688422
40	0xbf9a479c6d9876cc	-0.025663799466306966
41	0xbfaaae9467c71e7f	-0.05211318747347792
42	0xbfa39b03629155e4	-0.03829203203410339
43	0x3fc22adf6a74d0c5	0.14193337152540245
44	0xbfa2f0b3f33d16aa	-0.03699266761991045
45	0x3f99bee7bb87ed9e	0.025142308064443612
46	0x3fcb48e7693f129a	0.2131623519800499
47	0xbf86a12b664e21b9	-0.011049593982321736
48	0x3fadfd67348f82a6	0.05857393757446987
49	0xbf70c09e66bbb804	-0.004089945559583089
50	0x3fcb9543b821d4e8	0.2154926919062412
51	0x3fb44b3045aa9891	0.07927228642310725
52	0x3fb60f9117719356	0.08617502996783108
53	0xbf86e65668a40b20	-0.01118152148092616
54	0xbfc765798d895b3b	-0.18278426562275193
55	0xbf7267c1b38e420f	-0.004493481298496706
56	0x3fb5af089b30aca8	0.08470205105611461
57	0x3f5ffd505932a756	0.0019524845745686101
58	0x3fc5458704ba4702	0.16618430834619607
59	0x3fbcfa98f3e1bca4	0.11319881395478376
60	0xbfa7293ee830f522	-0.04523655495038727
61	0x3fc15479248a081c	0.13539041790142015
62	0xbf16f60a022e6565	-8.7589608070001e-05
63	0xbfc719d3df5397f7	-0.18047569660774318
64	0x3fcfcd2e865075f6	0.24844914968791415
65	0x3fd230029edfbdd7	0.28418031230009205
66	0x3fd086cac694f874	0.2582270564342999
67	0xbfb721aaa75795a2	-0.09035746179104945
68	0xbfc4bf7b4a42743d	-0.16209355474430423
69	0xbfd033e2d6be5e8e	-0.2531668755632176
70	0x3fc183f202f24013	0.13683915275441957
71	0x3fad994e706df320	0.05781026003294287
72	0xbfcaa91d0ab33f60	-0.20828593275518426
73	0x3fd23cfea9b88864	0.28497282575893323
74	0xbfc9d3c10073e070	-0.2017747165880368
75	0xbfcea755e6dd6506	-0.23948167584129737
76	0xbfc248b287eaf656	-0.14284354817020767
77	0xbfc2f35e9911adc4	-0.14805204843592723
78	0x3fb583bb8239f17a	0.08404132775644327
79	0xbfbbea2284523cce	-0.10904136400698691
80	0x3fb013c66d35f2bc	0.06280174413945877
81	0x3fce7e5c3f692d6e	0.23823121162636646
82	0x3fd04f9f9f69c30e	0.2548598343628762
83	0xbfcacadc4aba5c41	-0.20931581162287397
84	0x3fc2206ec74a1a7e	0.14161476832324021
85	0xbfa7ad07a98d1fc2	-0.04624198860852814
86	0xbfc45df3c119cd19	-0.15911719254254633
87	0x3fbd73d13f5b3ede	0.11504848286426347
88	0xbfd20d89ba760968	-0.28207629403200096
89	0xbfcdd63bf8d5c624	-0.23310041093968537
90	0xbfcb10c61160c654	-0.21144939278160513
91	0xbfc474d45edc07da	-0.15981535560427923
92	0x3fc35e698806bd7e	0.15131873266134827
93	0xbfc04b29ca5531da	-0.12729380015879493
94	0xbfc8e8d8b7aaa782	-0.19460591285797696
95	0x3fb0837e70c5bb6c	0.0645064378092976
96	0xbfb73a5cfb12ce52	-0.0907343018505398
97	0xbfc480f729b3d234	-0.1601857141137245
98	0x3fcb2e30e6a85dfa	0.21234713804800248
99	0xbfa9fa79b72d17be	-0.05073910103833111
100	0x3fc58bc50b397b95	0.16832793281625116
101	0x3fa60e4aeabafc28	0.043077794221510424
102	0x3fb91daba4d11e46	0.0981089856514866
103	0xbfaed36b9bcb18d8	-0.06020675923132196
104	0xbfb4ed1229a0570e	-0.08174241558330328
105	0xbfd229517e7ffbb2	-0.28377187112340174
106	0x3fcfd07384b43090	0.24854892711335141
107	0x3fa41441e079b778	0.039217051173962625
108	0x3f825627207043e8	0.008953385999150812
109	0x3fcab015995ef9b4	0.20849866856401678
110	0x3fd091c983741626	0.258898142216227
111	0xbfc1f59fd82a3e8e	-0.14030836157734367
112	0xbfba598ca4af0d0c	-0.10292891522026454
113	0x3fc83e27694296bc	0.18939678802160198
114	0x3fb7a3dd86f2dfba	0.09234413666388167
115	0x3fc3156127019924	0.14908995060540875
116	0x3fcc05fd78d40982	0.21893280410592914
117	0xbfc608e67d296f37	-0.1721466170446264
118	0xbfc999bc689e3dc5	-0.20000414951617365
119	0x3fba2e040aab783e	0.10226464519971132
120	0x3fc31ca1ce74e7ea	0.14931128102199348
121	0xbfcc1d69eebf3a1c	-0.21964763791625408
122	0x3faf96eebc0e7cc8	0.061698399025084394
123	0x3fcb425ba26c5eaf	0.2129625838358513
124	0xbf815a1f157daf2f	-0.008472674220420721
125	0x3fb8f5f1ed81b914	0.09750282333854826
126	0xbfd1956344e97bcb	-0.2747429058999244
127	0xbfa3200fd08bedc0	-0.037353986937854966
128	0xbfa8b9054ace3488	-0.04828659570839827
129	0xbfc3249e38312e3a	-0.14955499404674005
130	0xbfc4cf5701135b12	-0.1625775103809351
131	0x3fa315a6bdab8f54	0.03727456155118483
132	0xbf94aba7edc51fd0	-0.020186065566377753
133	0x3fc24f7ade29db42	0.14305053565814246
134	0x3f9011989ccd17f8	0.015692123957045084
135	0x3f7247296bf480fe	0.004462396434320446
136	0x3fc79078311a19e2	0.1840963592296268
137	0xbfc026fe1214bd34	-0.12618995554792323
138	0x3fbeeca2a0433472	0.12079826748522907
139	0x3fc8f9b0c05bb8d6	0.19511994736189447
140	0x3fa6d3ca071c5802	0.044584573143012576
141	0x3faf67d54e9b70fe	0.061339059682468985
142	0xbfc407bab7c237ae	-0.1564858815440266
143	0x3fc6dc17de181dfb	0.17859171242183422
144	0x3fb413748dcbfb02	0.07842186414562138
145	0xbfc3288bad7d4396	-0.14967485400350417
146	0xbfc2d37d95829774	-0.14707917976664542
147	0x3faef918feefe2ce	0.0604942141725978
148	0x3f8ff74e6b03341a	0.015608418122065305
149	0x3f88c46dca6038c4	0.012093408335229212
150	0x3fbf7c5508557dfa	0.12299090817895567
151	0xbf9afe0b03d3449e	-0.026359722240901655
152	0x3f94549bbae70142	0.019854005129446912
153	0x3fa70f47bba09114	0.045038453725540745
154	0xbf9f280b0aa8b108	-0.030426189923830754
155	0x3fb2021a45308de2	0.07034458340836339
156	0x3f729b9710bffeac	0.004542913531622322
157	0x3fa3b03720f417f0	0.0384537914015225
158	0x3fa1ee0f314959d0	0.03501937367098018
159	0xbfa0f54f50d7b573	-0.03312156545494362
160	0x3fb3fb3fcf8a5ace	0.07805250946908446
161	0xbf9327ba7bed2116	-0.01870623952280067
162	0xbf9c4453f2ffe2b6	-0.027604400354877177
163	0x3fc4620eff541d85	0.15924251048293683
164	0xbf9a9b098e11909a	-0.025982045456104254
165	0x3f90adb7dcfcd3ca	0.016287682402623273
166	0xbfc6755bea7207d2	-0.1754565138581357
167	0x3fa196a786e405da	0.03435252687087216
168	0x3fa6811b7a6f677d	0.04395376081056577
169	0x3fc1d2bb2b12132d	0.1392435035997094
170	0xbfc7d786d982f6dc	-0.18626485462839681
171	0xbfc868f90ae96eb8	-0.19070351631932225
172	0x3fbc7a68440d7641	0.11124278699340896
173	0xbf7b781824357dac	-0.006706327726845467
174	0xbf63887a075fd2ff	-0.002384413087379022
175	0x3fc56d921044671f	0.167406328146904
176	0x3fbbdf912d3caec0	0.10888011316699941
177	0xbfb00ea39fb7d134	-0.0627233757912265
178	0xbfc244dc5fcabc6e	-0.1427264659627982
179	0xbfbb62a78d803624	-0.10697409824953091
180	0xbfaff2e7074e134e	-0.062400073663445896
181	0xbfa5999da08e4332	-0.0421876200190411
182	0xbf9cd657e9afde5f	-0.028161405218240506
183	0xbfbc87defd066dba	-0.11144822766657728
184	0xbfc2ef83f57427e6	-0.1479344318871078
185	0x3fc25d4455478483	0.14347128070861367
186	0xbfbd80ef6d29be9c	-0.11524864592660794
187	0xbfc52ef353e8c576	-0.16549531552440627
188	0xbf96b2160c2267c6	-0.02216371964514232
189	0xbfafa17685d7759a	-0.061778739774790384
190	0x3fc3e1f8ceabbe68	0.15533361522055888
191	0x3faf7193b9312a1c	0.0614133990826142
192	0xbfa1c0aa60dfdcc4	-0.03467304642247762
193	0x3fc4224d5c459ae9	0.15729681973899481
194	0xbfa4f4c9e6b8b550	-0.040930089391944535
195	0xbfbbb54b9394a950	-0.108235095529982
196	0x3fb560132591180a	0.08349723498494668
197	0x3f7c242d37f5c7ef	0.006870438227780425
198	0x3fc313567c35a326	0.14902764382284167
199	0xbfbe573509e8d0d2	-0.11851817600183104
200	0xbfa467a4b81ed414	-0.039853236652028695
201	0x3fc5fafd362fe6c0	0.17172207971434794
202	0xbfc1d3edb33977cd	-0.1392800450439026
203	0xbfbbfc5f929f2a46	-0.10931966142303748
204	0xbfa78b3bdf207ab4	-0.04598414515225127
205	0xbfc1485bcd50035c	-0.13502070927645604
206	0x3f3437a6e20e0bf8	0.0003084928921951997
207	0xbfc078cddce76f06	-0.12868665014581654
208	0xbfa734d979087038	-0.04532508470967439
209	0x3fae2dd70eeb3aac	0.05894348199000396
210	0xbfa3ee22622bbcb9	-0.038926195605989596
211	0xbf72f8a0cca72f54	-0.00463164150501057
212	0x3fba3825f37c1534	0.10241925425005577
213	0x3f9771bc91d061a3	0.022894808196811344
214	0xbfb174fd1bdd1206	-0.06819135599386791
215	0xbfc306c15898e1e4	-0.14864365411791802
216	0xbfbbe0dc9213785a	-0.10889986578283253
217	0xbfc0bfa571135716	-0.13084857960955593
218	0xbfbf263f65da046f	-0.12167736279117645
219	0xbfc8b885f1b5c012	-0.19313120176548232
220	0x3fb960121192519a	0.09912217072480303
221	0x3f93286351b8db71	0.018708755362435384
222	0xbfbf3c488636244b	-0.12201360012672173
223	0xbfbdef5ee382f228	-0.11693375639419712
224	0xbfc39beab624409b	-0.15319570439942684
225	0xbfb18ac8bf1d0ac3	-0.0685239283166466
226	0x3fb0e5ba0cb01962	0.06600535211336969
227	0xbfaf68aee7bee37c	-0.06134554461409089
228	0x3faff69ed29e44b4	0.06242843934081446
229	0x3f8603ed3836d24c	0.010749676969546894
230	0x3fc24a28aa2bd0d2	0.14288814839495118
231	0x3fa479025dad0881	0.03998572724823735
232	0x3f95a47db0aaa302	0.021135295780058357
233	0xbfc8a87e869a1978	-0.19264203617440123
234	0x3fc6c69f878c2562	0.1779364978649865
235	0x3fc7cc0fc5d29384	0.1859149661951528
236	0xbf9351688b511e2e	-0.018865235808588725
237	0x3f9a8fec5cebf524	0.02593964879178147
238	0x3f98f50beef34679	0.02437227865158895
239	0x3f8de3c532d61dac	0.014594593633559715
240	0x3f952b604116d81c	0.02067327878258861
241	0x3fb3e7e830303f83	0.07775736977077767
242	0x3f83c7c38ec0dfb2	0.009658363145817226
243	0x3fa6a3c4d9ed9c37	0.04421820793395919
244	0xbfa40e2ab23edcc2	-0.03917058397149155
245	0xbfc9cb75ff744a2a	-0.20152163480141044
246	0xbfc416f0d4082697	-0.1569500956832612
247	0xbf7a715eb23a8a48	-0.006455774218610495
248	0x3f6066a96640997a	0.002002077921150644
249	0xbfc0c86e6ef41f50	-0.1311166803136481
250	0x3fa93a8c94e0f808	0.049274819539718406
251	0x3fa0db51c199950e	0.032923273928455385
252	0xbfc97b5e3f8838a6	-0.19907739736703894
253	0x3fa61b20843b9ad8	0.04317571272058779
254	0xbf7c4e082844e47c	-0.0069103544849947705
255	0xbfa5bf8b5c35dfbd	-0.042476992612989296

topology.convs.0.nn.0.bias f8 [64]
0	0xbfba31eca08a0b62	-0.10232428473868319
1	0x3fae0d4c12ed0436	0.05869519930866611
2	0xbfb6cb274e22fbb8	-0.08903737695344105
3	0x3fa92e3de5793aa5	0.04918092180434045
4	0xbf7bf259be6ca736	-0.0068229203814469865
5	0xbf88575b914e85b2	-0.01188537156287137
6	0x3f7b9284cf04827e	0.0067315280760175105
7	0xbfb520a4e085dd12	-0.08252935868755554
8	0xbfb5640a343f655a	-0.08355773711754946
9	0xbfb3bd61b847ec82	-0.07710848568960851
10	0x3faec92915d3c0de	0.060128482737015196
11	0xbf995290fab92abb	-0.024729028037010475
12	0x3f95445a0331fc9a	0.020768553204558594
13	0xbfa4aa33534a03c1	-0.040361026684883956
14	0x3f9c212a095442b2	0.02747026140156334
15	0x3fb84739221e42d1	0.0948367794319538
16	0x3fabaa7c149f5974	0.05403506995905874
17	0xbf9c2f8b256cf988	-0.02752511421135176
18	0xbf9186260edbfa24	-0.017113299042643373
19	0xbfaf7e372f86ec0b	-0.06150982337154439
20	0xbfb2ccb8ce20b430	-0.07343630821624525
21	0xbf53fc2c8037031a	-0.0012197908953199333
22	0xbfa91bee46dc6f5a	-0.04904121985438677
23	0xbf9f2f6911efccb0	-0.030454293937464072
24	0xbfab8d2b316fff26	-0.05381140688404988
25	0x3fa3d3ce56fc7dc4	0.03872532665104303
26	0xbf74fcfb6ef77d70	-0.005124075090378141
27	0xbfbf32a726d41e22	-0.12186665246928688
28	0xbfbdced18fad9ad5	-0.11643705137030776
29	0x3faf1b99055d1ff8	0.06075742903209397
30	0x3f982362219de3a8	0.02357247667484655
31	0x3fbc662b6e7eebb0	0.1109339852109048
32	0x3f96257af27d9168	0.02162735085529857
33	0xbfb24b25da9623fe	-0.07145916544517658
34	0xbf90a8bcde6a55a3	-0.016268683505207836
35	0xbf9809503bc1e797	-0.02347302784662694
36	0xbfa1728d3abd9569	-0.034077084942320486
37	0xbfb4436f0d97dedc	-0.07915395814768139
38	0xbf8ac2f9fa35db0e	-0.013067200611414555
39	0x3fb4809bdb1391c6	0.08008741472764944
40	0x3fb1b4fad418af6c	0.0691677825749914
41	0xbfbeff92373753f6	-0.1210872063450806
42	0x3faf04dce08a2932	0.060583975228910694
43	0x3f65fc6eed8dd25e	0.002683846145766374
44	0x3f9d94c41ed3263c	0.028887810117146126
45	0xbfbc563952d895aa	-0.11069067261322255
46	0x3f76f7b07fb63f8d	0.00560730881569772
47	0xbf9472c097557ef2	-0.01996899532002678
48	0xbfbedad45a5a6a40	-0.12052657323730731
49	0xbfb74f369253ddb5	-0.09105244705630507
50	0xbf90261b01c9f77f	-0.015770360931575574
51	0x3fbc989c621b4750	0.11170365710429775
52	0xbfa3af8377f8ffb4	-0.0384484371138564
53	0x3fab933120544cc9	0.05385736007351622
54	0x3faffc2414f5b056	0.06247055774551373
55	0xbfa3cb260c6df720	-0.03865927602508479
56	0x3f983ede13e5377e	0.0236773204463172
57	0xbf99f71280e8a462	-0.025356568448988155
58	0xbf9fe16ebf61c909	-0.031133394652393984
59	0xbfb61de0f60c0443	-0.0863934136105096
60	0x3fa0500b68b6b792	0.03186069157832984
61	0x3fb7092e561ff2ae	0.08998384096771403
62	0xbfa02e62d857a8ce	-0.031603897961603886
63	0x3fbf8425d569ee0d	0.12311016521737646

topology.convs.0.nn.1.weight f8 [64]
0	0x3fec0870640d1c96	0.8760301546216336
1	0x3ff1ddb39518d865	1.1166263412574378
2	0x3ff10e87960b71e6	1.066047273742805
3	0x3fed7cd92249efd2	0.9214902562812262
4	0x3ff03d6fb1d6ddfe	1.0149990984772326
5	0x3feca7682d86b0f7	0.8954354180509928
6	0x3ff30ac5fac78524	1.190130214316306
7	0x3fee982aba3ccd9a	0.9560750615550433
8	0x3ff08c75a5a575f6	1.03429188447569
9	0x3ff0c22abea10f21	1.047404045720164
10	0x3ff00aa062582ad6	1.0025943605020777
11	0x3ff18f1b0a942b4c	1.0974378979905905
12	0x3ff1308a2cbede0d	1.0743505237459232
13	0x3ff13139743912f4	1.0745176830252463
14	0x3fef0e02b7d5e880	0.9704602804697657
15	0x3ff0a7287b421d26	1.0408100905204463
16	0x3fedbcde874e6c90	0.9293053286268265
17	0x3feae1b7ac2ca35e	0.8400534022122021
18	0x3fef6a6b3831452f	0.9817405793675443
19	0x3feee7a705d79e43	0.9657778848749746
20	0x3ff1a574eea4f824	1.1028947183654134
21	0x3ff1eeadce507d32	1.1207712229878095
22	0x3fee680c231f2f2c	0.950201099965374
23	0x3ff1331502a216ea	1.074971208844938
24	0x3ff1b193c8cabaeb	1.1058538287576833
25	0x3feed3df0461a2a9	0.9633631787847509
26	0x3fef0d899168c8a3	0.9704025115991225
27	0x3ff1569747e31688	1.083640366371954
28	0x3ff1436a4e3ba6e6	1.0789588027932324
29	0x3feeceef52a83b32	0.9627606024167561
30	0x3ff01d3158d2303f	1.0071271390506948
31	0x3ff00ebeedcd181c	1.003600052748431
32	0x3febf4b017c44c82	0.8736191238589444
33	0x3ff1105af46e905c	1.066492991268226
34	0x3fed680bd0e915c4	0.918950946834848
35	0x3feba44ec8462226	0.8638070975876573
36	0x3ff1e1bf6a7c881b	1.1176141891123794
37	0x3feb01d3fc34cf1a	0.8439731527236944
38	0x3feed65dbbe9d302	0.9636677427466511
39	0x3ff02905f09d291c	1.0100154303532412
40	0x3feccb01331f2773	0.8997808454962367
41	0x3ff03253968d0e08	1.0122867470644241
42	0x3fee75d82574cfb8	0.9518852931564572
43	0x3ff14d03bfd1d1e4	1.0813024037316774
44	0x3ff05cd4fdac74a4	1.0226640614630833
45	0x3fec61dc87515eca	0.8869459765364465
46	0x3ff0cf39f6654e70	1.0505923867066507
47	0x3fee16345de38c58	0.9402105172888566
48	0x3feeed9406139230	0.966501247280183
49	0x3fecc0aeea72c912	0.8985209063596662
50	0x3ff0c502fd819c11	1.0480985548581467
51	0x3ff0f0e7af489964	1.0588147017493492
52	0x3ff15d08b0640cf6	1.085213364626552
53	0x3fece60261c0c5e0	0.9030773076285037
54	0x3fecd3ace251ca14	0.9008392734816106
55	0x3fedcc556ee97e4c	0.9311930814983014
56	0x3feb8cf25cb7795e	0.8609554110405886
57	0x3ff1812687f3991c	1.0940308867080324
58	0x3ff14bc1da8c276c	1.0809954201708605
59	0x3fecfd889b92fefc	0.9059489286955507
60	0x3feca0317540bce3	0.8945548334212642
61	0x3fef8fcbacaf15e3	0.9863031742794955
62	0x3fee92c9e9bde06d	0.9554185452716532
63	0x3fefcfb6d294926a	0.9941057312867774

topology.convs.0.nn.1.bias f8 [64]
0	0xbfaf47c3ef2ae8e9	-0.06109440130735939
1	0x3fc19eab6a3b70fa	0.13765471160048276
2	0x3fb5a15de8b7f265	0.08449351245503463
3	0xbfaee03ddb32e52e	-0.0603045778347656
4	0x3fa92d14edd0db32	0.049172071485762095
5	0xbfb4e6a8be64d16a	-0.08164457939421302
6	0x3fc4cb4b44424ca6	0.16245404084165677
7	0x3f9bf950e0521ac6	0.0273182522692206
8	0x3fb762e725db0162	0.09135288881498618
9	0xbfa8fa55d2b70962	-0.04878490636066847
10	0x3faf5a02c9da180f	0.06123360361111462
11	0x3fbbe666d996664e	0.10898440181917943
12	0x3fba0f856315d982	0.10179933232379848
13	0x3fb9ed3e651e03fe	0.10127630203898261
14	0x3f7a04430c2e041e	0.006351720718954316
15	0x3fb768d835dc230c	0.09144355120600894
16	0xbfa28e30dfa59d2e	-0.0362410805708414
17	0xbfc4317930bdbc10	-0.1577598083490277
18	0xbface6b0cde1544c	-0.056447529918536604
19	0x3fa185af15ee73c6	0.03422305243223138
20	0x3fb8ac11ca84f912	0.09637557215043938
21	0x3fc373fc8de6cd70	0.1519771283034106
22	0xbfb2fa128d3dc8c4	-0.07412830303454415
23	0x3fbb27c1b0115c30	0.10607538746386136
24	0x3fbc61ac3760dcb6	0.11086536743174488
25	0x3f98cb0a126025da	0.0242120336261332
26	0x3f821ab0aefed8b4	0.008839969959677375
27	0x3fba0a34d9031345	0.10171823785919994
28	0x3fbae0bb60f4961f	0.10499163739276483
29	0xbfb3f860f2dd70ef	-0.07800870827981375
30	0x3fa5ef84a224adf0	0.04284300307548594
31	0x3fa56f4c4492d36c	0.04186476075248077
32	0xbfbd1817d11e8fc0	-0.1136488805337299
33	0xbfaa30d24a9fec28	-0.05115372811265956
34	0xbfaf8f0600660e1d	-0.061638057278312376
35	0xbfba05f0930032a2	-0.1016531332863431
36	0x3fc1bbb43d6f9610	0.13854077338980675
37	0xbfad0283263367aa	-0.05665979234045378
38	0x3f8093712be10780	0.008093723441678469
39	0x3fabeb07e6c0564c	0.05452751819408927
40	0xbfc1de8bb8a0f592	-0.1396040584094576
41	0xbfa6d187b416992c	-0.04456733773558805
42	0xbf9eabb79470af21	-0.02995192378527556
43	0xbfb08a264f38407e	-0.06460799631190814
44	0x3fa51c54425a377e	0.04123175916639264
45	0xbfbe0ce33d9cca94	-0.11738415006838415
46	0x3fb36b7ce11383a0	0.0758588838102825
47	0xbfad1b63daa506b4	-0.05684959453584551
48	0x3fa0c1d07059533c	0.0327286851067243
49	0xbfba382d3eb0f8b8	-0.1024196889929695
50	0x3fb627f09ad155df	0.08654693393449218
51	0x3faa8081b03e61b6	0.05176167751705256
52	0x3fb1f1ae61b3b6d6	0.07009401212027497
53	0xbfb76452c54a5c1b	-0.09137456242238821
54	0xbfaaa64d9b044baa	-0.05205004231733963
55	0xbfb7bac09f723968	-0.09269336598138056
56	0xbfb0b135f4187c97	-0.06520402154318315
57	0x3fbd655db8344890	0.11482797381566656
58	0x3fb817da042f3804	0.09411394693526637
59	0xbfb1ed26d8baf3bb	-0.07002489844576491
60	0xbfb0ee12c3158d66	-0.0661327101020582
61	0x3fa253e60fca9e44	0.03579634611861285
62	0xbfa45d5b49695426	-0.03977475424895997
63	0x3fa2729097111215	0.03603031009746275

topology.convs.0.nn.1.running_mean f8 [64]
0	0xbfc348d1acbc4112	-0.1506597608026899
1	0xbfbbc83d3b287995	-0.10852415746965101
2	0xbf77dfe3b80532d0	-0.005828752066304246
3	0xbf831013555317d2	-0.009308005372428516
4	0x3fa7ddbe66ff468a	0.046613645623108615
5	0xbfae59873db1e954	-0.059276796609042975
6	0x3fc30754a4282408	0.14866121306866398
7	0xbfb58362590ee8cc	-0.08403601335786276
8	0xbfc621111b855e9d	-0.17288411945149998
9	0x3f8b4fa554d919e9	0.013335506107193989
10	0x3fbdf0d7e89eeb1e	0.1169562285348715
11	0x3fbb8c1622b8ccdb	0.10760629985525176
12	0x3fc276c21d5b59fb	0.14424921449126757
13	0x3fad865414ee4fe1	0.057665469698946266
14	0x3fb061646e552087	0.06398608869233345
15	0x3fc9b01d2d3dbd6e	0.20068707188645923
16	0x3fbe448ae47b03ea	0.11823337629449751
17	0xbf998b55a0762735	-0.024945581358714015
18	0x3fa540c585a272df	0.0415097928646213
19	0xbfc115a140705b43	-0.13347259184294033
20	0xbfcdc2ecea36979e	-0.23251115261262795
21	0xbfc1ef84c6a8d540	-0.14012202930613604
22	0xbfc00287a5a4582f	-0.1250772055433926
23	0x3fb592061d59cd1e	0.08425939766475607
24	0xbfc49900d6294415	-0.1609192891797028
25	0x3fb84faaf8e5a58a	0.09496563507641134
26	0x3fa1b4500a7e9628	0.03457880142313413
27	0xbfcc8f5967c4a6e0	-0.22312467161946525
28	0xbfcf0538bc693711	-0.24234685134654702
29	0x3fc21f1c4ab34cd0	0.14157441756706257
30	0xbf8c225bc17a34d5	-0.01373740848728248
31	0x3fc5b7a2bebdbff8	0.16966661752257983
32	0x3facd5d6fc2da280	0.056318968089560606
33	0x3faa44dc99a7e64e	0.05130662322694644
34	0xbfbc90968cae71bf	-0.1115812390766626
35	0xbfaf08fff7c9fb7d	-0.060615538594894304
36	0xbfc4d46553537f9c	-0.16273180550251432
37	0xbfc38f82db8e6e80	-0.15281711311842017
38	0xbf8cace84950ba1d	-0.014001669633299458
39	0x3f57441c98fbf09a	0.0014200476907140548
40	0x3fb3522000c0980d	0.07547187822692099
41	0xbfc9735be84dd42a	-0.19883297770471248
42	0x3f837ca390080d5f	0.009515073616973067
43	0x3fbc7f7fa94b5621	0.11132047541772085
44	0x3fba6101e3de00f6	0.10304271519817462
45	0xbfbd7dfdb6852ad8	-0.11520372110423283
46	0x3fb9c9e2c82bbf67	0.10073678385719874
47	0x3fa3b960e3859352	0.038523700498251615
48	0xbfc7dd0e07c2bac5	-0.18643355730951874
49	0xbfbd68156528771e	-0.11486943931273827
50	0x3faf26c3e1a74e0a	0.060842629714581944
51	0x3f784edd1b8d0ffc	0.00593458528675583
52	0xbfc609e306c189d9	-0.17217672185786517
53	0xbf9827c79ed5f050	-0.023589247769891408
54	0x3fc34648bc28877a	0.15058240115564187
55	0xbfb52a22fae80a5a	-0.08267420411724782
56	0xbf9f6e048247ba3d	-0.030693121387168388
57	0x3fbff192c2b43723	0.12477986577524951
58	0x3fb2d6cc61fc3599	0.0735900630208647
59	0xbfbe9cd04779d1fb	-0.11958028550163384
60	0x3fb94c8295c3f54a	0.09882370144255961
61	0x3fb5f26142af9b93	0.08572967413020498
62	0xbfbed4316acb35a8	-0.12042530877371027
63	0x3fa6e3b7a85aaf81	0.044706095982603784

topology.convs.0.nn.1.running_var f8 [64]
0	0x3edd0a5a46fb2aae	6.923780446486489e-06
1	0x3f13f05eecbdf44c	7.6061052082425e-05
2	0x3ef378b4785606f7	1.8569473032587426e-05
3	0x3ee5bf7a00e8101a	1.0370233238361825e-05
4	0x3ee099feaae41b7e	7.91623218933195e-06
5	0x3eda4f3a457e7b3b	6.272669530376161e-06
6	0x3f0b0288172a6728	5.1517275001701425e-05
7	0x3e775bc97e0c0e96	8.701735466567441e-08
8	0x3ef6bfe1ff614abc	2.1695654105545066e-05
9	0x3ef8e13034fe941b	2.3727075415220464e-05
10	0x3ee2cc8ae5ec3a9f	8.964059075048268e-06
11	0x3f07a343ff2e422e	4.508544215931321e-05
12	0x3f0699f2ac4fb1ad	4.310867146970223e-05
13	0x3efb6ac99066c39c	2.6147020457837144e-05
14	0x3ed1484b29ae438e	4.120444510828041e-06
15	0x3f00b2e78022ba8d	3.185051902342582e-05
16	0x3ee95fd7dab5c632	1.2099450791255761e-05
17	0x3dfa05c0a72efb81	3.7867679060458073e-10
18	0x3ee35f66c6f26a47	9.237605097124917e-06
19	0x3eef05ee6dcca4b0	1.4792999928641505e-05
20	0x3f1104a84be3116a	6.491925430213643e-05
21	0x3f0caaaaebed2d8c	5.4677334893139714e-05
22	0x3eeed3d459d942ce	1.469967792924864e-05
23	0x3f02d7c2864dd1e8	3.593981163066748e-05
24	0x3efe5b047e59c580	2.8949296299212498e-05
25	0x3ed9492623c5d87f	6.028589777043219e-06
26	0x3ed090bee36bea04	3.949502164197434e-06
27	0x3effe12d25a64340	3.040275110205719e-05
28	0x3f0677c685c59457	4.285406677943169e-05
29	0x3ef21cbb6778450f	1.7273172913394532e-05
30	0x3ed487801c612f5e	4.894566194190432e-06
31	0x3ee38b22e17b97fc	9.319067472767638e-06
32	0x3ec7b456b1449834	2.82579038403659e-06
33	0x3f05c36a058c2983	4.151027014216975e-05
34	0x3ef901f2e7cb5426	2.3849117939917775e-05
35	0x3ec82c49f95eb28e	2.8816466039665445e-06
36	0x3f0758d5c64e7549	4.4530891307940366e-05
37	0x3eeeed14b781f8dc	1.4746712381216399e-05
38	0x3e83cd0991ed1350	1.475284045709184e-07
39	0x3ef0d058739b80c7	1.6034936584641954e-05
40	0x3e5ed755e07db7bb	2.8723063066398422e-08
41	0x3ef156d285b58256	1.6535901847249762e-05
42	0x3edc156fca08c881	6.695684675638481e-06
43	0x3efd81c2d587f7fb	2.8139952833676468e-05
44	0x3eef1d899f27643b	1.4836969943242853e-05
45	0x3e85fb65b2ea0b2e	1.6377881580453084e-07
46	0x3efac1bc19112e66	2.5517250439129056e-05
47	0x3eddc4f2737d8072	7.097560050656301e-06
48	0x3ee3d1073b4d466a	9.449251459212055e-06
49	0x3eae000e8abd0099	8.940762845424828e-07
50	0x3ef13a83306391b1	1.6430439267704845e-05
51	0x3efebb22b3a6842f	2.9307363755063674e-05
52	0x3f081dab16627240	4.599741332464826e-05
53	0x3ef1455bcafb0714	1.647084417189585e-05
54	0x3ef645e7a85b5fd1	2.124125105393266e-05
55	0x3ed4defa9836d33e	4.976036851390984e-06
56	0x3ee311c73ef0e7b3	9.093020677853345e-06
57	0x3f1014d4c828861e	6.134556500871815e-05
58	0x3efe238bed9e7b77	2.8742650875930816e-05
59	0x3ec8caf1954a3910	2.9555259664699435e-06
60	0x3ee9d42395fe351c	1.2316068648288987e-05
61	0x3e90ca6ec4e76ded	2.5020171259628395e-07
62	0x3ef648eb3509296a	2.1252478577240946e-05
63	0x3ef06199fead6666	1.562238314121167e-05
