src/models/mentor/results/3-channels/synthetic/position/model_weights/5.ckpt (torch, 191447 bytes, 112 tensors)

topology.conv_GAT.att f8 [1, 1, 32]
-0.21479085304967271 -0.38475278390250656 0.08581757377742519 -0.3595992733194533 -0.2323094446434263 -0.1666278895607611 -0.38180736523971126 0.38609995078454323
-0.2990527337154729 -0.1596003094152148 -0.2264502735602444 0.1112493245007865 0.13931213721204866 -0.0989981250352921 0.2757104085460286 -0.23290587288466497
-0.002432918474122907 -0.4037519164532084 -0.06318144683811473 -0.2124212453989534 -0.060637079906506124 -0.2770176707941949 -0.08102478339636585 -0.008266017092825694
0.1874925713226181 0.22819343550451138 0.11472515853002027 0.14797784396542663 -0.18168676947809043 -0.13636275779647566 0.3236702145354914 -0.14482208043787714
00000000: 4805 aa44 447e cbbf 86ff f923 ca9f d8bf
00000010: c2cd cbf8 23f8 b53f 7ca2 a4ab ac03 d7bf
00000020: ecd0 a5dd 50bc cdbf 7fea 210c 1054 c5bf
00000030: 2ae5 c428 886f d8bf 2fd6 6691 dcb5 d83f
00000040: 3097 c513 ae23 d3bf 8a56 af6e c86d c4bf
00000050: bc45 8e93 52fc ccbf 18d7 6ef2 d57a bc3f
00000060: 8e7c a1e8 fad4 c13f 7453 64ed f057 b9bf
00000070: b6ce f744 3da5 d13f 0a01 8b11 dccf cdbf
00000080: 7055 f728 33ee 63bf 6449 3747 12d7 d9bf
00000090: e537 e2c7 a82c b0bf 7a67 fb8e 9e30 cbbf
000000a0: ff2b 3fc6 d20b afbf 0c69 1e53 a8ba d1bf
000000b0: 0656 da4a 0abe b4bf f9a7 a708 c6ed 80bf
000000c0: 786b 09af c1ff c73f 76ae 5347 7135 cd3f
000000d0: c633 eac3 a05e bd3f c69a 2e20 f0f0 c23f
000000e0: ea1b 8316 8341 c7bf e869 90b8 5574 c1bf
000000f0: 9ea1 8746 03b7 d43f 1c14 9ca9 8789 c2bf

topology.conv_GAT.bias f8 [32]
-0.12023788422030565 -0.032205873743598915 -0.04007457569017667 -0.09828889470842181 -0.16704214939531087 -0.1296724783719909 -0.1773075093696408 0.17687871684206813
-0.058635223879499834 -0.07073106411455637 0.09574251000267112 0.144911929037206 -0.16903481503657042 0.16795148892314782 0.025397871468215268 0.06322495402255737
0.1665501838090204 0.1737336087803128 0.14946496509082757 -0.0934869801595381 0.0061408877771605645 -0.08076093920837524 0.12450184434095671 0.017690961146053473
0.14556332379376777 0.17653873974512035 -0.19106652833938778 0.014002855547637747 0.09346524439408618 0.028482232334080704 -0.04747599859420272 0.14616467285392973
00000000: 1669 77f4 e8c7 bebf aa8b efcc 497d a0bf
00000010: cc13 fb9f a784 a4bf 2629 5504 7629 b9bf
00000020: 866b 5a1c a361 c5bf 9744 e696 1b99 c0bf
00000030: 08f6 0931 03b2 c6bf ecf9 1838 f6a3 c63f
00000040: a284 e9a1 6f05 aebf acec 2e57 6e1b b2bf
00000050: 9a65 4cc5 9482 b83f e6ed 015e 798c c23f
00000060: 5ad6 3bcd eea2 c5bf 84a5 1e34 6f7f c53f
00000070: 8240 604d e601 9a3f a267 d1b5 822f b03f
00000080: bf1f 4d34 8451 c53f 62b8 f623 e73c c63f
00000090: da3f 7b00 ab21 c33f 8c13 6342 c3ee b7bf
000000a0: 5ab0 bd02 3027 793f 20b8 b1b8 bfac b4bf
000000b0: 8270 bc55 5adf bf3f 167a 3a4e 941d 923f
000000c0: 3b7c 98a9 d1a1 c23f 2857 d748 d298 c63f
000000d0: 89f9 4935 de74 c8bf 1f90 0575 87ad 8c3f
000000e0: 2e39 fc97 56ed b73f 705b 9141 722a 9d3f
000000f0: b234 9d2a c64e a8bf 437c de24 86b5 c23f

topology.conv_GAT.lin_l.weight f8 [32, 1]
0.009786809540840574 -0.012073198805508077 -0.40020617897219823 -0.4607474353229921 -0.27524555649221016 -0.40546413005725623 0.11703054445925797 0.4631056459181617
-0.27645484067264353 -0.21659919005696965 0.24238883819351492 -0.22638069181788928 -0.26586646714955486 0.13324932161487069 -0.3686034695756889 -0.042859053632827326
0.1787692654670705 0.014451942278073528 0.029639216085042934 -0.043946326357497234 -0.3813205530685875 -0.09204790374720831 0.0007647810148379633 -0.290879173290297
0.33423118385334893 0.05055777145026254 0.10821005885655358 -0.13396279022418456 0.31053579499406647 0.10288123851530259 0.3167637540632027 0.14483792240676457
00000000: d0dd 4757 1b0b 843f 0cdc 3850 d5b9 88bf
00000010: 08ef 9560 fa9c d9bf 6c66 9bcf e27c ddbf
00000020: 1a37 e089 9f9d d1bf 2602 93d2 1ff3 d9bf
00000030: 07e9 15b9 b6f5 bd3f f8ee f3dc 85a3 dd3f
00000040: 1da2 e0a4 6fb1 d1bf 3e40 d1b2 85b9 cbbf
00000050: 4a71 7af2 9806 cf3f 4adf e6e1 0afa ccbf
00000060: 56aa 60c9 f403 d1bf 3868 4653 500e c13f
00000070: 0243 c101 3397 d7bf a889 6133 9ff1 a5bf
00000080: 6002 5b4a e9e1 c63f ee83 95db fa98 8d3f
00000090: 3eae 0e1f be59 9e3f d836 f804 2280 a6bf
000000a0: c838 2e52 8e67 d8bf 2a76 4290 7390 b7bf
000000b0: 4022 42b9 720f 493f 4ea3 17ae c39d d2bf
000000c0: 1806 fd30 0b64 d53f a202 e04d b5e2 a93f
000000d0: 221b e387 a7b3 bb3f 6c67 7255 b125 c1bf
000000e0: fa28 ef86 d1df d33f 3e92 cbc2 6c56 ba3f
000000f0: fc9d 107b db45 d43f ee93 fa8d 0c8a c23f

topology.conv_GAT.lin_l.bias f8 [32]
-0.5607312362546238 -0.1404247002594477 0.8945063673965373 -0.9910557299229392 -0.44081868595374607 0.2601224838185826 -0.5763525099407494 0.29368346450270966
0.2223985116322552 -0.04283639044268461 0.5943127309988272 0.7263183442509558 -0.09992725932705904 0.18767461678395297 -0.8783879495462804 -0.8591172092153967
0.2144420901658328 -0.5403707764709971 0.5697422621912245 -0.8149304031808609 0.24718426850473685 -0.6714004947623065 -0.36073098064840736 0.11735396713445134
-0.5612923712375208 0.8904735213645751 -0.15058807327856585 -0.31484766331532105 -0.48738285385005486 0.5801754602920702 0.6451020294163234 -0.7346826259633776
00000000: 73e5 31a2 82f1 e1bf 721c 95c3 6ff9 c1bf
00000010: 3b05 41d1 cb9f ec3f b009 9181 bab6 efbf
00000020: 2ac5 e893 5f36 dcbf 6220 3dc6 d8a5 d03f
00000030: 9237 a5d1 7a71 e2bf 3e91 daba b5cb d23f
00000040: ccde 11ef 8d77 cc3f 705e 0fc0 a6ee a5bf
00000050: a890 e721 9c04 e33f 005e e1f7 ff3d e73f
00000060: a0e3 c936 d594 b9bf 3a2e b0ca b805 c83f
00000070: 850e 900b c11b ecbf 7259 a05f e37d ebbf
00000080: 17f6 12a2 d672 cb3f a006 95a7 b74a e1bf
00000090: ec54 e81f 543b e23f 4ab1 c5ec e813 eabf
000000a0: ac21 a8ee bba3 cf3f e4b6 f0e3 1c7c e5bf
000000b0: a47d 2265 3716 d7bf c8f8 e5da e80a be3f
000000c0: c2b3 3e6b 1bf6 e1bf b4df 8653 c27e ec3f
000000d0: 7115 f350 7846 c3bf 1d53 4ad0 7626 d4bf
000000e0: 50b2 7ada 4731 dfbf 93ad 7c20 cc90 e23f
000000f0: 92a4 dd02 ada4 e43f aa77 6e23 8582 e7bf

topology.conv_GAT.lin_r.weight f8 [32, 1]
0.20449319942437388 -0.08220264136579464 -0.26390008667731124 0.13836575860102235 0.05152937408747173 0.3348990825610161 -0.22820654242343752 -0.0709753713333833
0.391881143726116 -0.3554020870667034 -0.4186112307889277 0.16731971120701225 -0.014111996490954282 0.1750460882562454 -0.3888972133127454 0.07496065631721516
-0.25411896326554895 0.2761428305677409 -0.2548442965044982 -0.26304475289463103 -0.2755234903351166 -0.20234396349198536 0.009587586903985468 0.12793412536627152
0.397525889686267 0.039809911632136014 -0.15541503571489212 0.21582719390615013 0.24838572643260054 0.027160783254620402 -0.030150898482819335 -0.26766506961769826
00000000: 961b e449 d52c ca3f 7497 4f78 3b0b b5bf
00000010: 1233 6c30 bde3 d0bf 82ef 091c f8b5 c13f
00000020: 9263 fae0 0e62 aa3f 84d6 c38f fc6e d53f
00000030: 3490 383a df35 cdbf 3ac6 b222 712b b2bf
00000040: 6f41 0ea6 9414 d93f b86c 3865 e8be d6bf
00000050: 1e83 7ec2 86ca dabf bb1d ce77 bb6a c53f
00000060: ba81 471b c0e6 8cbf 0e39 2d04 e967 c63f
00000070: 02c3 2b23 b1e3 d8bf a07f 5e1f 9f30 b33f
00000080: 9c36 212f 7c43 d0bf 600d 94fa 52ac d13f
00000090: c9c5 c373 5e4f d0bf 2247 c4a8 b9d5 d0bf
000000a0: e638 1147 2da2 d1bf 34dc de30 68e6 c9bf
000000b0: 9af5 9921 a8a2 833f b6c8 3e3a 2560 c03f
000000c0: 3403 e16d 1071 d93f 8489 08f9 f661 a43f
000000d0: 84df d9cf a3e4 c3bf ec09 b5b9 39a0 cb3f
000000e0: ce1d e97d 1acb cf3f d0d5 3f4f 09d0 9b3f
000000f0: b403 b78b e0df 9ebf 6f88 12ac 6c21 d1bf

topology.conv_GAT.lin_r.bias f8 [32]
-0.24858902866699661 0.5230908264290057 0.445991567011854 0.027303930600646478 0.12030864332928673 -0.4593356823696765 0.02875304043697739 -0.8030405162542188
0.10758551620955564 0.25073290478428023 -0.9307840182734233 -0.5088238009971564 -0.6565725499272499 -0.929443521278023 0.880759469097732 -0.45255388734255053
-0.28266320932723016 -0.10284351368287808 0.43512910229851237 -0.18138721841482308 0.6636735230068391 0.2853156302867016 0.644230466258449 0.2699756465898021
-0.6391249613925452 0.5603954893132503 -0.01067581497658025 -0.06454054451649444 -0.26534800954690785 -0.8090079832462957 0.5672477163022092 0.19338783661856684
00000000: bc73 22ea c3d1 cfbf c634 0bf9 28bd e03f
00000010: a5e4 a636 208b dc3f 5799 edc3 8ff5 9b3f
00000020: 9a81 8618 8ccc be3f 7e78 6a7d c165 ddbf
00000030: 0b7b 59e1 6f71 9d3f 2d98 5506 82b2 e9bf
00000040: 94b0 a471 b98a bb3f 9a17 8506 020c d03f
00000050: 54f6 c390 fbc8 edbf c2b1 16da 4848 e0bf
00000060: 9671 ac6f a402 e5bf 34c8 eb56 00be edbf
00000070: bb58 6d7b 2e2f ec3f 5017 7494 a4f6 dcbf
00000080: 59f1 f56d 2717 d2bf 24aa dfd7 f353 babf
00000090: 9b3c fabb 27d9 db3f 8085 8045 b237 c7bf
000000a0: a222 9141 d03c e53f de9d 477d 9c42 d23f
000000b0: 0057 f535 899d e43f 3675 34ef 4747 d13f
000000c0: b29f e730 b673 e4bf 7aa4 6d85 c2ee e13f
000000d0: 96e1 75a1 33dd 85bf 54e1 f6a7 ba85 b0bf
000000e0: b402 c437 76fb d0bf 3cdd c7b5 64e3 e9bf
000000f0: 24f5 c7ae e426 e23f a047 dcc0 eec0 c83f

topology.convs.0.eps f8 [1]
0.15806054536558328
00000000: 9209 91f4 533b c43f

topology.convs.0.nn.0.weight f8 [32, 32]
0.19847370881801488 0.057248905815020276 -0.12111288043075807 0.1517576107700106 0.178921038066963 -0.047170868779620845 -0.023909862641726023 -0.20814545068403095
-0.06872904215230494 -0.016393027932301595 -0.16463159898349494 -0.03629390097211137 0.17192040766129807 -0.014257640578771321 0.1380643730042811 0.14880735171032128
-0.25026275900892914 0.21665431702832438 -0.1696422223602279 0.028664780489000036 0.14694388705388883 0.1926772842207898 0.11361040769919802 -0.046060979591634535
0.00620777036842824 -0.2030704835261063 -0.2940848834094286 0.23472913593590056 0.243517033486843 -0.2295231988116302 -0.1439085506095572 0.0892857873176233
0.31227417826867343 0.2897710070479357 -0.17473106093843743 0.08142413660562416 0.3114906627860571 0.01893050427226764 0.006584858828663688 -0.08136347780802618
0.10232006649278147 0.16165693852771795 -0.19102823430118326 -0.28169894559506514 0.32154270616085207 -0.23011630169308994 0.203307864574589 0.09963597845257388
-0.2614632471712163 0.11579718567065883 0.031583502286134324 0.23369586279122054 -0.021302947621507154 0.2265048300740893 0.2719781865319821 0.26824164663408373
0.06514559846250881 -0.15880803814034 0.03183491988243727 0.00842855427148317 -0.0016847418753482405 -0.11420109415707892 -0.27169192015201205 0.26626429239273164
-0.025221833513653296 0.056882581430555884 0.1321067371892966 -0.012805831111581262 0.11920285651344327 0.19746181844815297 0.06271145211014097 -0.16894086050314872
-0.04012444986181611 0.011872103353608873 -0.09813522556695958 -0.1635097630555052 0.10630211923936632 -0.2695668772510681 0.1083388889645148 0.005371449258136113
-0.13382832919614174 -0.054848401052711174 -0.057110192996334325 0.1628150539089241 -0.19169588020721312 0.10847727434193206 -0.01804183160291043 -0.060665950294472235
-0.060558226701455525 -0.012786067744918424 0.006761121005217483 -0.17262140135739873 -0.044821068082042545 -0.15762393117372459 -0.06234074944957709 -0.08452826267034852
0.19570198701152758 0.16996853142920082 -0.12458017435170982 0.20833588677109072 0.1381828940491657 0.09932638838422926 0.205181468182617 -0.18782986886035657
0.28273714066995126 0.06346777085879682 -0.056222952730627815 -0.10516249747593709 0.05022825413497319 -0.14182976269615527 0.13187821067529512 0.12486967172517942
-0.11725830105315006 0.17849619237719602 0.028653532864206258 -0.08192522212475008 0.01047662867015213 0.043986135257039025 0.031203235788609916 -0.014950873729589524
-0.013632641786212377 -0.23052237806377462 -0.0615136716792261 0.17000352352559045 0.22227680614624126 -0.0842929739287184 0.05447328407918613 0.23811707805609494
-0.027130777033453374 -0.2596548627914671 0.22726701222336737 -0.03337036593792161 0.011662062466609911 -0.33577667544794726 -0.2648255754240263 0.09561189830944809
-0.06223139000274648 0.0038039875656265165 0.13070381409999743 0.10436984475002312 -0.12399682484070218 0.022306295652180626 -0.191217022949329 -0.24548889157838294
0.029263645044888088 -0.08709001757743992 0.07633745005182846 -0.11538184854197221 0.07833847534938707 -0.028177289447760295 0.02701616830238434 -0.25667601380447225
-0.08158300537408814 0.27431541753744815 -0.08033839347447241 -0.10296710944307749 -0.014154262624587013 0.30249482486127877 0.020727012288621154 -0.18307808024848599
0.020421953013605748 -0.014384944677122147 0.08102383592058392 0.05766871346158288 0.12209864958999998 -0.0065025537112231606 0.1079786571155023 -0.08863501762005546
-0.06956962025867638 0.1940207852797371 -0.2097198867016235 -0.16492223460968924 -0.020558819343735525 -0.047593803540132346 0.042374105046838556 0.00523788281012424
-0.14141501064859496 0.15498481916609952 -0.004431936913842702 -0.11197177210384573 -0.05075888040997044 -0.031000329700192807 0.005470977120024292 0.269601107168858
0.02332680425830054 -0.16238728091614288 -0.07686288595707313 0.02171871731085273 0.21539208547149502 -0.1528846904343764 -0.09286939485717646 -0.0928335971805073
-0.09895881907605009 -0.02501262923663436 0.15364570585970322 -0.3236939180048603 -0.23294706610718408 0.021434416491038884 -0.13996633314417234 -0.010559379791440109
-0.10793517848944656 -0.2442929625296077 0.19820980876016048 0.02190290036792042 -0.1402874195438122 0.2674537719250063 -0.03091057524052997 -0.18678253474383072
0.32995815682982677 -0.10773037280886946 0.23095314807811443 -0.2203910537990304 -0.2644118088681138 -0.01261823249657222 -0.2567425276976596 -0.14817732085371726
-0.29839797438536375 0.19241954213605686 0.07094475758620512 -0.2590953638765925 -0.3040226392911846 0.07329997124209611 0.16814879849409264 -0.01723429274071487
0.1006704561944318 0.029289885192610686 0.11590299604270356 0.20174980428993378 0.014727531740015978 0.10668161680032033 0.15105625862078365 -0.04350085935760045
-0.12491776208511364 0.019602827926396234 0.04596473294815817 -0.06277964282539317 0.049725493405889075 0.07885719647661343 0.05454633192369076 0.18821730031317435
-0.13653645908071818 0.03317319735768211 -0.06653358281389998 -0.014142952210832182 0.21920791301767253 0.019534495178987747 0.06817822825450934 0.0704795309829617
0.12386803413677475 -0.06310022722316783 -0.030974121331525398 0.14172952510337777 -0.051920466938865706 -0.0917730461259211 -0.12461772033329102 0.1092777402490796
00000000: 219e 3e24 9667 c93f be22 6a84 ba4f ad3f
00000010: 1810 93f4 4001 bfbf c490 961b cb6c c33f
00000020: 6730 8873 e2e6 c63f 60fa 76b5 c726 a8bf
00000030: 446b 64b8 d37b 98bf 4ee2 bf97 82a4 cabf
00000040: ba5d 54fc 3998 b1bf e616 687b 55c9 90bf
00000050: a6da c2f2 a512 c5bf ce5f 703b 1d95 a2bf
00000060: 2ecb 35e8 7c01 c63f 7e14 0820 1c33 8dbf
00000070: ace7 65e7 17ac c13f 8a06 808a 1e0c c33f
00000080: b667 5617 4e04 d0bf 5841 1623 54bb cb3f
00000090: 8a6a 871a d6b6 c5bf 6835 fdda 4c5a 9d3f
000000a0: 502d 9faa 0ecf c23f a187 3435 a6a9 c83f
000000b0: e5a3 8d59 9215 bd3f aa82 ef01 4e95 a7bf
000000c0: 0767 6aab 516d 793f 3686 c3ae 36fe c9bf
000000d0: 3a74 1f67 49d2 d2bf 02ab 21b5 9a0b ce3f
000000e0: 9626 6cef 902b cf3f 70dd 4824 0461 cdbf
000000f0: b0cc 3d6b 986b c2bf 9adc 86f0 6edb b63f
00000100: 8626 c3d5 4cfc d33f 4264 a6b1 9b8b d23f
00000110: 72b9 2960 965d c6bf 5581 d353 36d8 b43f
00000120: 0e3b 6b88 76ef d33f 0816 fca2 8462 933f
00000130: 1b11 1695 b9f8 7a3f 2538 46a4 3cd4 b4bf
00000140: 70a0 4fdb a531 ba3f aef2 12b0 2cb1 c43f
00000150: a6d5 77f9 9c73 c8bf d480 a903 5b07 d2bf
00000160: c99a cedb 2794 d43f 642e 0673 7374 cdbf
00000170: d208 affa fd05 ca3f a871 f554 be81 b93f
00000180: a634 ed57 d0bb d0bf 34a0 6c65 e2a4 bd3f
00000190: 38fd d27a b62b a03f bb0b f3fb bee9 cd3f
000001a0: 3400 5f9d 70d0 95bf b1f1 c63a 1cfe cc3f
000001b0: 0756 1832 1768 d13f 2ffd ed02 df2a d13f
000001c0: 6af4 dfc6 61ad b03f 96cc 1361 d253 c4bf
000001d0: 431d 88a7 aa4c a03f ceb1 9667 fd42 813f
000001e0: 3ac7 6fd0 519a 5bbf 3973 926c 483c bdbf
000001f0: 40fb e881 6663 d1bf dcd6 fa62 790a d13f
00000200: 6b5e 5898 c0d3 99bf 6c9f e9b5 b61f ad3f
00000210: 0297 e7a1 dfe8 c03f 7027 948e f139 8abf
00000220: 1da5 5012 1484 be3f d2c4 38ca 6d46 c93f
00000230: 59d1 e593 db0d b03f fcd8 68a7 da9f c5bf
00000240: 265d da1f 318b a4bf 789c 1bbd 6650 883f
00000250: ec4a 65e0 631f b9bf 9a36 734e e3ed c4bf
00000260: 03ea a09d 9d36 bb3f 2a34 786e 9540 d1bf
00000270: 26d1 fcf0 18bc bb3f 5345 556e 5f00 763f
00000280: 007f 9664 4921 c1bf 32c1 84f1 1615 acbf
00000290: 8c00 6016 8c3d adbf 4eeb eaa9 1fd7 c43f
000002a0: 024b 2298 7d89 c8bf c566 a8a9 2ac5 bb3f
000002b0: 2a1b c7d2 8e79 92bf c6b4 fd80 9b0f afbf
000002c0: a47d 5fe6 7c01 afbf 448e 78f6 942f 8abf
000002d0: 4a98 a099 8cb1 7b3f 4eb9 b544 7518 c6bf
000002e0: 4e17 2b7b c9f2 a6bf 16a3 ba5e 052d c4bf
000002f0: 1b29 3070 20eb afbf 90c0 c1eb a4a3 b5bf
00000300: 6a05 fd40 c30c c93f 5a35 eb61 87c1 c53f
00000310: fc10 927e 7ce4 bfbf 50eb 2116 c0aa ca3f
00000320: fb65 6721 faaf c13f 8174 bd45 746d b93f
00000330: 2a78 cbe7 6243 ca3f 38cd fb23 cf0a c8bf
00000340: 00b0 2285 5d18 d23f 1645 3080 6c3f b03f
00000350: 8e73 863e 41c9 acbf d0c1 6cef edeb babf
00000360: fb94 b089 84b7 a93f 1691 3048 7a27 c2bf
00000370: d7e3 f39c 62e1 c03f 2368 5274 75f7 bf3f
00000380: 8132 35d8 a304 bebf 033c 5c96 f6d8 c63f
00000390: e439 440a 5a57 9d3f 594b be25 0df9 b4bf
000003a0: 18ca 154c c574 853f a615 d0c8 5985 a63f
000003b0: 5640 f7b4 bdf3 9f3f 5cc1 b84d 909e 8ebf
000003c0: c2f6 0935 6eeb 8bbf 00d9 63dd c181 cdbf
000003d0: 3602 3d50 b87e afbf 84a3 dfea acc2 c53f
000003e0: 215a 87fe 9073 cc3f f271 4e6e 3994 b5bf
000003f0: ba6b 401b ece3 ab3f 645c 6fd3 9e7a ce3f
00000400: 2885 4ba0 2bc8 9bbf 32f3 fb6d 2f9e d0bf
00000410: 5ac0 7ae0 1517 cd3f 1bc5 b7ac eb15 a1bf
00000420: ec19 2f87 47e2 873f 1dbf f373 5d7d d5bf
00000430: f8cb 65f8 e6f2 d0bf 83f9 5878 057a b83f
00000440: a25d b1f1 cadc afbf 294b 0a46 8a29 6f3f
00000450: 58cf 820f e7ba c03f 8ad3 e36d fbb7 ba3f
00000460: f0a7 7f83 41be bfbf 32ba 4829 76d7 963f
00000470: adbf 00a6 cc79 c8bf 0c23 6e14 2e6c cfbf
00000480: 1ddb b7f9 49f7 9d3f 869c 4d09 884b b6bf
00000490: 48c1 6ee3 d98a b33f 1130 0a32 aa89 bdbf
000004a0: 06e5 a485 fd0d b43f f816 ace2 81da 9cbf
000004b0: 2eb3 495d 20aa 9b3f 764d 3d3b 616d d0bf
000004c0: c8b8 fdb3 9fe2 b4bf c629 c740 628e d13f
000004d0: a406 9694 0e91 b4bf ce25 9f6f 0d5c babf
000004e0: 1ba1 92f8 e8fc 8cbf 9a42 ff40 135c d33f
000004f0: 7b94 b13f 7639 953f 1a0f a43f 1a6f c7bf
00000500: 286b 4111 7ee9 943f 4048 8b97 da75 8dbf
00000510: 5fb2 7965 fabd b43f 12c9 a3ec c086 ad3f
00000520: cbf3 df6a db41 bf3f 43a5 7bf8 6ba2 7abf
00000530: eb21 fa40 7da4 bb3f b261 f5d5 c8b0 b6bf
00000540: 1e60 ce8b 50cf b1bf 98a6 c24f acd5 c83f
00000550: 7226 5aeb 19d8 cabf d013 04fa 2b1c c5bf
00000560: 2a22 e702 5f0d 95bf 94ec 640b 375e a8bf
00000570: 8c33 bf06 0fb2 a53f db8d ea75 5174 753f
00000580: 3819 f316 e319 c2bf 8cf1 d8e4 8ad6 c33f
00000590: 8a6f a501 3927 72bf dcdc 429b 2eaa bcbf
000005a0: ce4e af66 11fd a9bf b601 e9e8 8cbe 9fbf
000005b0: e935 ec3c bc68 763f 585c 9000 2541 d13f
000005c0: b46c a355 fbe2 973f 091d 693e 1bc9 c4bf
000005d0: f838 763d 49ad b3bf 60a6 3e72 6e3d 963f
000005e0: 586a 75c5 f791 cb3f fac3 bcbc b991 c3bf
000005f0: 76fc b5e5 49c6 b7bf b63d dc4f f1c3 b7bf
00000600: 3819 957b 5d55 b9bf b8b7 3b22 e99c 99bf
00000610: 224c eb98 a9aa c33f c3ad efb1 66b7 d4bf
00000620: a493 509f 35d1 cdbf aff6 5957 e7f2 953f
00000630: ea97 b2b3 6aea c1bf 9c54 f6f6 27a0 85bf
00000640: 7839 b3cd a3a1 bbbf 3e93 5ae6 fd44 cfbf
00000650: e086 2f63 f05e c93f e030 12c3 b66d 963f
00000660: 488e 7d2b f0f4 c1bf 1006 e76c f61d d13f
00000670: 9dd4 0897 05a7 9fbf 8628 1877 7de8 c7bf
00000680: 9e7b 28d1 081e d53f d2fe ffbb 3794 bbbf
00000690: f9ad f36c df8f cd3f 82eb 3228 c635 ccbf
000006a0: b0f1 f081 1fec d0bf 77b2 3f7f 96d7 89bf
000006b0: 6c0b fd35 786e d0bf bcad 8975 79f7 c2bf
000006c0: cc60 4bd1 f318 d3bf d9f6 4a1c 34a1 c83f
000006d0: 39c8 a785 6f29 b23f b44a 99b8 0495 d0bf
000006e0: 97f3 3f5f 1b75 d3bf c254 4873 c9c3 b23f
000006f0: c268 325b e685 c53f 62a5 c3ce dda5 91bf
00000700: ce4a 07fd 89c5 b93f 86ff 05ec 2afe 9d3f
00000710: 3d07 8399 d1ab bd3f 4228 b305 f0d2 c93f
00000720: 8eb3 64d9 7729 8e3f 4be5 3d87 7c4f bb3f
00000730: f4f1 50bd cf55 c33f 38dc 93a0 be45 a6bf
00000740: a156 d846 9cfa bfbf 8275 6983 c312 943f
00000750: b03c 9081 b088 a73f d824 caa0 5312 b0bf
00000760: 0359 e9af 9e75 a93f 64da eb37 fc2f b43f
00000770: 2341 752f 7fed ab3f a678 b126 8117 c83f
00000780: 4b4e 3bd5 067a c1bf 228f 82cb 13fc a03f
00000790: 007b 454a 5808 b1bf 461f b7e9 faf6 8cbf
000007a0: 71b8 b740 010f cc3f fe1f c0c7 d900 943f
000007b0: ceff a6dc 2074 b13f 1af7 9b50 f20a b23f
000007c0: 6a23 a3c3 d0b5 bf3f 442e 4b24 5627 b0bf
000007d0: 94a0 9018 aeb7 9fbf cc2a 996d 3124 c23f
000007e0: 38af fdc6 5195 aabf 9adf c337 707e b7bf
000007f0: 2264 5569 f2e6 bfbf ccf2 8c40 a0f9 bb3f

topology.convs.0.nn.0.bias f8 [32]
0.05569921152349937 -0.08418518956795074 0.08809297394589594 -0.00016465653141523268 0.09551654312839164 0.033714204620876195 0.039392642802884355 -0.017164564390497752
0.034258009460658795 0.12670267590072287 -0.0653215636859085 -0.174797449368162 -0.06323751972535016 0.029301472266006705 0.10026136744098366 -0.10805452084780331
0.10039857467166516 0.014908865063503116 -0.13978894890301205 0.1748912010731809 -0.12164555179733674 -0.07285748841706113 0.00419735295384395 0.09803298387857537
-0.03043575035264213 0.041096811952442594 -0.125965317811648 -0.12667547752359037 -0.16897821444827893 0.10024555435267184 -0.1607046327981646 0.04028078169168897
00000000: c615 d067 9b84 ac3f 187d 001c 298d b5bf
00000010: 7ce1 1ada 428d b63f 54b8 c2d5 f494 25bf
00000020: 68a2 f6ac c573 b83f d6be 83fc fc42 a13f
00000030: 2132 15c1 452b a43f a43f d46a 9693 91bf
00000040: bce8 840c 448a a13f e296 a714 cb37 c03f
00000050: ba2a c1fb e9b8 b0bf bcf0 3a48 c35f c6bf
00000060: 96bc 1987 5530 b0bf aeb8 6d84 3401 9e3f
00000070: 6615 369e baaa b93f 88ec 3909 76a9 bbbf
00000080: 02a2 c792 b8b3 b93f d21e f2fe 8988 8e3f
00000090: 33b9 f0b1 9ae4 c1bf 20d6 7bba d562 c63f
000000a0: 4266 acb2 2924 bfbf 2c1d 05d2 c9a6 b2bf
000000b0: 101a aa5a 3e31 713f 1e12 b08b b018 b93f
000000c0: 2245 93a1 8c2a 9fbf fa77 9c2e a40a a53f
000000d0: 0034 37ac a11f c0bf eaa1 95ec e636 c0bf
000000e0: c65a 6500 14a1 c5bf 1b9d 8351 b1a9 b93f
000000f0: f486 172b f891 c4bf 58d6 0bc0 ae9f a43f

topology.convs.0.nn.1.weight f8 [32]
1.0573453282641208 1.1704461013052043 0.99181875585813 0.9408734476093702 0.9611538055751656 0.8959650281844636 1.1452374074390337 1.007719782946493
1.2144546118012378 0.8816358501106312 0.9497391472478065 0.8928554012047898 1.096456049272663 1.1912570240016045 0.8539375100593376 0.9897796883398364
0.988893297835104 0.8343517844870236 1.0207510511367368 1.0710301937898346 0.9296120611204678 1.0849651009562347 0.8932455966965155 0.926072734084725
1.1390045874035697 1.002218219027769 0.9257062820029096 1.171448527275949 0.9916868488462862 0.7689561623936019 0.8724499990100958 0.8682092424322758
00000000: 8590 57ef e2ea f03f 8862 edb0 25ba f23f
00000010: de0a ffaf fabc ef3f 4306 e5a1 a21b ee3f
00000020: 84e1 2ba0 c5c1 ee3f 042f cdd9 beab ec3f
00000030: 21b4 b175 e452 f23f 3799 74c7 9e1f f03f
00000040: 639a 82f5 676e f33f 2a9a e662 5c36 ec3f
00000050: d420 255a 4364 ee3f b468 877d 4592 ec3f
00000060: 0b0a 927f 158b f13f 9079 7386 630f f33f
00000070: 740a d1c1 7453 eb3f fa44 f573 46ac ef3f
00000080: 77ee ad8e 03a5 ef3f 6864 7783 02b3 ea3f
00000090: aad6 df0d ff54 f03f b1b1 758e f022 f13f
000000a0: 9358 0fcb 61bf ed3f ab88 9e5d 045c f13f
000000b0: f770 23ca 7795 ec3f f08e 5349 63a2 ed3f
000000c0: e246 cedf 5c39 f23f c7df a2f8 1509 f03f
000000d0: 9eef dcc7 629f ed3f a08f 99cf 40be f23f
000000e0: 0861 f50e e6bb ef3f d038 31f4 499b e83f
000000f0: 5298 a442 1ceb eb3f 249c cabf 5ec8 eb3f

topology.convs.0.nn.1.bias f8 [32]
0.13219906113159624 0.1381824256759924 0.00837261695598615 0.029507036355310462 -0.12918649081558142 -0.1010056817938572 0.1736826007617428 0.04351589357647363
0.18435902570176416 -0.13063153881615727 -0.002516697474456403 0.049649213962675645 0.13869944058543163 0.208544330131886 -0.09554103736593211 0.06425702191381376
0.040197119001668835 -0.16389593768461594 0.08203447443683132 0.07571806155027827 -0.08062375600438793 0.08752430348496773 -0.100503295979609 -0.04332147276676296
0.1082252819066872 -0.10899977235777392 -0.027181710207882778 0.13874200657081806 -0.010513086154985677 -0.17227810832554746 -0.07843795292805089 -0.19483189617140834
00000000: 52a1 0f1a e6eb c03f f585 9433 f6af c13f
00000010: 902b 10a0 a925 813f f87d 97b0 1737 9e3f
00000020: 94a7 91d4 2e89 c0bf e3c9 0324 82db b9bf
00000030: dcf4 1341 3b3b c63f 9aca 8817 b747 a63f
00000040: a645 0e99 1399 c73f 8351 85c5 88b8 c0bf
00000050: 404c 18ab e59d 64bf 02cd 7b2c 9f6b a93f
00000060: b1da a43c e7c0 c13f fc61 d7a2 94b1 ca3f
00000070: a89f e99e 6075 b8bf d77e a8ef 2573 b03f
00000080: 68dc 027f b794 a43f 33be 26c6 8afa c4bf
00000090: 00ca d918 3600 b53f 9830 1346 4262 b33f
000000a0: b4cc 512b c2a3 b4bf aeb7 1225 fe67 b63f
000000b0: 9c64 5f81 95ba b9bf d8df 7e69 3b2e a6bf
000000c0: f6bc 63ee a6b4 bb3f 384f 8cb9 68e7 bbbf
000000d0: 6c9e 91b1 85d5 9bbf 59cb 664e 4cc2 c13f
000000e0: b5bd b989 e287 85bf ac98 8984 350d c6bf
000000f0: a856 977a 8214 b4bf 0e0e 2367 40f0 c8bf

topology.convs.0.nn.1.running_mean f8 [32]
-0.020830655574517843 -0.2105141729683406 0.005520998958090898 -0.07978388188733139 0.1837837791175154 -0.013045045426345476 0.14361012152080394 -0.056838595312617424
-0.10799749398247256 0.12458006417014204 -0.09026455280129929 -0.14213927930507922 0.07098688414890879 0.18425979830120381 0.14141818180129295 -0.08622189377724802
0.30651354685080234 0.016526826230546517 -0.197459066098553 0.0414102151553151 -0.12607129534418832 -0.20510165525156218 -0.10763842981835002 -0.018697277418072224
0.12581642283173566 -0.04652115491034169 -0.1702369896627434 -0.23293393097844822 -0.04779827592694757 0.015048073274635681 -0.10968278977733782 0.14865963536752902
00000000: 6d84 c9a1 a154 95bf 572b 1fe0 20f2 cabf
00000010: 11c3 75df 2f9d 763f 553a 746b b76c b4bf
00000020: 7f29 6c14 3a86 c73f 5710 d95b 5cb7 8abf
00000030: 6239 a703 d161 c23f c85a 09c8 f219 adbf
00000040: ad65 b448 b9a5 bbbf c326 58a5 7ae4 bf3f
00000050: 7f07 45e6 931b b7bf 4dd1 0bb2 9e31 c2bf
00000060: 2350 dd49 322c b23f c2ea d537 d395 c73f
00000070: 20bb f2b0 fd19 c23f 8bf3 f855 a312 b6bf
00000080: 8a54 e0fe ea9d d33f 8fe0 aa88 68ec 903f
00000090: 0b93 98b3 5646 c9bf 25f3 9f3f b833 a53f
000000a0: d2db 3bad 1a23 c0bf 3b99 d462 c540 cabf
000000b0: a7d3 dc2f 318e bbbf 37b2 230c 6125 93bf
000000c0: 6c56 aea6 c01a c03f 7ffa d2ed 9ed1 a7bf
000000d0: 71e2 955f 53ca c5bf 2230 d76f c7d0 cdbf
000000e0: 27a6 d2ff 0379 a8bf 96b2 a834 86d1 8e3f
000000f0: f117 07db 2b14 bcbf ecc4 1168 4707 c33f

topology.convs.0.nn.1.running_var f8 [32]
1.7292223661407347e-05 4.3541354423564054e-05 1.4468531410287817e-05 1.788813547066904e-05 2.0667243574715207e-05 5.147450234748759e-06 3.114310369728356e-05 5.15156312678405e-06
5.4528993177123554e-05 3.4135150493157846e-10 1.6813485806429545e-06 1.2373026715296792e-06 4.799674371505054e-05 6.360291919162541e-05 5.445759477648865e-06 2.5568252183208764e-06
8.999753623615139e-05 7.048401373224074e-08 9.910982585091836e-06 4.354250055688784e-05 3.635735794373793e-09 4.094742865649988e-05 2.9527758710893977e-05 3.3561724621902215e-05
6.306588061500809e-05 1.9460999316391196e-05 3.968399810608516e-06 3.087404068483646e-05 4.141786238735859e-05 1.7997166047783315e-05 6.8448362673996035e-06 2.4073212824653013e-05
00000000: e1eb c58f d821 f23e bb95 d28b 05d4 063f
00000010: e9f0 b7d0 bb57 ee3e dc0e 304f cfc1 f23e
00000020: d9dc fd29 d2ab f53e a17d bc58 0897 d53e
00000030: 9c1f 1fe5 f453 003f 15a4 c8e3 729b d53e
00000040: e4b0 64f0 c196 0c3f fa5f aa82 1e75 f73d
00000050: 6337 9450 5635 bc3e 1b21 a7ac 2cc2 b43e
00000060: a60c 7b8e 032a 093f 1ec5 d8d4 51ac 103f
00000070: b527 89f7 56d7 d63e e1d9 6387 bd72 c53e
00000080: 3959 40e6 a197 173f 98e7 fae1 9feb 723e
00000090: ad30 0a13 ebc8 e43e cd63 51ed 2cd4 063f
000000a0: 7de0 cc4b 113b 2f3e af98 7bef de77 053f
000000b0: d177 b720 4cf6 fe3e 158e c213 9498 013f
000000c0: ba62 3594 4788 103f 8f8e 95b0 0568 f43e
000000d0: 3041 116f 09a5 d03e 54d3 d5f5 d72f 003f
000000e0: 6618 57ea 02b7 053f 9a85 62d5 13df f23e
000000f0: 7617 3d44 96b5 dc3e ccb7 b296 1a3e f93e

topology.convs.0.nn.4.weight f8 [32, 32]
-0.02436848402377481 -0.1790942274837918 0.0690334485804735 -0.1464763886322729 -0.17944103565339142 -0.24546431065278168 -0.25964232385465835 -0.1365843183898976
-0.15580382613684396 -0.0775590988535286 -0.06410137699029766 0.17249364854355057 -0.09873433635078814 -0.04914855074700957 -0.2243700875463347 -0.15409310834672502
-0.1176888956089198 -0.146676977606864 -0.08517532413085777 0.20316052138012522 -0.012525757702019004 0.27158655067773707 0.05546908511569733 0.16158515413027966
-0.2053586994750432 0.11698267812053734 -0.22367263467541776 0.07191205712448472 -0.08257573334076028 -0.0755194415589738 -0.008432502432421104 -0.1919660250511185
0.1770591194503526 0.20067722984850594 0.12087499484060323 0.013757691292535193 -0.007719518291698507 -0.03884448927515441 -0.1670145869672916 0.06557231799447671
0.2656460114689654 -0.2507877531545447 -0.13838109153888634 -0.049722439827302914 0.05330454861791907 -0.03589590278164172 -0.22662334269797457 0.006284677386177948
-0.2533963536997859 0.1965280331564638 -0.12025527286469649 0.14687360634916424 0.002066325193594489 0.14061362610307723 0.31119736420941174 -0.14078015331572036
-0.07066620952966894 0.05547013065423827 0.19083536469163886 0.1538669557068872 -0.15474085001632482 0.041202501630368614 -0.07192027916132282 -0.062004274536791096
0.04626258553081031 -0.2268412193671091 -0.22309569960132064 -0.10767562121329122 0.056925607359336744 0.06308218730444666 -0.02166316176241702 -0.19269130514520472
0.02450562379916689 -0.015008499515419061 0.04157424490052666 -0.03951005629789528 0.349443160848859 -0.19616290309395124 0.30454555026646024 -0.00918161651901488
0.1272493386559534 0.2849306652914302 0.025247236884632956 -0.05025970523144413 0.1209557152362995 -0.20238746847773176 0.01297812461608644 0.16439204500394083
0.2534976369665741 -0.11290140199940732 0.015925198744173683 0.050502691117878556 -0.17632634050873686 0.23920654628014867 0.19120959642758573 -0.02144084532701294
0.1832389124444347 0.04443231834407908 -0.008707172284922175 0.163732910134482 -0.09856870578807841 0.0539317727204408 -0.2845092613526264 0.06900323826912334
-0.16813226555194322 -0.12354124187704864 0.09399027450955871 -0.020039977156165664 -0.15349034989073806 -0.18777687233946544 -0.14845615800389433 -0.18251808217874763
0.17524029869043428 0.07671339500304072 0.3041827628517269 0.18556650949423323 -0.035598136297344186 0.2721924496537985 0.17650789701590386 0.1927546647016234
0.017082711883653262 0.00727587247965762 0.049644015692801025 0.18070312899281493 -0.14297150276456777 -0.25696041094164623 -0.2712338378696661 0.0663137711201016
-0.015186556556531318 0.26579483360594863 0.17087580946408634 -0.0381589951540401 0.17049749029826194 0.003842460283738312 -0.0032809197484897114 0.13210271027148623
0.005808226676446471 -0.009139270281843541 0.19988707706879916 0.09923023842168047 0.05880359663524298 0.10582307043820421 -0.026284892973092326 -0.28998333295180023
0.08827768256287025 -0.17344210580903663 -0.12246529561603992 0.03529887238115928 -0.18155380372544505 0.02526743652793681 -0.007706674905451253 -0.15247003495402092
0.281080672317815 0.10599672855195269 -0.16240368894548912 0.18872483144428506 0.05897502622624158 0.15634452229963078 0.14094346877905772 -0.041751223857625516
0.09163223827177672 0.16886774123457562 0.08625630788066944 0.19265746167606418 0.141460952204095 -0.13419103921054745 0.2505231393029766 0.04239281393309902
-0.279023072307243 -0.08629021693858135 0.06406863820713465 0.04155413941063696 -0.1962220687774272 -0.0760081903943018 0.1532121610814519 -0.09464494720171934
-0.1416983375289286 -0.05377526522653309 0.18848311590568062 -0.24627514336379192 -0.09091787666280432 -0.29651061204132045 -0.34380206820129067 -0.19001011880148877
0.14273154246881048 0.2649436524892673 0.017959689982613148 0.17534300853774853 0.06702142452955015 0.016030236904962226 0.006012414161794606 -0.23974609492152205
0.03651433557006188 0.16353732957889514 0.14204298301676585 -0.033691656160749164 -0.12455616092068778 -0.03796749082891556 -0.007218659574968762 -0.2730596187239026
-0.05284183008835193 0.1699077801145415 -0.2928121489937928 -0.025387607149900012 0.21881003966463342 -0.3244091190031895 -0.34648448650067826 0.022368102124618077
-0.3413944369480393 -0.06622210558140064 0.2607599887796672 0.18221104758831697 -0.007465539664815202 0.2766908380897406 0.30918161681378076 0.1120435174461151
-0.0797326715837956 0.2128837364936868 -0.12220874741360147 0.17895107301038038 0.07375504082291065 0.1504322837303686 0.08929143834164688 -0.11278697337151343
-0.01933695804386404 -0.304931126840178 -0.019855054361004553 -0.12161370615855696 -0.41167503179721776 0.12540390079776675 0.25086523559016577 -0.08217608922585867
-0.156912885913761 0.0921325763110711 -0.2934007056634554 -0.1958435803264399 0.1797365213844066 -0.05621177420185465 -0.10120896259742282 0.14253996248794587
-0.1941212678395638 -0.06525724306179187 0.05178433961448506 0.21711159150789644 -0.06397034008708921 -0.006502382793943067 0.18231611778060913 0.18727968418637303
-0.05020689459774212 0.08831293456667372 -0.0463623656437668 0.02994163171778999 0.0047065678836819965 -0.004745906050472577 0.22337262451563306 0.07672228466106323
00000000: 08a8 bd47 0df4 98bf 9dfe f844 8fec c6bf
00000010: 0cb5 fb13 2dac b13f 02e9 6701 bdbf c2bf
00000020: 2c89 d881 ecf7 c6bf 7a60 4be1 5f6b cfbf
00000030: a43e 67d6 fa9d d0bf a0c6 504e 987b c1bf
00000040: a0b9 ec38 61f1 c3bf 6e48 15c1 e9da b3bf
00000050: 0449 cda5 f268 b0bf fd91 a199 4514 c63f
00000060: 2b70 9e49 a746 b9bf 075a 35b4 ff29 a9bf
00000070: 3428 1bb6 28b8 ccbf 82af 71ae 52b9 c3bf
00000080: 871f be05 dc20 bebf bae4 f2aa 4fc6 c2bf
00000090: c477 91cf 0cce b5bf bd3d 95f9 2901 ca3f
000000a0: f498 80bd 1aa7 89bf dc6f 4c8e ac61 d13f
000000b0: 9a9c 05a5 7166 ac3f 1d1c 4184 d2ae c43f
000000c0: 32e2 18a1 3149 cabf 6ae8 b9a8 93f2 bd3f
000000d0: 2475 780d 4ea1 ccbf b3a9 891d d468 b23f
000000e0: d74b 24ea ae23 b5bf e63d b5fb 3d55 b3bf
000000f0: 3e92 5d51 0f45 81bf 65d2 c4bb 5792 c8bf
00000100: a1b8 bf8b dfa9 c63f 9627 a09d caaf c93f
00000110: 759b bee5 a9f1 be3f e8f5 5b11 fe2c 8c3f
00000120: 20d5 a869 809e 7fbf d41a 22c6 6ce3 a3bf
00000130: 1e5f 7de6 bb60 c5bf 1027 4ff1 58c9 b03f
00000140: 6c9c e420 5800 d13f 4e4f 8213 e80c d0bf
00000150: 98ab 45bb 78b6 c1bf 2a06 df39 3875 a9bf
00000160: 9a81 15da bb4a ab3f 26dd 03a1 f260 a2bf
00000170: b4f1 b262 fe01 cdbf cac6 6e3d f6bd 793f
00000180: 193d 0457 a537 d0bf 57bd 93a1 d427 c93f
00000190: 071c 20b0 0cc9 bebf 8826 f51b c1cc c23f
000001a0: d1f4 23e4 65ed 603f 470a be96 a0ff c13f
000001b0: 6d5f 7859 a8ea d33f 7c5c 3585 1505 c2bf
000001c0: e7b9 dc42 2e17 b2bf 862d 21ba 9466 ac3f
000001d0: 4caa 2211 4b6d c83f ce1b 5993 e9b1 c33f
000001e0: 1272 1655 8cce c3bf 8b19 088a 7e18 a53f
000001f0: 38c5 ea0e 5e69 b2bf ca08 b236 06bf afbf
00000200: 2037 c4c7 baaf a73f ec82 4811 2209 cdbf
00000210: 9e3c d55e 668e ccbf 9004 b027 a190 bbbf
00000220: 849a d36b 5a25 ad3f 5dc8 6e7b 2726 b03f
00000230: 04ae 302d de2e 96bf 343e e9d2 1baa c8bf
00000240: 645a 2493 0018 993f c763 a5b4 c6bc 8ebf
00000250: b445 682c 3849 a53f 903d 537f a93a a4bf
00000260: a707 ead8 465d d63f 4c0c bdb2 dd1b c9bf
00000270: 745a a29e ac7d d33f 1a7f 63b5 cfcd 82bf
00000280: 6e83 fbd1 b449 c03f 4278 43d4 4d3c d23f
00000290: e879 ef62 69da 993f 5822 8ddc a3bb a9bf
000002a0: 2446 3429 f4f6 be3f 16b5 1d23 d5e7 c9bf
000002b0: 60e7 5066 4694 8a3f aeda 816c cc0a c53f
000002c0: 329f 1827 4e39 d03f 968f 4235 1be7 bcbf
000002d0: 6c73 27ff b14e 903f a42c 6c1d 7ddb a93f
000002e0: f445 f48c dc91 c6bf a794 a1f2 519e ce3f
000002f0: 503e ab59 8e79 c83f fb96 e9c5 96f4 95bf
00000300: 98d7 2668 5f74 c73f 3ab8 5834 d5bf a63f
00000310: 1c91 a2e1 10d5 81bf a03b 2733 33f5 c43f
00000320: e0d2 c477 cc3b b9bf ef64 1900 f29c ab3f
00000330: 1dcb 3a55 6635 d2bf 5719 af3b 32aa b13f
00000340: 8657 f9aa 5b85 c5bf c9b3 9119 66a0 bfbf
00000350: 341e 2923 bf0f b83f 3c47 fe19 5c85 94bf
00000360: f822 8460 92a5 c3bf 6e53 d292 1209 c8bf
00000370: d01d c283 9c00 c3bf 4b74 f1a4 c05c c7bf
00000380: 3289 e82b 466e c63f 3e04 b432 7da3 b33f
00000390: 3520 9dfa ba77 d33f 835b c1b4 a4c0 c73f
000003a0: 6d2b 643e eb39 a2bf d6cb 5ee1 996b d13f
000003b0: 34a3 958e cf97 c63f e0bf 8552 2fac c83f
000003c0: 9818 7863 217e 913f 4e95 9925 4ecd 7d3f
000003d0: 3875 afbf f06a a93f a08d a7b6 4721 c73f
000003e0: 1a20 51e4 e34c c2bf 1e1c 5714 0a72 d0bf
000003f0: 8700 ce2b e55b d1bf 5f3a 3c76 f0f9 b03f
00000400: b445 fe1d 211a 8fbf c521 7255 c802 d13f
00000410: 19b3 a92e 42df c53f f23a 7868 9389 a3bf
00000420: 4ac8 709c dcd2 c53f 969b 2728 397a 6f3f
00000430: 8875 a860 96e0 6abf 901c 2ada bde8 c03f
00000440: b42f f8f9 5dca 773f 6932 c217 9cb7 82bf
00000450: aca6 7355 e695 c93f 5a9f cb24 2767 b93f
00000460: a8ff de48 811b ae3f a4c3 b182 3817 bb3f
00000470: fe0c cb4e 6dea 9abf 986f da40 168f d2bf
00000480: 96fe 92bf 5d99 b63f dc7e 19d6 5933 c6bf
00000490: 70dc 90b7 e259 bfbf 74ee ec9c b112 a23f
000004a0: 548b bbb0 273d c7bf f83b 2af6 b4df 993f
000004b0: d187 e0ca 0891 7fbf f9ad df5a 2384 c3bf
000004c0: 2022 c9c9 39fd d13f 9c16 9d02 9a22 bb3f
000004d0: 16a4 62e2 a4c9 c4bf 4f87 7fa1 2228 c83f
000004e0: 5a4b d881 f931 ae3f 9bc3 17e9 1803 c43f
000004f0: 2cd4 7e82 6f0a c23f 0ead 129a 6a60 a5bf
00000500: a2f5 a2da 3575 b73f a1d7 f948 759d c53f
00000510: 9bd2 6bb5 e414 b63f 2252 9dec ffa8 c83f
00000520: 6e55 b079 641b c23f c9ab 6906 2c2d c1bf
00000530: 71a4 8c34 9208 d03f 712c dbca 82b4 a53f
00000540: 3ae6 9896 83db d1bf a448 b79b 1d17 b6bf
00000550: ac84 cc61 cd66 b03f c870 908b 9546 a53f
00000560: 8885 1304 ce1d c9bf 35bf f8d3 4575 b3bf
00000570: 79df 98c2 749c c33f 3889 f6b8 a63a b8bf
00000580: edca cace 2b23 c2bf 809f f67a 6e88 abbf
00000590: aadf 54f9 3620 c83f 6658 48a3 f185 cfbf
000005a0: 2475 e3da 6446 b7bf 429a 68a5 07fa d2bf
000005b0: 6a30 ce63 da00 d6bf 04ab 1467 4052 c8bf
000005c0: 386e 81f5 0645 c23f 2a59 ae38 d6f4 d03f
000005d0: 8d8a 7c64 0664 923f 903d a0c3 a371 c63f
000005e0: 1e5a 7cea 5028 b13f 2a0a 04fd 3a6a 903f
000005f0: 485f 1e23 79a0 783f 120d 8402 00b0 cebf
00000600: 7e98 37ca 01b2 a23f 31b7 1b8d caee c43f
00000610: 2376 57e7 762e c23f 9a8c b762 0840 a1bf
00000620: 506f ab9d e9e2 bfbf 1bbe d796 7970 a3bf
00000630: c827 ba2c 5091 7dbf c6c0 110d cf79 d1bf
00000640: 9a36 2e98 150e abbf eac5 76c3 89bf c53f
00000650: 3e30 f32a 6fbd d2bf 8fe5 ba79 35ff 99bf
00000660: 34b2 32a6 f701 cc3f cc24 2977 1ec3 d4bf
00000670: 81df 8544 cd2c d6bf cb31 65ec a9e7 963f
00000680: 389a 6e0d 68d9 d5bf 598f be91 eef3 b0bf
00000690: f07e faa9 4ab0 d03f e04c 2e0d b152 c73f
000006a0: 6765 518b 2f94 7ebf 68b0 2c7d 4db5 d13f
000006b0: 7a55 2fb1 a1c9 d33f 3aed 284b e2ae bc3f
000006c0: 4007 e040 5c69 b4bf f69a 0b37 c63f cb3f
000006d0: ea31 6d8d 1249 bfbf dcf3 1467 dee7 c63f
000006e0: 42e2 3f40 9ce1 b23f 2638 7175 5d41 c33f
000006f0: 087c 7dbf cddb b63f 1fa4 0b6a 9bdf bcbf
00000700: 402e 9c49 11cd 93bf 4ce7 53d8 fd83 d3bf
00000710: 4332 9024 e254 94bf 6244 b26a 1322 bfbf
00000720: 1c86 893b e258 dabf 68ce 5b2a 3c0d c03f
00000730: c909 a40f 2d0e d03f 5cfd bcff 7d09 b5bf
00000740: da08 a9b0 b815 c4bf 79fb 2622 0096 b73f
00000750: c9a9 dcc0 13c7 d2bf 141a 5106 6711 c9bf
00000760: 1615 9f38 9b01 c73f 62b7 b127 cac7 acbf
00000770: 3e03 6ba0 d4e8 b9bf 2c20 a1de bf3e c23f
00000780: 1e1c 6a38 f7d8 c8bf 7c0b c7dc b2b4 b0bf
00000790: c4a7 2d1a 7a83 aa3f 4ef1 8d08 50ca cb3f
000007a0: 2e8a 9636 5c60 b0bf 520e 2317 3ea2 7abf
000007b0: 1661 b371 2256 c73f 2e91 64db c7f8 c73f
000007c0: a67b a9d4 b7b4 a9bf 2c14 c72d ad9b b63f
000007d0: 5b0c 69d8 cebc a7bf e82f 11e4 04a9 9e3f
000007e0: 2f68 30b2 3147 733f ae3b 6d74 7170 73bf
000007f0: f6e3 8e62 7997 cc3f 1861 7e57 12a4 b33f

topology.convs.0.nn.4.bias f8 [32]
-0.004796364559722881 -0.17454103437906246 -0.12062307219295894 0.11710007887206361 -0.12760375821728742 -0.1381452676958128 -0.15418196242491183 0.11904279600238069
-0.11854602109562487 0.055801447754233846 0.06856805801942378 0.09593018594895464 0.014011107850620421 -0.06388976862102816 -0.05578844808233704 0.1251167277407333
0.17196337768720762 0.023010647430931033 0.10392528725524494 -0.16262647450153744 -0.04027128667026314 0.17124581739168365 -0.11213329945559791 0.01886846441634684
0.054490446836984466 -0.008347898168853472 0.026894077512891457 -0.16445166907165282 -0.0940308478282085 0.021427478246535243 0.1687142795201815 -0.15764960347136237
00000000: 057d c74e 5aa5 73bf 35ea 3b51 5c57 c6bf
00000010: e538 3656 27e1 bebf 1652 1d51 45fa bd3f
00000020: 94e9 31e8 5155 c0bf 20e3 6c7f beae c1bf
00000030: a6c1 1f0b 3cbc c3bf 7a95 a7b3 9679 be3f
00000040: f237 ad33 0859 bebf b807 59e2 0192 ac3f
00000050: 3860 be1e ad8d b13f e896 5973 e18e b83f
00000060: fb3e fe0f dbb1 8c3f 1abd c672 145b b0bf
00000070: eb36 04b0 4d90 acbf 321c ea2e d303 c03f
00000080: 415c a35d e502 c63f b7d9 b368 1a90 973f
00000090: 4e1a fdfd d89a ba3f 2c54 b9be f1d0 c4bf
000000a0: f0e8 6e26 709e a4bf b414 a308 62eb c53f
000000b0: 7051 f495 c4b4 bcbf 4634 6036 4152 933f
000000c0: e2f2 37fe 2be6 ab3f ac27 01ed b318 81bf
000000d0: cdee 7efd 1e8a 9b3f feb9 3796 c00c c5bf
000000e0: 3ac0 3cd8 6712 b8bf 62ee 37b9 15f1 953f
000000f0: 1925 74f4 6d98 c53f f084 91b9 dc2d c4bf

topology.convs.0.nn.5.weight f8 [32]
0.870760722011813 1.0325143130833212 0.9571723013323364 0.9729352996286684 0.9142831924978365 1.0044537859473404 1.0223013962831105 1.1146453368570992
1.0188860663038795 1.06989620202831 0.9755717925657774 0.9422261673083795 1.1422033703088479 1.122317447045102 1.0769300710728151 0.9546076267088197
1.1376255744535797 1.087629307929189 1.039524902059898 0.8686818187257808 1.200241369080314 0.9753338597353032 1.1116002933831135 1.1500664625352504
1.0840823278282747 0.7461756426258759 0.8749978377536929 1.0106359705061205 0.7852967924438372 0.8624211639896787 0.8539800267988878 1.0325778767398845
00000000: a2d3 f596 45dd eb3f 2d84 75ba 2d85 f03f
00000010: 8d80 5bce 27a1 ee3f 52ee a035 4922 ef3f
00000020: 18f1 61d3 ce41 ed3f 9ecb 0f22 3e12 f03f
00000030: ba0e 7bb5 585b f03f d50a 4759 96d5 f13f
00000040: 0601 d279 5b4d f03f 1e38 dd7a 4b1e f13f
00000050: 240b ff55 e237 ef3f 19cc c07d b726 ee3f
00000060: 3cb8 8d0a 7746 f23f 709f ac23 03f5 f13f
00000070: 1c63 b506 1b3b f13f f43f 274b 258c ee3f
00000080: 00f1 d5df b633 f23f b6a1 3bfd ed66 f13f
00000090: 0c99 1bdd e4a1 f03f 2ed3 41d0 3dcc eb3f
000000a0: 7419 384b 3034 f33f 96d3 c75a ef35 ef3f
000000b0: 24df a463 1dc9 f13f 820b 4d17 ac66 f23f
000000c0: 961a 03b6 6658 f13f 26cc c4bd abe0 e73f
000000d0: 6221 2777 fbff eb3f 98c2 979f 902b f03f
000000e0: 3e66 26bd 2621 e93f 75d8 d644 f498 eb3f
000000f0: cb3a d1eb cd53 eb3f 1abc 3261 7085 f03f

topology.convs.0.nn.5.bias f8 [32]
-0.07602140749684835 0.05797360456620805 -0.028312580061705193 0.18382544412463114 0.0012408181108766957 -0.055745286285697054 0.043917868465233406 0.041703471787767725
0.14894066889875565 0.0755875744731406 0.04049868489934168 0.02234574315972079 -0.0338432180209569 0.1541773233341732 -0.08024720916906353 -0.15664491914428685
0.02948185321603347 0.04741402806275767 -0.009576424067928883 -0.07351212209427127 0.17826946456145054 0.31221752133257913 -0.13597588159752316 -0.07558220395568077
0.24733427515425055 0.06484093958504623 0.13216850631866617 0.001511348628660797 0.06189788500839937 -0.0539654568839633 -0.12671032657412082 0.14296617821487162
00000000: aeae fe92 2376 b3bf 6244 495f b7ae ad3f
00000010: 36bc b815 f9fd 9cbf 460f 5897 9787 c73f
00000020: 664b 374d 5e54 543f dca6 016b a58a acbf
00000030: 7452 8921 677c a63f d78e ea4e 285a a53f
00000040: 6375 fbe2 7c10 c33f 3a9a 5810 b559 b33f
00000050: caec 585e 3ebc a43f d7a2 4d70 cde1 963f
00000060: fecc 2ef5 e553 a1bf d7a6 c020 15bc c33f
00000070: 4cf5 f9c2 148b b4bf 5e96 67d2 f00c c4bf
00000080: 00a8 8dad 7d30 9e3f 3666 cdc7 a646 a83f
00000090: 2f9d 79e1 cd9c 83bf e823 41c0 b0d1 b2bf
000000a0: b45b 15a8 88d1 c63f 9d24 d732 5ffb d33f
000000b0: e0c8 405e a867 c1bf 4c35 26f6 5a59 b3bf
000000c0: d4d2 7b47 a6a8 cf3f f1ad f572 6a99 b03f
000000d0: 6094 19ca e5ea c03f b47e b53b 0ec3 583f
000000e0: 27f4 9a5f 14b1 af3f f652 dc40 5ca1 abbf
000000f0: 23c5 5942 0b38 c0bf 3ef9 ee39 b74c c23f

topology.convs.0.nn.5.running_mean f8 [32]
-0.5336487186942763 0.1271321855137433 -0.1371547454580975 0.31355024282566557 0.43052252161113924 -0.21847224363169457 0.05711075680198156 -0.0052663371961612325
-0.580596302141242 0.309924084477418 -0.20772604321217178 0.39600880235478486 -0.0550656522192082 0.09573521769731362 -0.6335450846026721 -0.06232421811348071
0.14186987864091274 -0.007484852702864421 -0.35330364546554494 -0.4399484467557981 0.07320448206538963 -0.0470362916126731 -0.009379520658524937 0.5772986157154778
-0.7548907898795346 -0.6171547935301572 -0.3268608908161691 -0.1547294543784483 -0.14028601468045251 -0.3185880635038822 0.21454363727946513 0.04733293818595542
00000000: db03 4b7a a613 e1bf d977 8611 de45 c03f
00000010: f9ea 1d65 498e c1bf b0b3 a509 3511 d43f
00000020: 14b9 a055 ae8d db3f ffad bd02 e6f6 cbbf
00000030: 66bb 6d01 9f3d ad3f 1c7f 6fa0 2792 75bf
00000040: 6301 3cb2 3e94 e2bf 27b0 c4d3 cbd5 d33f
00000050: 63d7 0f59 c496 cabf f6ae c24d 3558 d93f
00000060: 6c2d d4ae 9031 acbf efdc 156d 1a82 b83f
00000070: f71e 5d57 0046 e4bf a8a3 17bd f5e8 afbf
00000080: 416d 86cc ca28 c23f 42d7 2fd9 6fa8 7ebf
00000090: 0841 b5e4 869c d6bf 637f af87 1d28 dcbf
000000a0: 2e37 6468 87bd b23f 9231 670c 2415 a8bf
000000b0: 631b d8f3 9135 83bf 02c5 50f2 3a79 e23f
000000c0: d7b1 d2ba 1028 e8bf 5703 d968 bbbf e3bf
000000d0: 5e66 19f1 49eb d4bf 1f45 24bd 2cce c3bf
000000e0: 8fc1 9162 e4f4 c1bf 0f4a 6930 bf63 d4bf
000000f0: 7010 d778 2a76 cb3f 7285 10db 053c a83f

topology.convs.0.nn.5.running_var f8 [32]
1.0174106400903922 1.0042162777085508 0.4574560671104792 1.227354772866961 0.21322368021860674 0.11520898293187598 0.9438768379742482 0.09634314476716119
1.6531591922032616 0.3620730875517219 0.18669258924909057 0.12175008714318727 0.897934992416183 0.9816237116121367 0.7813838304380324 1.3962079289043234
0.2098967804992356 0.1168955509690441 0.8076218866400197 1.062694011287319 0.787189383206585 0.9285223115938523 0.25206935603486025 0.6481319739722035
0.09178217358702868 0.7374315479345831 0.7037547513008504 0.9343875717778755 0.8945890350658462 0.7662736037746646 0.6206376685414499 0.4060346756547759
00000000: 8ca6 1c61 5047 f03f c0e7 6d16 4511 f03f
00000010: 9b29 e6cf f546 dd3f 85d9 20c2 3ea3 f33f
00000020: 59c6 a2de e94a cb3f 28d8 e5fd 557e bd3f
00000030: 24a4 d132 3d34 ee3f 0e00 f8bf f1a9 b83f
00000040: 3f84 990d 5773 fa3f 0ff8 7299 342c d73f
00000050: eb7d 9df2 8ae5 c73f faac 9082 032b bf3f
00000060: 8691 4b2a e2bb ec3f bc45 4b21 7669 ef3f
00000070: 8b58 aba9 1801 e93f 9bf5 1020 de56 f63f
00000080: 02d4 e3cf e5dd ca3f fdbe 75e8 ddec bd3f
00000090: f3e2 d4da 09d8 e93f 3c25 826f cb00 f13f
000000a0: a62e 14ca a730 e93f 82dc 3c6c 74b6 ed3f
000000b0: 9695 1f82 e721 d03f 2f7b f643 7fbd e43f
000000c0: 497e e959 097f b73f b95d ad0b 0a99 e73f
000000d0: 8cbc 27af 2885 e63f fd64 d2c3 80e6 ed3f
000000e0: e9f9 1e2f 79a0 ec3f 0502 8038 5085 e83f
000000f0: 8ea3 2187 43dc e33f b4ab 3edd 78fc d93f

topology.convs.1.eps f8 [1]
0.3034140335240709
00000000: 8488 c8b1 226b d33f
