src/models/mentor/results/3-channels/synthetic/position/model_weights/7.ckpt (torch, 569303 bytes, 112 tensors)

topology.conv_GAT.att f8 [1, 1, 64]
00000000: d483 97bc d609 b6bf 1caf b326 a5c8 cd3f
00000010: 3092 4821 f6e8 c43f 3a05 cfe4 cc64 be3f
00000020: 52b6 de11 b83e b8bf e61f af5c 30cb c53f
00000030: 9411 63d9 4cc0 d2bf 5a92 9f91 5bbb ccbf
00000040: 97e9 4084 ee4c d3bf 53b7 c405 f3d7 ca3f
00000050: 5c5a 1cba 8bf7 c63f 4e34 96f2 996f d03f
00000060: 1845 9402 6f1b d13f dcbf 484b f9f7 ce3f
00000070: 5aa3 66ed 95db b2bf 8f80 1aa4 549f cabf
00000080: 527f 11dd e62a cb3f 38bd af1e 4cec c7bf
00000090: 1a90 1634 56b8 c0bf 7819 8485 4305 a13f
000000a0: 2300 5315 eda8 7dbf ec30 bcc9 3540 c83f
000000b0: e6bd 0830 0a2f c13f 3cb1 e87a 6834 b2bf
000000c0: 5cee 034b 2a87 9d3f c6e0 c092 a292 80bf
000000d0: 5103 07de ffbb 99bf 6ad1 cd42 8912 bfbf
000000e0: 3dbd 6f91 c757 7e3f 150d 22eb 0273 c5bf
000000f0: 00d1 1b89 defc d13f 3685 4c5b 80e9 d13f
00000100: c4b8 a574 0916 cc3f b95c 66e6 9566 ce3f
00000110: 321a 99cc d3c4 d03f bdea a7c0 d4da b7bf
00000120: aca6 2816 9871 c23f 3fa1 330b 0ed6 d23f
00000130: ed24 3eea ed2a babf 3431 b29b cd27 cb3f
00000140: 45ab 023a f98e d13f f086 cdd4 1ae9 ba3f
00000150: 7436 a8e0 9a4a c13f dbab 080d 7a3d d3bf
00000160: 6b72 ecb2 597a a1bf e6e9 31cf af60 c13f
00000170: e4d7 c4b0 c811 c4bf 1fa5 d205 12ad aabf
00000180: 40c4 ec3d ed9d c5bf 66f7 30b2 18ab bcbf
00000190: 5610 c01b b082 c1bf 0b72 1fd1 d00e c0bf
000001a0: befe 40d2 21d6 c9bf 72d6 f5f4 f192 bb3f
000001b0: f533 570d 140a bfbf 34d7 fed6 9bf5 c23f
000001c0: 820a 5763 8625 ce3f 8ea5 fbaa fa07 d3bf
000001d0: b833 5fb1 72f8 d2bf 9a60 8d4b 0bff a0bf
000001e0: 6772 99b6 1f9b d23f 1487 e157 b301 d0bf
000001f0: 0e76 e915 2036 c0bf 5eaf d7c6 17bf c23f
-0.08608762840550749 0.23268570317974813 0.16335941910905794 0.1187255915274549 -0.09470701633719017 0.17026333356466167 -0.2929870722694201 -0.22446770296587
-0.3015705386675562 0.2097152498403668 0.17942949855269574 0.2568116063128557 0.26729941608307817 0.24194255996690017 -0.07366311117097038 -0.20798738491885557
0.21224675936081866 -0.1868987226330121 -0.13062551062932998 0.03324328427156592 -0.007241178614265239 0.18945953703258256 0.13424804063241352 -0.0711121845312776
0.028835926846097912 -0.008092184165534266 -0.02513122360847159 -0.12137658959347211 0.007407931864676085 -0.1675723693952952 0.28105891599194877 0.2798767940131087
0.21942251392051138 0.2375056624411849 0.26201338749197867 -0.09318284705652054 0.1440916164586289 0.2943148717299841 -0.10221754998032724 0.21215219595286217
0.27435141244011546 0.10511939711934892 0.1350892636259463 -0.3006272437366399 -0.03413658436895591 0.1357631456083503 -0.15679272300047764 -0.052101672373576095
-0.168882041203263 -0.11198572492955136 -0.13680077891342773 -0.1254521390063846 -0.20184729353240088 0.10771095495678099 -0.1212475330896295 0.14812038419557327
0.235520170694219 -0.29736200997884843 -0.29641406365845624 -0.03319583222645513 0.29071801025364724 -0.250103793927438 -0.12665177411956602 0.14645669182879834

topology.conv_GAT.bias f8 [64]
00000000: 3a4c ab30 1416 a43f e6ce fba2 4ca7 a93f
00000010: 0238 0777 4941 aa3f f3f8 6572 2eb0 b8bf
00000020: b051 f1bb 93d1 9c3f fa14 9826 1628 a13f
00000030: 369a 9a0d e84e a4bf 02b4 cfbc a771 a1bf
00000040: 02c5 9152 5b65 aa3f abe6 d570 e69c b73f
00000050: c8ad 05c2 d07c a7bf 1ac7 a5ad b2e1 a4bf
00000060: 5055 0246 8d18 96bf 6a68 b0a0 f224 a53f
00000070: 2ee4 4b03 b388 9d3f 48d6 1cc1 ea66 89bf
00000080: 1576 6053 0564 af3f 35de 9c57 5b3e 653f
00000090: d22f 6972 4629 a1bf 0ee6 cd92 30f2 adbf
000000a0: 4046 cef4 2d3c 5e3f 40a0 2211 3cf2 913f
000000b0: 46b9 f41c 8c4a 92bf 99d4 98cb c776 a23f
000000c0: c300 7df5 44bc a3bf 36d3 e36c bbf0 b93f
000000d0: a4c6 c0db 83de a5bf a9d0 b367 1d49 853f
000000e0: 30ef 0fe4 3e19 84bf a7f0 1d38 7466 a43f
000000f0: 0ee6 f850 3378 ab3f c834 ae9d cdd1 b1bf
00000100: b4a1 ace6 cd67 adbf 3519 75f4 7ad9 a03f
00000110: cc6f c315 a0b6 a33f 3db4 30e1 a6ce 94bf
00000120: 742c 4450 2849 a2bf 6f88 539e dff3 a7bf
00000130: 4e5e 4df3 a577 a6bf 94c5 f0e2 2dbb 843f
00000140: c0e4 9610 d1dd 7dbf 7e92 a95a 1ee5 a2bf
00000150: 4b4c eaa9 bbbc bdbf f46f 51c1 0cdc 8d3f
00000160: 20dc eac8 5ebb 933f 447b c2e5 c8ad b2bf
00000170: a2ef c17d d33c b1bf a4c1 d8c4 dd84 693f
00000180: d86a 9b60 e569 ac3f a4c9 5a3a defe 91bf
00000190: d06e eb10 dbe7 96bf 24d5 bb9c 836d 823f
000001a0: 022a 629d ad3a a1bf 1823 fc24 338f a13f
000001b0: 893e 4f9d ddbc a9bf 28f0 3193 c031 a83f
000001c0: 0810 367b 93c2 b4bf f8ff 921c e47f 8c3f
000001d0: d072 2e69 a5f6 a43f c058 2b23 5765 9bbf
000001e0: c44a 7bae e0f0 a3bf 634d 95c5 965b a33f
000001f0: 0174 e5d8 c6fd 77bf d7e1 5e09 074a b13f
0.039230948391967904 0.05010451783701146 0.05127935007077157 -0.09643831532409645 0.02814322313891332 0.03350896092528362 -0.039664508495935655 -0.03407024555040296
0.05155454047133824 0.0922378564336223 -0.04587414139208651 -0.040784438798153924 -0.021578032873170117 0.041297514071815325 0.02884177882785737 -0.012403329866724225
0.06130997317107415 0.002593210604483943 -0.033518029657528495 -0.05848838607830596 0.001845402602360116 0.017525614305356152 -0.017862500445681627 0.03606247291865223
-0.03854575630839598 0.10132953079648818 -0.042713280272790116 0.010393361785169768 -0.009813777289302189 0.03984416184445765 0.05365143168860352 -0.0696075925790921
-0.057432588966836035 0.03290924295520129 0.038502695709865614 -0.020319564337274654 -0.03571439723790429 -0.04678248222059344 -0.04388159365651899 0.010122641075301066
-0.007291618976006109 -0.03690428597181937 -0.11616108797379458 0.014579867982483542 0.01926944829275723 -0.07296424493186487 -0.06733438320401189 0.0031151133942090726
0.05549542240415456 -0.01757380705994084 -0.022368834407514637 0.008997944088586403 -0.03365080400643096 0.03429565264202078 -0.05026905579836433 0.04725457951369122
-0.08109399564824582 0.01391580784036249 0.04094426068261259 -0.026753770371976016 -0.038947125720047576 0.037808143252415126 -0.005857254740786467 0.06753581980490907

topology.conv_GAT.lin_l.weight f8 [64, 1]
00000000: 6e95 ee00 e592 773f 0ad9 cbf1 ae29 c0bf
00000010: 3d37 b3f2 3b78 bbbf e20e 809f 330c d0bf
00000020: 944a b3c3 d879 c53f d407 1be6 a1d8 d43f
00000030: 4a2e 605b 4e5d b93f 648c 5836 57d5 b6bf
00000040: 50a9 8d40 6f46 b53f 9834 0d08 c602 a5bf
00000050: ea29 c6ac 2108 d1bf 6a39 8094 67fa c4bf
00000060: e686 5a8b 6ea1 b13f 487a e98b 46b5 d13f
00000070: 080f 1e4c 5c25 d13f 765a ae98 734f cf3f
00000080: a64b 3caa 1bbe d63f aaf8 a2e6 46de bcbf
00000090: 3f4e c401 11d6 d03f a0fa 8481 e7ab b73f
000000a0: fe7b 066d 5dc2 b9bf 26d0 9559 01c6 b5bf
000000b0: a833 3092 f8ab ca3f 85ab 56f7 6dcc cdbf
000000c0: 5576 45ab c90f ccbf e83e 042c 0d60 d73f
000000d0: d535 1f0b 9596 c63f 9acf 7ab1 8617 a6bf
000000e0: f272 8185 aba6 a83f c497 fe1a 9574 c03f
000000f0: a783 bd6e cdf6 d43f 4cfe 21ba 3fdb a2bf
00000100: d836 25e4 a83e 803f 7286 8f29 ea65 c2bf
00000110: 14a5 dc3e 277d bb3f dc81 a02b dfc7 cebf
00000120: 2a36 80e0 1206 d4bf 1c32 c403 82dd c6bf
00000130: ea6b 9d29 e6b9 bdbf 6ade 1527 aec2 d23f
00000140: c852 b83f 51b7 cfbf f506 699f d192 ce3f
00000150: 6222 ad26 a039 be3f 78ce 4242 fefd c63f
00000160: 0cc4 aef9 3724 babf 212f d008 f956 cb3f
00000170: 1aba 2178 6edf 9fbf 18e6 b538 db18 b2bf
00000180: 4811 601c 6cc1 d03f 8007 14d8 0acb a23f
00000190: 4a1f 4c60 da8d d13f bb2d 760a 19ba c0bf
000001a0: 738c e026 5703 bc3f 84ac 5962 9851 d0bf
000001b0: 924d 4057 9f12 c3bf 8757 053c e5dd cfbf
000001c0: 6996 b05e 07d1 be3f 2542 5bfb 79a9 bc3f
000001d0: aac4 a300 2350 c63f e5bb 4cb9 a96f c5bf
000001e0: f6d5 b8d0 84e6 a6bf 5828 4c96 13f5 c4bf
000001f0: 28a3 8757 b3f1 b8bf c687 8ac8 5b22 ca3f
0.005755323930235574 -0.12627207571467408 -0.10730337786955331 -0.25074472976869633 0.167780967289748 0.3257221934437642 0.0990799878201695 -0.08919282032779702
0.08310599637994653 -0.04103678558622298 -0.2661213099715086 -0.16389174223918285 0.06886950399578104 0.27668918288501176 0.267905306180396 0.24461216883783593
0.3553532755333272 -0.11276667719627889 0.2630655781988231 0.09246680175872735 -0.10062202369452675 -0.08505257069720126 0.20837313783741007 -0.2328011949260508
-0.2192318044935059 0.36523751543516747 0.1764704040819384 -0.043148240246778616 0.04814659123142019 0.1285578138169382 0.3275636273811479 -0.03682898661736242
0.00793201395267877 -0.14373518971756344 0.10737843785013396 -0.2404746020338412 -0.31287071155461155 -0.17863488372712844 -0.11611784473409129 0.29313234154640233
-0.24778190242127196 0.23885555537895412 0.11806679672475576 0.1796262572803362 -0.10211515279549149 0.2135916989358231 -0.03112576111055363 -0.07069177755865785
0.2618055607893166 0.03670534026788541 0.27428302196539234 -0.13067925463506733 0.1094259710230732 -0.25498017887611746 -0.14900581131278706 -0.24895921164232623
0.12037702619326186 0.11196100603707089 0.17432057887302693 -0.1674701838287255 -0.0447274689471832 -0.16372914160484942 -0.09743805777510472 0.20417353908584185

topology.conv_GAT.lin_l.bias f8 [64]
00000000: 647b 2655 46a7 d33f 36e1 51f9 6f73 ba3f
00000010: fa05 dfeb 9c5b dbbf d797 0352 dde9 c6bf
00000020: be77 46c6 f9ff b33f 4c03 777f e402 d5bf
00000030: acb1 ebcd 2078 d6bf 96e7 b01a 79fd 74bf
00000040: c60c 069b d004 d8bf 9091 bb1a be5c debf
00000050: 2222 7e06 1e28 dcbf cf58 98d9 89c7 ec3f
00000060: d0ae 35d0 bf1e d8bf 8498 ef60 a35d c53f
00000070: 0a19 6210 0721 bfbf f2f3 67ca 38c7 dfbf
00000080: 7028 72da 748f ee3f c26a 328a 4d2c dc3f
00000090: 5467 d79e eefe dd3f 8aa9 49bf 5dde ed3f
000000a0: 7d65 517d 106a efbf 1dde 2c74 a047 e73f
000000b0: 5e69 8c0c ecac d1bf 2460 a7e7 812b e33f
000000c0: fc1a 313b 807f e6bf 7c37 240a 1d9c dbbf
000000d0: 2c92 5d5d 73f3 d1bf 2eac 0ab8 d8ee d8bf
000000e0: e7fe ed80 8bf1 debf 72c1 7cb0 f6b6 cabf
000000f0: 760a 2b35 a46e c2bf 9a5a f8e7 9ea5 d5bf
00000100: 7438 1641 226e de3f 40d5 2223 3d6d eb3f
00000110: c994 c581 8a50 cfbf b43f be09 5632 e9bf
00000120: 8028 7a42 54dd e33f 9608 db7d df11 dfbf
00000130: 5a35 2b87 3394 d33f 7b9a 2dea 6874 ec3f
00000140: 828e 53be 1ded 6cbf aa12 30fc 4d40 dfbf
00000150: 4027 af40 153a e43f 9f29 67cf eca3 b53f
00000160: e80c b262 06ce d13f 84db b5e0 1723 d33f
00000170: 245c 510b c3eb adbf 95d6 7e22 f00e d53f
00000180: 04c6 2e6b a6ad e93f 3228 1c62 5255 da3f
00000190: 3446 c3f5 599b d43f 569c d9c4 1e1d e53f
000001a0: 3e20 ba53 82c8 c1bf 6cbd c800 ac1b ec3f
000001b0: a48a 5205 ff99 eb3f c603 803e 3eb6 d5bf
000001c0: c272 58e6 e0d6 e73f 1225 19db 8953 d6bf
000001d0: 0a55 032e d6df e2bf b421 df86 9431 f0bf
000001e0: e8cc 6388 b8bd ebbf fae2 04f8 6af4 ee3f
000001f0: 33d0 b76b c8a1 e63f 01bf a5ee 22d4 e3bf
0.30708463969670263 0.10332393490705702 -0.4274666121892491 -0.17901197914687714 0.07812462893204405 -0.32830154845946846 -0.35108203992310894 -0.005124543250582555
-0.3752938760664616 -0.47441055880178684 -0.4399485648541789 0.8993577241806409 -0.37687678654650103 0.16692011101912752 -0.12159771108608566 -0.49653453603951825
0.9550117746851026 0.4402040338115222 0.4686848212419268 0.9333943115318999 -0.9816973159424119 0.7274935025261048 -0.27617932534635325 0.5990609669197551
-0.7030640750971027 -0.4314034079587754 -0.2804840480587554 -0.3895780370027663 -0.483492732913858 -0.20870860688729526 -0.14400150867557543 -0.33823368695576905
0.4754720340359946 0.8570848165751741 -0.24464541756166217 -0.7873945417686543 0.6207677172071868 -0.48546588221155085 0.305920488358273 0.8892101835052267
-0.0035310345580102384 -0.48829984309876784 0.63209021218902 0.08453254760312355 0.27819976461633056 0.2990169233739197 -0.0584393454852761 0.32903674477288664
0.8024475186741147 0.41145762997678326 0.32198189735672433 0.6598047108390215 -0.13893155182108957 0.8783779158892862 0.8625483612016365 -0.33924823859711883
0.7449802874503677 -0.348848785365207 -0.5898238085452772 -1.012104536859721 -0.8669092811454933 0.9673361629603214 0.7072488883845892 -0.6196455632288861

topology.conv_GAT.lin_r.weight f8 [64, 1]
00000000: f22a dfc7 36e9 cfbf ccd2 ace9 c842 d0bf
00000010: a641 0ac3 828f b5bf 32ce 5f64 023f c8bf
00000020: 1bc2 8782 7f56 d13f 009d 3a7f 8e91 ccbf
00000030: d6ad cb60 fb05 d0bf 8e76 c7b3 efc3 cabf
00000040: 2f16 5c62 a565 c4bf 3487 c6e7 5f51 c2bf
00000050: 46a7 e061 12a6 c83f 98b6 46f1 4836 c53f
00000060: ecb7 0a3e 641b d13f c8d0 cdb3 196a d2bf
00000070: 2e83 535b fab4 acbf 92e9 1b28 edfe a83f
00000080: 529f 778a 03a5 d2bf c307 d867 9ae2 a83f
00000090: dab7 1fbb 2b56 b2bf b4ab ad9a 59ac c6bf
000000a0: abaf 7f23 4c9f c4bf 7b8d 6ba0 14d0 c73f
000000b0: 4a65 513c 4c3d acbf 566e ee14 4074 d2bf
000000c0: dc65 09d4 4295 ccbf c474 f09f df82 cb3f
000000d0: 7afc 9785 022e c03f 5202 977e 02e1 bebf
000000e0: 2ac6 d919 ef88 be3f 4add 035c 6b6e b23f
000000f0: d8d2 9b47 72cb ca3f 06f0 b231 e2ef ce3f
00000100: b121 9203 9887 be3f d2a5 2687 cabf bc3f
00000110: 9c8c a313 4cc2 c23f 8c20 37ec 0bd2 a23f
00000120: 983b 6677 a41a cc3f ae2f 0abe 1c48 cfbf
00000130: 0199 75e2 a57a b7bf 8833 7dc5 2591 cdbf
00000140: ec96 8f0e 6f0a b4bf c2e3 7997 93ba bcbf
00000150: 2456 db41 3572 b03f 46b5 946e d366 b7bf
00000160: 7e14 5c12 f93c d3bf 00e2 1a51 5e15 aa3f
00000170: a601 328d 628a ca3f 014f 0ba0 40f0 903f
00000180: 1efc bbcf 17b8 bf3f e3d4 9f9d 21ad d0bf
00000190: 024c b3aa 7076 a1bf 4da8 1fbb 84b4 bf3f
000001a0: f0d7 1a87 1979 c2bf 48ee 2ae9 3c85 c13f
000001b0: cfed 771d 5494 cbbf 8a5f 8956 72ff d2bf
000001c0: 78bc 509d d1b0 cabf cc67 4e9e 7379 b9bf
000001d0: 9c94 7011 0809 b03f a608 f702 2da6 a43f
000001e0: 9a9e 3bba fb5a c43f 8fcb 0bcd 7001 d0bf
000001f0: b9ac 283e 54e1 b2bf 1a99 fa83 4f95 c43f
-0.2493046260772967 -0.25407622165520816 -0.08422105085106199 -0.18942289258085193 0.27090442416286614 -0.22319203579284164 -0.2503651089925517 -0.20910450247076934
-0.15935199072571168 -0.14310835663951027 0.19256810931374896 0.16571914464059456 0.26729684885765326 -0.287725854482471 -0.05606825222799326 0.04881993403064934
-0.29132164499468616 0.04860384481072757 -0.07162736242727821 -0.17713470509201346 -0.16111137135828577 0.18603761513723413 -0.055155165064841485 -0.2883453564079209
-0.22330508569102292 0.21493144330535163 0.12640410922174167 -0.1206208762223551 0.11927694684143178 0.07199736591779984 0.20933369156377668 0.24169566561420214
0.11925649726084121 0.11230150031646893 0.14655447920731468 0.036758778176193635 0.21956306295438988 -0.2443881919792807 -0.09171520975869286 -0.2309920515348518
-0.078284207396418 -0.11222193191669219 0.0642426763327753 -0.09141274881104264 -0.3005964926999879 0.05094427814532665 0.20734817404082867 0.016541490333863432
0.12390278646124428 -0.2605670966434685 -0.034106751286934425 0.12384824341248298 -0.1443206700984656 0.13687859902516863 -0.21546412886514907 -0.2968412251552698
-0.20852108174719652 -0.09950945486926271 0.06263780999923302 0.04033032094186355 0.159026590284374 -0.2500879290011477 -0.07375074880171696 0.16080659813196335

topology.conv_GAT.lin_r.bias f8 [64]
00000000: a43a 98ed f44d 953f c8ad 9379 56c6 e33f
00000010: d169 92e1 2572 e93f 0391 5a48 57aa d93f
00000020: 84f1 50b0 bce1 91bf d447 32fc 6fff cdbf
00000030: 26a3 182b 8d09 b3bf a39c aa13 0b40 e53f
00000040: d620 89ec 72f1 efbf 088b f4f3 89cd dabf
00000050: 51ae ff0f aee2 c9bf 9a1a 2c03 5c47 ee3f
00000060: 3165 7884 223e eabf 99d1 40e6 9aad ed3f
00000070: 2659 2540 e638 efbf a426 c373 9eae dcbf
00000080: f807 82f7 27fd c6bf 1038 1f4b 6e73 ea3f
00000090: c5d8 8925 b8c7 d63f 605f bb16 150a d03f
000000a0: f854 ec0c 7509 d13f c63b f137 593b e13f
000000b0: 6e83 12b4 b1cd e5bf e240 afd4 188f dc3f
000000c0: 5e2b 4b71 058b e23f a72e 0a48 6415 bd3f
000000d0: 6ac5 54bd b8cc d93f c1ca 1861 b88a eabf
000000e0: cefb 63d1 d718 ebbf 1935 9109 193b cd3f
000000f0: 22a9 f0b7 1ab3 da3f 7ec2 ce19 ffd8 e1bf
00000100: 62d3 7a38 bd9b e2bf 9c90 c0a5 0add de3f
00000110: e8d0 6005 5e72 ee3f 9ef1 cfd0 bb3d babf
00000120: ec36 4d02 b77b d73f d0a3 fbdf fbed ef3f
00000130: 84d2 184c 2933 d7bf d873 6dfe 55c6 d43f
00000140: 0e6a ca67 3c51 b53f b2d9 62bd a502 d3bf
00000150: 74c8 dfc8 3679 debf b5fc 8713 0692 dbbf
00000160: 3600 9642 8558 d13f 83a7 87ec 1729 e8bf
00000170: 3b7f 4c23 95cf e83f 9c81 dae2 df5e c73f
00000180: 82a2 3a07 ea1a b2bf b350 0eb8 9e21 dd3f
00000190: 85c2 76a0 0f24 8d3f 397d 90d0 cf76 edbf
000001a0: 1944 74df e594 b2bf 5468 fefc 6818 ad3f
000001b0: 5e6c f38a c024 e93f 5c9d 6a70 b87a d9bf
000001c0: cdaf 972f fb5d d8bf f4ec f36a b599 e5bf
000001d0: 365e 5830 c207 db3f a5fd 8422 9152 dfbf
000001e0: 30a4 64da a30e cdbf 293b a2bc 4bb5 bf3f
000001f0: 00de cfe1 21a7 e0bf d4a4 d8d3 0ad2 e2bf
0.020805193902612942 0.6179611563251735 0.7951840787603094 0.40102178636358604 -0.017462681066022792 -0.23435783209111938 -0.074364493390601 0.6640677818403627
-0.9982237453305298 -0.4187950975776151 -0.20223022252263204 0.9462108671148883 -0.8200848185835296 0.927442025864866 -0.9756957295274205 -0.4481578951350491
-0.1796007116827807 0.8265906779504366 0.3559399000727235 0.25061537952341517 0.26620222341564626 0.5384946911452679 -0.6813591496503315 0.4462339474676026
0.5794703686491223 0.11360766180785707 0.40312021722191693 -0.8294336220190744 -0.8467825975093264 0.2283660217966961 0.41718166315935623 -0.5577388290458456
-0.5815111258622034 0.4822413080858128 0.9514608483355262 -0.10250448081928318 0.3669259569622756 0.9978007673899985 -0.36249763900131193 0.3246054634708435
0.08327081235840003 -0.2970365857576339 -0.4761483155881543 -0.43078758151382185 0.27102786543401025 -0.7550162906384091 0.7753396691732414 0.18258284165223138
-0.07072317768564498 0.4551770017071803 0.014228937229604508 -0.920753390648236 -0.07258450227188042 0.05682685936263057 0.7857363428005433 -0.398115262777045
-0.3807361569185986 -0.6750132645533129 0.42234854432306024 -0.48941448565525497 -0.22700927890517297 0.12386010508837998 -0.5204018984213121 -0.5881399285910001

topology.convs.0.eps f8 [1]
00000000: ce05 2ee3 d629 96bf
-0.02164397965998948

topology.convs.0.nn.0.weight f8 [64, 64]
00000000: 0893 db62 c258 af3f 1db1 c2f7 f369 9e3f
00000010: 42a2 cf26 3f63 c0bf 98f7 d08f 7821 9b3f
00000020: 748f e540 7ed5 913f 9ef6 2ede 1d6c b23f
00000030: b3f5 1c35 e37d b4bf 6bb4 9e49 16e6 c3bf
00000040: deee 047e 4597 b33f 8d99 ca2d 991d a0bf
00000050: 877e 56ef 3aa6 a7bf d279 e09a a09d b53f
00000060: 1a0f 7fb5 319a b9bf 8ecc d663 64cd 8ebf
00000070: ac37 b023 31d1 c03f b212 efb0 1ff7 b23f
00000080: 9a61 fe81 726e a63f 169e d255 2207 69bf
00000090: 2595 39a6 016a c23f 24ec e37f 9f65 ad3f
000000a0: d253 85f8 12fe b33f 28a4 0201 4b9e b93f
000000b0: 28c1 b781 1857 b7bf 1f87 98aa d447 b1bf
000000c0: 3982 d571 980b ac3f f354 1690 fbd0 a0bf
000000d0: f043 6c23 97d1 693f 99b6 4f4b e4db a1bf
000000e0: 208f 01c0 40a1 8dbf 445f 7f8b 8962 9abf
000000f0: 4849 a0a8 a26b a63f 9fb9 d604 4600 a2bf
00000100: 5200 0276 47b0 b3bf 80a2 bca6 0e35 a63f
00000110: c080 de98 de42 5c3f 46b9 a964 efb7 b43f
00000120: da8c 088a 4a9a bf3f d801 c2a1 9ebe 913f
00000130: 762c de3a 43af b73f 289e 1c78 c157 8abf
00000140: 62b6 d672 bc58 a53f b632 9e19 cdc1 b8bf
00000150: 4584 1cf7 661f aabf 046f cd87 2294 a73f
00000160: a5bc 9d50 b7b9 b93f c840 da5a b5e0 b1bf
00000170: da18 c03b f305 afbf baf0 3fd7 b85d 463f
00000180: b4c1 20d3 405f ba3f fa23 a963 e90c b83f
00000190: 7c00 46e8 b381 b6bf a42f 593d 2eb6 a13f
000001a0: 0f50 30ee ebbc a2bf 1a40 1b1f c830 c33f
000001b0: 9a4c 7824 49dd 95bf 512f 2c11 09e3 a1bf
000001c0: 2d4e ec6d a2e1 a23f d831 ae4a 6f06 aabf
000001d0: 547c 2f88 a4c2 b73f 308c fe93 de05 af3f
000001e0: 6df2 642f 0afa 9fbf 44fd b1db 5106 7dbf
000001f0: ac3f 2392 e066 8cbf be2b dc4e b056 b43f
00000200: 9cb1 98b6 cb14 c0bf feb8 4f41 9b23 b9bf
00000210: e0d4 5764 4bd3 abbf b431 286b e925 bc3f
00000220: 3632 d54f 0fc5 8c3f f439 a754 3656 a8bf
00000230: df38 7ed5 733b c13f 4854 c5db 5e01 aebf
00000240: e548 e9f2 1904 7a3f a8e3 2b2f b144 b0bf
00000250: d617 d006 8754 c13f 3878 99ba 0b6b ac3f
00000260: b3dd 01f4 e3a5 773f 00a7 0199 3ffd bcbf
00000270: a8eb f144 0f0b c1bf e428 77b2 d748 c63f
00000280: 4964 211f 2a1b 93bf 3ae2 ed72 9c69 a5bf
00000290: 2a47 e17a 6e1c 91bf eb60 39eb 5447 b6bf
000002a0: 8cf0 9d73 10ed bc3f 0bc8 aed6 1f6c 9cbf
000002b0: d62d 96ff 2b96 b93f 97ac 8542 da05 c3bf
000002c0: dc4d 3dd9 4bb4 ae3f 32de b7da f884 b33f
000002d0: 2e6d c05c a822 be3f 4270 bc38 dd89 acbf
000002e0: e893 1754 b8aa 943f d3f0 3a1c 9a06 92bf
000002f0: 2c18 16b1 d874 8abf be9b 4afb f685 acbf
00000300: 0ac1 ae9d 4262 a2bf 3a92 2c92 64f6 ab3f
00000310: 33d3 fa9b 9a6f c03f c162 3978 63ee b83f
00000320: dabb ab2d 03a0 943f 901b 3bfe 3066 c13f
00000330: 008b ca73 97cb a6bf 83eb 14ca 6843 a13f
00000340: dc42 1712 3473 b13f f0bd 8641 f909 c53f
00000350: 095d 1089 5ca5 713f c0ca e382 1e66 c6bf
00000360: d4e4 bbc0 40b6 b6bf fc86 16bd 5429 a23f
00000370: 44e8 0a53 d670 bc3f de9e 6586 0246 aa3f
00000380: a9ff 08c3 da59 b5bf aa5f 757f 5469 c1bf
00000390: 3217 fa44 c7da a63f fa12 d855 003d 6ebf
000003a0: 46d7 a5a7 5121 3ebf e82d d59b 499e a2bf
000003b0: b247 fb9e 4338 babf 1441 9ad1 a4e7 a23f
000003c0: 3707 6cad 4517 89bf 6186 86f6 f323 a03f
000003d0: 4af3 9608 0f61 c13f a87b d2ac 4a1d b23f
000003e0: a5ce b6a3 fc11 b43f 7742 5b2e 9703 b0bf
000003f0: bc57 5b32 4df7 c1bf 6f15 926d 01b3 b83f
00000400: be26 91bb 8af8 b63f b0ac b4b3 2d40 bdbf
00000410: fe72 ea26 bbde c13f f434 d5e4 e9eb c23f
00000420: a617 17f4 9e96 b6bf dc1e 1647 6c56 7b3f
00000430: 3b78 51b6 320c aabf 1dbe 631f f9ee ba3f
00000440: 6465 f536 5ad8 9fbf 76d1 a9ca db80 b53f
00000450: 5a94 0839 9153 ba3f 3c2b 9d06 6ebf b83f
00000460: b882 02d5 db94 c03f 6708 f608 b9b4 b63f
00000470: 068d 6673 9ad2 b33f 5d33 b8c9 c265 ac3f
00000480: d272 1f67 52b4 b3bf 2e92 5352 e6eb b73f
00000490: 8095 46d4 529a b3bf 1597 5ad2 c813 95bf
000004a0: a062 8b8a 5b7e bc3f 6ad2 2e72 92ec 7bbf
000004b0: 8948 bbf6 ff5e b0bf 0e96 7ad7 c7f1 b53f
000004c0: bef2 350d 1c1f a7bf 9082 ae9d b5cf c1bf
000004d0: 9e92 c712 a0be b83f 4c62 b5e1 e469 8d3f
000004e0: 0845 26a7 e18d b13f 53a6 8c14 b743 b53f
000004f0: 88b2 0ed7 03e5 c0bf 689d 3a2b 6fec aebf
00000500: d058 59e5 b055 b93f 389d d043 3612 acbf
00000510: 8057 8d57 3753 b53f 5a69 d9eb 32cf bb3f
00000520: bfe0 730a 99b7 b53f bbc5 62ee 1ab3 bd3f
00000530: 5caa 939d 5dcf b33f 8d09 fa02 3143 b33f
00000540: 410e fb70 018b a23f fa63 93a9 e7b6 bbbf
00000550: 3c3a 06fe 2945 b83f 2076 45b9 b538 abbf
00000560: 2607 4180 6689 a13f e05a 52ba b5da adbf
00000570: 107f f62a faa6 b53f 55b1 c78a 643b bcbf
00000580: 6950 0423 ed3b b6bf f648 3e4d a734 a6bf
00000590: 335b 1392 3a16 ba3f dce2 92ea 3aad a33f
000005a0: e247 25e2 2ea1 9e3f 7c2e f184 9897 c0bf
000005b0: ea76 6121 95ed bebf fa83 b82f b29a 7cbf
000005c0: 1430 0636 c9ea b13f 8eec 826a a719 a3bf
000005d0: b8af 43c6 264b b9bf 2cfc 9364 4739 bb3f
000005e0: de6d 5d24 a722 b23f a476 a429 4e3e a4bf
000005f0: a2f2 6e3c 4adc 8a3f 7086 5112 a502 b5bf
00000600: 0f06 f05d 2796 a33f 3ca1 577f 0dda 9c3f
00000610: 202e 2377 9e71 b2bf 252a 69ac 8a42 b9bf
00000620: ecce c9f5 0e2e c83f 4e39 e90f 8322 abbf
00000630: 02e5 ec28 30bc 9bbf ae1a 2fee 00fd a9bf
00000640: f281 9aaf 819f a4bf 76be 87ef d749 c5bf
00000650: 1e74 937e df16 c9bf 6c80 20c8 1ec3 c53f
00000660: f385 90fe 0380 c1bf 6662 320f 5c7f a13f
00000670: 1413 e640 3891 c03f 6f10 34ad 2957 9dbf
00000680: 4816 c290 e32c 72bf 54d9 cd9d 0c4a bc3f
00000690: dede 6511 104a cb3f 6428 18e8 a6f5 a43f
000006a0: 3196 df78 8a67 cabf 6f7b 0348 0c07 6d3f
000006b0: b660 4dab f299 af3f a004 c8b7 1c26 c73f
000006c0: cb22 6ced 7edb c5bf 50ec 7d1f 3e6f c73f
000006d0: a80a 276b 3e1e b4bf 04ae c90e 4235 c1bf
000006e0: da25 a225 92f1 b3bf bb0e 2964 8c3b 873f
000006f0: 9a10 c473 05de ba3f 8648 14ba c26f 7dbf
00000700: 80d7 f9d7 a31c a7bf 9164 61ff fec1 c43f
00000710: 16bb 099b bb1c a9bf 8dd0 0d17 09e4 ccbf
00000720: 2050 5cc9 3258 b73f 4267 0951 9887 7ebf
00000730: 9245 a095 52b7 c53f fede 21a6 b137 923f
00000740: c0b9 1d55 1e1e 72bf c6d2 7646 3eff abbf
00000750: 8c94 f7da 1280 a73f afad 6cf5 9bea bc3f
00000760: 34a0 ffed 3a3d c03f 6801 1e37 44ee b23f
00000770: c3e8 d067 c110 b7bf 069e eddd d5d3 86bf
00000780: 7a33 9075 6232 c03f e865 e95f 7563 c83f
00000790: 63b1 5ab2 c042 c53f 13c9 2045 0a41 9c3f
000007a0: 9e37 e954 5ddf c3bf b142 d025 5b9c c33f
000007b0: 9489 95d3 93e2 a1bf 3dba 8f74 a09f b9bf
000007c0: 1025 6d4a 8210 a13f fb34 8154 95d4 bfbf
000007d0: 311f b5bb 4053 babf c826 3c6e e82c 903f
000007e0: 6e53 124d 09f5 c7bf 6626 c003 368b a93f
000007f0: 7cc3 f1b3 4b65 c53f f852 968d 9393 c2bf
0.0612240548778456 0.029701053616620777 -0.12802876849242933 0.02649486902031803 0.017415974341374832 0.0719622294845643 -0.08004589125353938 -0.15545919985507636
0.07652696921007471 -0.031475817527552775 -0.04619011088948093 0.08443645268605529 -0.10000906640112497 -0.015040191933485294 0.13138403170199575 0.07408330983805447
0.043811395996445415 -0.003055159626985003 0.14386005989505538 0.057415947305308884 0.07809561316874117 0.10007160925546599 -0.0911727253621889 -0.06750229992806255
0.054775966544870554 -0.032844411219380996 0.0031516982957175907 -0.03488076609924668 -0.01446772180515371 -0.025766514910940744 0.04378994282173437 -0.03515833672587409
-0.07690855628061513 0.04337354455339426 0.0017249273109670032 0.08093162734596601 0.12344804639774357 0.017328718779482916 0.09251804530338056 -0.012862693288823016
0.041692627924345485 -0.09670717120588787 -0.05102082983490467 0.04605205447907504 0.10049005239646876 -0.06983502834396227 -0.060592270892856084 0.0006825592558921325
0.10301594881526094 0.0939470165550488 -0.08791660710085297 0.034593052853409106 -0.03659760744645279 0.14992620009297825 -0.021351950503298946 -0.034935267778648645
0.03687770454248738 -0.05083034311892093 0.09281376194802365 0.06059165531703348 -0.031227263586730936 -0.007086105116399569 -0.013868097743767148 0.07944776463788991
-0.12563463607638148 -0.09819956154362683 -0.05434642410174617 0.1099534880269804 0.014047736762813217 -0.04753274711002922 0.1346268455931243 -0.058604206397526115
0.006351567614347274 -0.06354815866133257 0.13539207298907624 0.05550419476342977 0.005773439828878168 -0.11323926435002463 -0.13315001360373668 0.17409797872671284
-0.018658311986971907 -0.0418213739675974 -0.016710020303725738 -0.08702593558098541 0.11299231360129819 -0.027756211736864638 0.09994769086750152 -0.14861610649254395
0.05996930147980681 0.07624774303246154 0.11771633400387735 -0.055739319968978865 0.020182495243620396 -0.017603309605633676 -0.012918179420705021 -0.05570957009813736
-0.03590591597401456 0.05461420330383189 0.12840588203621336 0.09738752064857704 0.020141648924376067 0.13593113340013163 -0.04452203072039218 0.03371741740053038
0.06816411439582332 0.164366871829301 0.004308091608457029 -0.1749914301977551 -0.08871845918101268 0.035471580583601864 0.11109675910384548 0.05131538286769709
-0.08340232144928329 -0.13602691863593225 0.044637896699937576 -0.003691197066247984 -0.0004597496369095243 -0.03636388804678942 -0.10242102271447953 0.03692355211853929
-0.012251419405859927 0.03152429947227798 0.13577449721733564 0.07075945586482979 0.078399457902203 -0.06255478746175834 -0.1403595443613862 0.09648140835823481
0.08972994879982374 -0.11426053655002266 0.1396097126024855 0.14782451318243484 -0.08823579272492896 0.00667421623200656 -0.050874314075131065 0.10520894066188942
-0.03109875641289274 0.08399747560344459 0.10283763544482963 0.09667098676179092 0.1295428075873326 0.08869511097694414 0.0774323016872139 0.0554638739814439
-0.07697024362228014 0.09344329366610601 -0.0765735405207888 -0.020583284224492255 0.11130306370194853 -0.006817409567635305 -0.06394958280296427 0.08572052965845264
-0.045159222233427596 -0.13915128897953766 0.09665871103750098 0.014362133157804234 0.0685711892204105 0.08306450130171443 -0.13198898316240482 -0.06039760019967383
0.09896379088727092 -0.054826446321664724 0.08330102813246576 0.10863035448111216 0.08483273034278492 0.11601417846647781 0.07738289925661362 0.07524401018785039
0.03621677879484909 -0.1082596577647478 0.09480535938039564 -0.05316703688252411 0.034251406818397265 -0.05830924891886524 0.084579120148643 -0.11028126133141332
-0.08685190300849545 -0.043370464495767466 0.10190168443965035 0.03843101609658614 0.02991173987658858 -0.12962633601488338 -0.12081272187193873 -0.006983467140828198
0.06998879975270739 -0.03730509925068147 -0.09880297031821683 0.10634275632399753 0.070841261270679 -0.03953785188990125 0.013115482301026053 -0.08207160660961121
0.038254957406035676 0.02817555513129942 -0.07204618843677979 -0.09867159566162138 0.18890559197790624 -0.05299768037058304 -0.02708506822384483 -0.05075838954467336
-0.040279438673000004 -0.16631602474034296 -0.19601052933185853 0.17001709720443914 -0.13671922616872187 0.034174801688270404 0.12943175476916535 -0.028652812191481688
-0.004437340667327989 0.11050490238799188 0.2131977162314262 0.040936675865012956 -0.2062848177148893 0.00354339979831713 0.061721404467506444 0.18085059140870374
-0.17076098053828156 0.18308235681237983 -0.0785864841082381 -0.1344378063398467 -0.07790482920440614 0.011344048315670254 0.10495027614894284 -0.0071866613882482
-0.04514038096833328 0.1621702906584557 -0.04904733912996144 -0.22570909143144427 0.09118955055265632 -0.007453532206079862 0.1696570616336826 0.017790580525313786
-0.00442325447680364 -0.05468172655256391 0.045898999432929605 0.11295485250291536 0.12686859723112465 0.07394815774569496 -0.09009941849299978 -0.01114623149415107
0.12653761616129683 0.19053523238362335 0.16609963139252235 0.027591858357660714 -0.15525404592557107 0.15320910784114042 -0.03493177373708814 -0.10009196134317562
0.03332907827877751 -0.12433751404860864 -0.10283283789351284 0.01579631016560404 -0.1871654154134847 0.04989022060187835 0.16715379988047718 -0.14512867368161841

topology.convs.0.nn.0.bias f8 [64]
00000000: 62b6 9435 9c07 bcbf 9db3 6186 29df b23f
00000010: eff8 4ee9 404e bdbf cbc0 7879 d275 603f
00000020: d6db 7fd3 e667 b3bf b73a 8b06 5fb0 9abf
00000030: 90de 1362 354c 9cbf 7216 927b ab9b 85bf
00000040: 11aa 3de7 83a6 553f b768 dd34 e35a b2bf
00000050: ec0c d307 b645 773f dc67 342c 3d3a a63f
00000060: bac0 5be0 3bef abbf 1c94 c4de deb3 b8bf
00000070: e84d 8d40 3c77 b1bf 026d 4925 ca93 96bf
00000080: a48d 665a c821 bbbf 5e74 d0ef b625 b63f
00000090: 16db 81ef e7c2 acbf a556 d4a1 57f1 963f
000000a0: c39a 3902 56ec 96bf 522d 461b 6199 9bbf
000000b0: eaf8 ed4a 7004 b2bf 571e 256d de04 8abf
000000c0: 84ff 26a1 ff0f babf bcfc 812b 30a0 a6bf
000000d0: d700 9b16 0da3 9e3f 686c 6a6c a307 bcbf
000000e0: 189b d5ad c1e1 bebf 76de 3a03 7ab5 bebf
000000f0: 70f9 418f 5b35 a03f 3290 ddad 6617 bfbf
00000100: 3677 e9a2 b5dd a1bf 36c8 8d1f 9daf 91bf
00000110: 5f51 b7fa 334b a1bf 7a65 8d81 7527 9bbf
00000120: 4bf9 517c 65f1 47bf faf7 f461 36ca 8dbf
00000130: ed5c d484 0e20 ba3f e0b2 bc02 3f62 b0bf
00000140: 3990 387d 42c4 af3f ba37 ac88 3d87 b73f
00000150: a06b d03c a88d 8ebf f610 7af3 862c b43f
00000160: c46e 10e8 c4b4 a6bf 249e ace4 e12a bd3f
00000170: fb99 dd3f 8b13 b23f b9bc 59ee ca83 b73f
00000180: 5cc1 cbf1 61e2 bd3f e693 4db1 6b6e bdbf
00000190: 0c98 2ef1 e456 bd3f 9fb1 7691 2a3f ba3f
000001a0: 6a87 6182 cfd1 953f 4645 75c8 4659 a6bf
000001b0: 5aeb 9703 de94 b53f 90ca de35 9c62 48bf
000001c0: e881 953a 2628 b03f 7623 4b08 8632 4ebf
000001d0: a669 d051 606d b43f ce0a 2c72 6c5d be3f
000001e0: 6fde 3861 32b1 bf3f aed7 7a15 0d1c b5bf
000001f0: 3c10 8d00 82bb afbf 3e1f c02f 0006 b4bf
-0.10949112232329974 0.07371768503953864 -0.11447530456550557 0.002009306986813985 -0.07580416358528849 -0.02606342770996647 -0.02763446246259932 -0.010550822933747404
0.0013214386098875412 -0.07169933357855283 0.0056817160195265885 0.04341307797058366 -0.05455958474874607 -0.09649460734051768 -0.06822563720680075 -0.022048147702986583
-0.10598423201604718 0.08651297907677377 -0.05617451475784756 0.022405022861753072 -0.022385925184063248 -0.026952283181839683 -0.07038022832236704 -0.012704599099961173
-0.10180661854155743 -0.0441908887014448 0.0299188656852046 -0.10949155232303698 -0.12063227170947888 -0.11995661333900806 0.03165708659888622 -0.12145082230341656
-0.03489463437720845 -0.01727147584046681 -0.03377687869547929 -0.02651771167015713 -0.0007306809935839013 -0.014545845856101625 0.10205164664181483 -0.06399911705802763
0.06204421785903986 0.0919073542283674 -0.01491862712469133 0.07880443043001492 -0.04434790928664037 0.11393558342808113 0.07061071690768721 0.09185474700074082
0.11673557427616771 -0.11496613577544643 0.11460715187294584 0.10252634097441281 0.02130817635805419 -0.04364987561224125 0.0843027838490519 -0.0007441771265262621
0.06311263017915503 -0.0009215502219258448 0.07979394910254331 0.11861303126719777 0.12379755853259565 -0.0824592759553002 -0.061977446143402365 -0.07821656385214923

topology.convs.0.nn.1.weight f8 [64]
00000000: 60cd bc4a 1b00 ef3f a4b8 ffdf 045b ef3f
00000010: c20a 15e5 36ee ee3f a51a ec0f 01e9 f03f
00000020: be83 7e31 72ba ef3f dce6 5323 2700 ee3f
00000030: f07a da6c ca55 ed3f ac41 d5c2 9e69 f03f
00000040: a0cb 8f5b 5a5f f13f bc43 2a40 d000 ef3f
00000050: b1d9 0cdf 2fa3 ee3f dc22 8bf3 1fe7 ee3f
00000060: eebe d9d8 efeb ee3f b000 6413 f047 f03f
00000070: 62ba dc31 e49a f03f a406 e2c9 771b f03f
00000080: 6ab4 3921 eb8e f03f ae3d 6db0 5fa6 f03f
00000090: e41c 4134 f5af ee3f 1e36 cf3e 1139 f03f
000000a0: 5a2c d49e b72b f13f e667 4c2b de3d ee3f
000000b0: 0610 5e52 be81 f03f cd9d fde3 edeb f03f
000000c0: d2d3 85a6 802e f13f 911f 2270 317a ee3f
000000d0: 52df 950b 7360 f03f 48cd 74e2 af54 ee3f
000000e0: b48b c627 c7e0 ed3f dd22 7eb7 1f21 ee3f
000000f0: efae 3887 e401 f03f 8c03 d5c0 63a3 ef3f
00000100: e475 2207 2acb f03f 460a 6941 9a69 f03f
00000110: 7cdf a95f 9b68 ef3f 5439 b7f2 1eda ef3f
00000120: 2969 ecb4 b2c7 ee3f fa28 e80f d5d8 ee3f
00000130: d463 bb82 50e3 ef3f 6bb8 9a8a 027e ee3f
00000140: d08c 5c6e ddc1 f13f b6cd d13a 6479 f03f
00000150: f66e 0978 da69 ef3f dee3 6caa 32e2 ef3f
00000160: ca51 7f20 6551 ef3f 0430 a3d4 b749 ed3f
00000170: cabd 8ae0 6c65 f13f a45c b201 e1d2 ef3f
00000180: 2952 d911 2d4e f03f 7afd 78d2 7595 f03f
00000190: 587f 22da 8d58 ef3f 5c90 f65f 4326 f13f
000001a0: 1519 bae1 007a ef3f 30fc 3f60 e91c f03f
000001b0: a641 baf6 dda0 ef3f ab04 7425 addd ee3f
000001c0: 6467 6788 72aa ee3f 4000 6036 5736 ed3f
000001d0: 7685 a8c7 3771 ee3f 08b9 41cb 1f06 ef3f
000001e0: 9b33 6aac 0a93 ed3f f8df e9a9 27a2 ed3f
000001f0: 3af4 736b c6b9 f03f 7679 08de 5720 ee3f
0.9687630138127297 0.9798607230166181 0.966578910280383 1.0568857786144374 0.9915095297511625 0.937518662452216 0.916722500423786 1.025786171976601
1.0857795311573923 0.9688493016457111 0.9574202877473025 0.9657134777745244 0.9663008914339721 1.0175629384466838 1.0378152797453812 1.0067060361911127
1.0348922059886498 1.040618600050816 0.9589792271225659 1.0139324620717 1.0731731609582966 0.9450522275612883 1.0316756455877125 1.0575999170194905
1.0738531594081349 0.9524161520102884 1.0235472157055097 0.9478377745603348 0.9336887146822535 0.9415434440462281 1.000462082108182 0.9886950269939105
1.0496006277747876 1.025781875142131 0.9815194004467993 0.9953760853330018 0.9618772061979018 0.9639687834435613 0.996498351417467 0.952882071220086
1.109830313777639 1.0296366021765215 0.9816715568990435 0.9963620499248653 0.9786859163964945 0.9152487900805686 1.0872620364351513 0.9944920571459943
1.0190859505866092 1.0364893170916205 0.9795598278469511 1.0718415974197546 0.9836429985741996 1.0070585021746972 0.9883870905778636 0.9645601016528834
0.9583065666331376 0.9128833829891008 0.9513205432487399 0.9694975824220657 0.9241994254567659 0.9260443037628638 1.0453552434330633 0.9414481484016466

topology.convs.0.nn.1.bias f8 [64]
00000000: b88f 7598 598a a3bf 4898 98ae 9dd1 953f
00000010: 4042 d19a 0804 753f ae96 95f9 d53c 76bf
00000020: 0aea 2ca8 12fc a1bf 447d 451e 565f 9bbf
00000030: 8a0d 0a9b 2b4b b2bf 8015 6800 569b a23f
00000040: 9e5e a74c bca8 b43f 931a 966b 520d 65bf
00000050: 6cca 5889 4e18 a7bf 24f8 e1d2 ff72 adbf
00000060: 9642 2621 50de a5bf 7acf bd0d b53b 9b3f
00000070: 9c07 1f27 1883 a33f 48f0 bd52 f923 953f
00000080: a047 7fb5 f303 a0bf bbfc 38d0 1737 ab3f
00000090: f90f 532f d279 aabf 3fd2 fcab 12ac a03f
000000a0: 30a2 1cd7 acd8 b03f c691 a9be 36b9 aebf
000000b0: 1e0e 94c0 831b 983f 5630 6740 92a4 a93f
000000c0: 84bf fae1 edc1 b13f 3ece 8075 3848 6ebf
000000d0: 9813 b0a4 9955 a23f b0dd f192 435c a8bf
000000e0: dc91 847b fe1a a9bf deb6 b448 d564 a8bf
000000f0: 620a e003 9ac4 ac3f e662 077c 6938 943f
00000100: 329d ae40 13f3 b13f 4ad5 aeec dc93 98bf
00000110: f228 6b86 f68e 803f d406 40e5 063a 90bf
00000120: 0135 21df 2661 a1bf ea40 c350 3f00 9dbf
00000130: 9cd6 1ffc 83d6 8e3f 5614 a63d 6158 acbf
00000140: 7ad2 9fa1 53ec a63f fc8a 7ff5 1a6a a53f
00000150: f8a2 cfc4 9236 63bf 288a daa1 b388 743f
00000160: 36c7 e69a 5426 82bf a543 bf50 7888 b0bf
00000170: 2a8f b06e 25aa b73f fc99 6864 5ede 9c3f
00000180: 8319 37f3 0afd 99bf f875 cfc0 3473 883f
00000190: 241b be76 0254 48bf f0b0 dced 481d b33f
000001a0: f5df db72 45bb 8e3f f60d 1efb f8ba 833f
000001b0: 3851 1a3c 063c 483f e0bf ee6f 0a00 9bbf
000001c0: 3c12 879d 3f28 8bbf fe0e 5b17 7401 b1bf
000001d0: eae5 9bb8 fa68 b3bf 3614 c716 0939 9ebf
000001e0: aee2 a6d8 9fe9 a8bf 8c5d c42e e3fc b2bf
000001f0: 8463 2da1 27bc aa3f e1f1 59d3 e82e 87bf
-0.03816490160059466 0.02130743387365211 0.005130799877477943 -0.005429111327747966 -0.035126288441876666 -0.026730867002126915 -0.07145950827730566 0.03634136919940101
0.08069970008306845 -0.002569828965252549 -0.04510732103917267 -0.057518000118747886 -0.042711738630832816 0.026594952548705454 0.03810954549363929 0.020645042109649375
-0.031280151276987356 0.0531547013929354 -0.051710670735275195 0.032562812323167815 0.06580620052103181 -0.06000681950971258 0.023542460087823007 0.05008370433969904
0.06936537520482317 -0.003696546813466899 0.035809327462664686 -0.04757891815909987 -0.04903407342706931 -0.04764429581187611 0.05618745133690052 0.019746444888229762
0.07011528329040997 -0.024001552530269955 0.008085180260782174 -0.015846355192485742 -0.033944334733499566 -0.028321255974163607 0.015057593471264945 -0.05536178472088042
0.0447717795176787 0.04182514426044823 -0.002345358522223836 0.005013181389275569 -0.008862172105043347 -0.06458236667027835 0.09243997528443218 0.02819201934667069
-0.025379344076804877 0.01193848813448549 -0.0007424366026363744 0.07466560179881632 0.015005629127230672 0.009633965648169412 0.0007395773356671303 -0.026367343026947654
-0.013260361666547309 -0.06642842836577853 -0.07582060820632078 -0.029514448180425222 -0.04865741271664113 -0.07417125598691693 0.05221675722595534 -0.011319941472941632

topology.convs.0.nn.1.running_mean f8 [64]
00000000: 2f7a 1bf9 67c9 b7bf 70c1 2e14 cc5d 9e3f
00000010: c5ee 0eed b8b7 c2bf 2566 be40 a4c5 b13f
00000020: 8af7 3b0e 5168 9dbf bb67 86ad c74c 9ebf
00000030: 72ff a3f2 6dc4 a5bf 2032 2944 edd2 9f3f
00000040: 3bc9 a648 7dbc b0bf d949 20ef 58b1 a9bf
00000050: 31e0 ddce c534 94bf 4291 c964 01eb a13f
00000060: 4e22 20cd 72d7 a5bf 9207 42ce 4c94 bfbf
00000070: fb9b 859a a774 bdbf c41d b6ff 54c4 6cbf
00000080: 428d 9d62 ae42 aabf f63f 273d 50af a53f
00000090: 3322 3d1f 9375 afbf bdef ed12 1ce7 ad3f
000000a0: 08f7 8a6e 5d9f a33f d28c e399 1c80 98bf
000000b0: dbcf 473b cdfb 98bf eb3a e79c 0294 9d3f
000000c0: f567 cf2a 599a a5bf 76ab 38cd 9ba5 acbf
000000d0: 0723 edaa 9b4b b03f 4f2e 9f00 db31 c1bf
000000e0: f152 67d5 48ac bdbf cec4 7961 8482 c0bf
000000f0: 3d76 f21c 122b 8fbf 8c81 b239 24f1 b8bf
00000100: 7e76 2bb1 9fe7 b3bf 5445 ec12 6e2a a53f
00000110: 2219 f03e 0133 adbf ab41 5725 1317 7c3f
00000120: 1135 d728 f0a3 96bf 92e7 abc7 b7df 783f
00000130: 9851 50d2 4314 c13f 5e0c 9d53 c6df b2bf
00000140: ef1d 82a5 c940 c13f c037 761d a7d8 ad3f
00000150: 6937 4e4a 8dfa 86bf 2789 96cb 6271 be3f
00000160: 8596 462e e806 b3bf f97b 54af 6cf2 b83f
00000170: 8b4f 901a 1ec2 513f 1284 5300 a4f7 ae3f
00000180: 991a 2b7f d6e0 c33f 3b62 69f7 904c adbf
00000190: 62dc 6235 f513 c13f e838 6f0d f8dd ad3f
000001a0: 73a6 3cb7 6cbf 913f 99ee 143d 4650 b4bf
000001b0: 7371 b074 2ad1 b13f 6257 a3ea 8a7b 62bf
000001c0: 7226 3dc6 f747 ab3f 73e0 2811 71d2 9ebf
000001d0: 8638 6fdb 8464 b53f 440c bd5a 9af2 bb3f
000001e0: 6425 4d04 9955 c23f 8f3b 87d6 0ce9 b4bf
000001f0: ab59 5be1 f82c b9bf e109 eb5a dcf0 b4bf
-0.09291696387979508 0.029654682857370884 -0.14623176169503985 0.06942202168138374 -0.02871824883822386 -0.029589767423750617 -0.04251426302835072 0.031078059468471975
-0.0653761198398443 -0.05018117827434638 -0.01973256182779454 0.03499607425036057 -0.042659366168724774 -0.12335662875741907 -0.11506125948436356 -0.0035115871557455953
-0.051289987123505756 0.04235316034794316 -0.061443898738222556 0.05840385180542238 0.03832523321533016 -0.023926207440024445 -0.02439804720229675 0.02888492663060564
-0.04219320914826589 -0.055950993348537745 0.0636536876965118 -0.13433396845208498 -0.11591010294007355 -0.12898306617311167 -0.015218869694133658 -0.0974295273649714
-0.07775304866250995 0.041339340028694466 -0.0570297612503501 0.006857943333173837 -0.022109749310222308 0.006072729006285986 0.13343093651986915 -0.07372703114838106
0.13478966313799343 0.0582935546363923 -0.011220077352642925 0.11891763182078262 -0.07432414178637188 0.09744910507696138 0.0010838788969111692 0.060483098068068966
0.1552990075053529 -0.057224779321306284 0.13342156512019004 0.058334113731335624 0.017331789668935515 -0.0793498896718411 0.06959786747797185 -0.0022561753477061
0.053283446263390113 -0.03009964625582069 0.08356504781042604 0.10917057719511641 0.14323723516489928 -0.08168106305605093 -0.0983424711406317 -0.08180024356537487

topology.convs.0.nn.1.running_var f8 [64]
00000000: 05f5 7afc 167e b03e bf43 4576 1b41 d43e
00000010: fde6 ebb4 e635 c03e ed1b 9a48 9fe4 ea3e
00000020: b5e4 1ef8 05b8 d83e 39be c466 07f0 623e
00000030: 8355 84f8 c07b a23e 4483 04f7 f717 d33e
00000040: 5972 2c7f c480 eb3e 1469 489f 107c b33e
00000050: e356 e269 4d05 bf3e 2aef 7afe dc0d 7e3e
00000060: 4c95 a23a 0f75 a13e 3b5e 95d0 ef51 c33e
00000070: e8e7 99b2 1433 db3e e000 4c73 4f84 b53e
00000080: 7d67 0733 7281 e23e 9021 823c 0f0b dd3e
00000090: 814b 60ea abb1 573e 4eb5 c6b3 96bf ce3e
000000a0: 1bb7 a74b 0e5f e53e 8447 9494 76e4 3d3e
000000b0: 3b09 7381 19bc d83e c2ac 3f2a 03d0 d93e
000000c0: 1d80 27ca f6f5 e63e 4517 12ea dd96 9f3e
000000d0: e5ba 39ba 1573 d03e 2ce8 eb81 232f c03e
000000e0: 941b 57e1 2fc3 7a3e 7a40 f9d6 7f69 763e
000000f0: 04ea 8385 2efa d53e 8a26 ae57 b3cd bf3e
00000100: 9c7f b04f c15f da3e 1536 ae2a 8c4c e13e
00000110: 03ee 3dff 5df8 b63e 7a2b 8270 cc86 c93e
00000120: 7a44 2628 8634 b33e 7fce 3597 cac4 b63e
00000130: a8f5 9899 3547 c03e 21da e0df 2cbc 863e
00000140: 8d27 2ac3 bcea ea3e a40f 0e06 e9d6 cd3e
00000150: 053f 61f2 b4e4 723e 2bcc e463 ec98 d03e
00000160: 0504 174b 6c50 c83e 2bab 436e 49f3 af3e
00000170: e87a 2fc2 cb44 f03e 2a24 9905 0f4a c93e
00000180: 2665 64ef c373 d33e eef1 fe6b de26 e53e
00000190: a8ee 67ce 6af3 b03e 552d 9751 29fe d93e
000001a0: 6257 1544 8cbe 873e 70d7 9a72 3624 cd3e
000001b0: 110f 8252 03fc ab3e 0d96 ed3b 2040 393e
000001c0: ad42 e61f e686 983e 68d9 4660 d046 c43e
000001d0: aacc b031 871c 033e 6e53 dce1 8b5b 813e
000001e0: c3df 9b4f 734a ac3e e75b 268d ce47 633e
000001f0: 2faf 5113 bf1b d23e 2546 2676 657a 223e
9.830318833802963e-07 4.8290074555348635e-06 1.932448334127154e-06 1.2823608148039188e-05 5.89343096806768e-06 3.527405287512581e-08 5.508486405093468e-07 4.552275513242818e-06
1.3114451552769987e-05 1.161374368347102e-06 1.8489785485234417e-06 1.1196044590993367e-07 5.202669986116792e-07 2.3031312862789057e-06 6.484874384699351e-06 1.2825034449437863e-06
8.824180981404278e-06 6.924438771823199e-06 2.2066784531657563e-08 3.6654941181965057e-06 1.0190635625097506e-05 6.959874740131381e-09 5.8972273315214294e-06 6.154191087386065e-06
1.0948561173174159e-05 4.70717603625086e-07 3.921878405684368e-06 1.9292993010929494e-06 9.969789290581778e-08 8.349160451307293e-08 5.23979004917819e-06 1.8956373810406843e-06
6.28806196359402e-06 8.248812567913794e-06 1.369129674493454e-06 3.0430027245278943e-06 1.1447174591320759e-06 1.3571212463509928e-06 1.9405080820256047e-06 1.6938939490099986e-07
1.2834998505146188e-05 3.5571447800103766e-06 7.038334767891904e-08 3.9571182795404575e-06 2.898472836604818e-06 9.521943096479123e-07 1.5515073879752728e-05 3.014718498649018e-06
4.6377679068451755e-06 1.0085979169954244e-05 1.0103493025538958e-06 6.19717072809373e-06 1.7690902790839607e-07 3.4739322430599615e-06 8.340008763739391e-07 5.879088270766981e-09
3.6548001949250776e-07 2.417161115010592e-06 5.562160483769655e-10 1.2932422149198787e-07 8.431321980297978e-07 3.591272136891808e-08 4.317375261835527e-06 2.1511352015606543e-09
